HF_Fire/PG/results/NovelGridworld-v0_c0_b0_e1.npz (npz, 14334 bytes, 2 tensors)

layer1 f8 [103, 16]
00000000: 4727 8106 4251 cc3f 0cc7 5608 6743 c1bf
00000010: 3cab d7a7 06a5 9dbf abcd 28a0 9f2f bfbf
00000020: 4508 4fbf 44b8 bd3f 329e d0a7 b75c bfbf
00000030: ee09 b82c 334e d03f 1a79 ce9d c986 c4bf
00000040: a9a2 542c ad2a 98bf 42e7 95ae 14ea 9abf
00000050: c99c 9a29 b495 cd3f 11d6 640e a9ac c3bf
00000060: 03a6 28bc 53d5 a3bf 0133 5c81 ae8a a6bf
00000070: 57bf 3592 2440 aa3f 8bad d78e 81c1 bebf
00000080: e1ef 04ca 1de1 b9bf ce57 dca2 e4e3 9a3f
00000090: 3b38 b7bd 8d1a a3bf 5e68 3e1c 8aab af3f
000000a0: e0c1 d128 f37f babf 5a9a 88b1 5c05 b23f
000000b0: 4d76 c1bb edbb 633f 646d 0a81 8d7d c03f
000000c0: ab89 8359 f973 c53f 2041 93a5 20f1 83bf
000000d0: c934 d8ff 47f1 c2bf e1e3 6bc1 dc4c c3bf
000000e0: 56ed 36ed 727d 9bbf ed5e 3d55 7c3a aa3f
000000f0: b8ea 5618 8bf1 953f 32a3 9fcd f1bb b0bf
00000100: 80a6 01ee 3ac1 c1bf 53a5 a5c5 532b 7e3f
00000110: d4ea a481 a92a adbf 2dee 8199 3ecf 963f
00000120: d73b 5c92 dea0 c1bf aa7d 73eb 3e30 a2bf
00000130: d046 014d a1ad b03f 96c1 d98e c97d c23f
00000140: 0ff0 c563 f1c1 a23f 99ee b78e 21d6 aebf
00000150: 46bf baf1 4d4f c7bf b589 a859 6f91 c03f
00000160: 094a f7ee 8df2 a93f 429f 3435 aeaf a0bf
00000170: ea30 b997 693f b33f 4fe6 5fa3 d6b5 d13f
00000180: 9e78 8102 5e3f 883f da19 420f 1f23 af3f
00000190: 2d19 c115 5849 9e3f b538 853a 46c5 a1bf
000001a0: 942a 7d37 c2d1 bcbf c15a afa5 ba9f a1bf
000001b0: 7c45 6817 b313 95bf febc 0c3b 2f98 ad3f
000001c0: f153 435f b229 b53f 6d94 717f 8c7c b73f
000001d0: f98f 0003 abd0 9c3f 24be de20 c253 b63f
000001e0: 6b93 a46e 7d07 b3bf 8847 28a3 569a bf3f
000001f0: 2c08 6cff 70e0 a93f ac42 1bdb ae13 9ebf
00000200: 3a24 77b8 2aa5 a83f f35e f582 0380 7ebf
00000210: b846 a6d5 718b bc3f 21e4 afd4 122b c33f
00000220: be99 d253 a090 cb3f 2337 e7c7 e79c c1bf
00000230: d2d8 3932 a636 c2bf 3b9f 9052 2173 a9bf
00000240: 5411 2860 ba25 903f 09f7 1f0a d219 b63f
00000250: a966 fde4 cad8 9f3f 6160 1db8 2281 c9bf
00000260: 3b0f fe78 31e5 9ebf 5d84 92ae 9be2 b43f
00000270: 2f34 befc 4d37 973f afba cdf0 a638 b33f
00000280: 653f 5f49 6d35 a83f 7131 b61c 2446 b1bf
00000290: 3961 9b80 1f4c a13f 5561 3fa3 51f7 9f3f
000002a0: 7a3e 9994 0c4c ab3f 2106 89fc 83bc bc3f
000002b0: 28ec 36fd 6863 23bf 43e4 b429 9425 99bf
000002c0: 633d a06b ca5a a4bf 645a 590c 0ca1 bb3f
000002d0: 7b3f 18c5 91ed ca3f 3f35 aafe aa78 af3f
000002e0: 0fec ab1e 48dd adbf ddcb 2b4f df0b aabf
000002f0: f4be 4f1d acb9 8cbf 6ede 2494 235d 863f
00000300: 37ce 94b2 9a05 adbf 6508 ee8a 3c6c bf3f
00000310: cad1 3402 f7c6 b6bf e1ae 6836 5c4b 9a3f
00000320: 39f4 3bcc 81a0 afbf c2b5 bb1a ecc3 ab3f
00000330: 80a2 b959 3313 b2bf d403 af18 dd90 c43f
00000340: e48f 9cfe e4d6 b1bf 3318 3342 ea58 a53f
00000350: 52bb a7cf 0ea1 adbf bba3 745c 4d79 c4bf
00000360: de36 ad0c 3acf 9fbf f229 3733 8261 80bf
00000370: e716 8a4b 61f3 b2bf eb8a cb26 f527 9a3f
00000380: 8356 ef0f 5476 b03f 5cd3 fb19 7d18 adbf
00000390: 624a f306 46f6 a03f c280 4398 2032 bcbf
000003a0: 52a2 7818 89e6 96bf a38b 097a 2866 c6bf
000003b0: 9a9f 016c 6970 b13f 2807 c6a4 8b06 b53f
000003c0: bafa f387 c721 993f b09d 4f8c 337f b3bf
000003d0: 14fa cea0 97c7 b63f e859 b456 0564 c33f
000003e0: 62f7 e65b 5b98 c6bf 8030 a09f 3b74 c03f
000003f0: 2398 e187 c529 c73f 4865 c521 7791 a43f
00000400: ee9c 7dd5 3740 bebf 43af 333c 03c7 b53f
00000410: d9e4 5f59 2341 92bf fd46 ba4c 9477 aebf
00000420: bbda e634 0b07 bfbf 36c2 c71c 24c6 ab3f
00000430: a618 9c8a 83ff b33f ece5 6a8a d774 afbf
00000440: 6fe7 6509 3243 aa3f 08e3 5626 88dd bcbf
00000450: d416 bb0e fb39 b43f 81ef 2889 4ccb 723f
00000460: 3fc8 c916 10d3 92bf d586 0d80 2788 84bf
00000470: 4a92 a6d7 caea b53f 1d88 22a5 bfed b23f
00000480: 5ed3 d4f3 feb5 aa3f b594 7402 98c9 8b3f
00000490: 1ba6 67ee 6b68 7f3f 4903 d7fa 5232 af3f
000004a0: f851 3ea9 4a75 973f bbac 2756 8b37 b13f
000004b0: 52ee 5d57 424a 9fbf d2d1 1627 6db5 cebf
000004c0: 7ff9 357b 2934 ba3f c129 1502 2995 cb3f
000004d0: 0cc6 8d5f 2e44 a63f d720 8282 fb35 84bf
000004e0: 8ffa 046a af88 8bbf ed7f 18a5 4b06 88bf
000004f0: ab60 b2b1 e81a 5c3f 1ce4 2f60 624d bcbf
00000500: baac 9bdd 7dc1 823f 2225 fb2d edc0 bfbf
00000510: 7dda b41e 914a b03f 9869 c526 296a a3bf
00000520: d403 9130 9645 b43f 6969 5f9b 57ac a43f
00000530: 8896 f167 516f c03f 8092 ab6d 9193 883f
00000540: 4984 c4a4 1cc5 c83f 5591 33bc d610 c8bf
00000550: d476 66ee 3f11 99bf df4b 77a4 d9fb b63f
00000560: ada5 0484 a7bf ce3f a0eb 8db9 b5d6 93bf
00000570: 444d a22f 3f7f 91bf c729 35f9 4aa8 91bf
00000580: 82d9 11d9 30e2 bd3f 3b2b 86d0 2266 a43f
00000590: 0d92 3d8a dea6 a23f ce24 b695 7d91 abbf
000005a0: 81d5 057c 209b bcbf 5435 3d77 f792 7c3f
000005b0: d933 e508 99e5 953f 0d45 12dd 71a3 c03f
000005c0: a4a3 f367 91ae a23f 793b 3162 0c5b 96bf
000005d0: 34a6 1a85 bee7 853f 63c2 c2a0 c7b6 a3bf
000005e0: bd36 6054 82d5 8e3f da2b 4617 8c9e a0bf
000005f0: c178 0fd5 d0cc c13f 454f c922 e246 9e3f
00000600: c7c7 a79b 0c7b c63f 92ef 8c54 993c ba3f
00000610: 7c77 0c5c c2e8 ab3f 338e aeea db0a c3bf
00000620: 3fde d126 5f1f aa3f bbc6 8d4e c899 b13f
00000630: c885 50aa 37f1 983f 15aa 82f5 1895 b73f
00000640: a94e 9a75 7273 b3bf 5f71 327f d2b5 a33f
00000650: e674 0530 d53d b6bf 4ef5 2940 34de c93f
00000660: 43e0 c0ec 9995 bfbf 367d f47d 26f5 c3bf
00000670: 0b80 862e 17ec c4bf 1567 3fa6 b730 b2bf
00000680: 162b 54db a23a bcbf afdf f20c a5ab c83f
00000690: 8b7b f100 b678 a0bf b7df fd2f 22ef c0bf
000006a0: c3d3 c4a6 131c bc3f 346e b414 e796 adbf
000006b0: eb3b a379 ec32 bfbf 5ccb 4e86 b017 b63f
000006c0: 415c 8544 aa72 af3f 4e72 0bee 6cf1 a5bf
000006d0: d398 a2f7 8fc0 c13f 7f05 cf0d 570d 8a3f
000006e0: ed1d bd54 b064 c43f 1d8f 8429 da5c a93f
000006f0: 3886 f31e f5a8 c33f 1b2f ccf7 b313 863f
00000700: 2706 037b 71c4 bebf 0662 1fb7 57e4 ce3f
00000710: 5f24 e884 9f88 abbf f2d6 5004 f20f 94bf
00000720: f008 5b85 caaa b1bf c2da e522 a485 94bf
00000730: 1dbe 6c62 1b7c 983f d4c8 6081 3c5d 943f
00000740: 02b6 0211 82ac b03f fa29 2aba 639a c63f
00000750: 155b b9c8 274f 88bf 6192 f703 d21a bfbf
00000760: 27c9 2fce c3d2 bdbf 4f3a 0e43 14cb b0bf
00000770: c0a0 816b 851d c5bf 54c1 2d94 97cf b43f
00000780: 65cb 1dd9 d822 81bf a117 a54c 87c1 a1bf
00000790: 006c 2eae 9a3a a13f 3821 a8de ff66 c5bf
000007a0: f413 c9f1 f3c3 abbf 6e23 1bf8 a3a5 bb3f
000007b0: 7c31 3262 fe54 b23f 9f93 9241 b847 acbf
000007c0: 2d22 052a 1c0c c63f 3867 122b d4ed bfbf
000007d0: e98a 7755 fe4f a2bf 74fd fc0d 35a8 9abf
000007e0: 6412 1f27 6b49 d2bf 750f f75e 798e c83f
000007f0: 9bbe 3b65 f86f a03f 0828 3a64 ca31 babf
0.2212297946701318 -0.13486946017433643 -0.028949836725512088 -0.12182042751447024 0.11609296484587713 -0.12250850531619831 0.2547729431827567 -0.1603633900203441
-0.023600297766423726 -0.026283572345597202 0.23113109618609531 -0.15370667651011208 -0.03873693153247972 -0.04402680710891183 0.05127062115468444 -0.12014016854634783
-0.1010912531100412 0.026259968223790335 -0.03731196347108364 0.06185561747334199 -0.10351485964361684 0.07039431890789541 0.00240894729908695 0.12883156586472488
0.16760174628059352 -0.009737258007959826 -0.14798831932458814 -0.15078315205008067 -0.026845737198283835 0.05122746029399914 0.02142922721916804 -0.06536780614954976
-0.13870941754730737 0.0073655388208434145 -0.05696611125536824 0.02227495014129326 -0.13772184511660043 -0.035524336091607836 0.06514938478474197 0.14446372485282372
0.0366359171193552 -0.06022744052094459 -0.18210768035123176 0.1294383228096884 0.05067866842331987 -0.03259033584100603 0.0751863475244964 0.27672353701163827
0.011839613391370126 0.06081482945687684 0.029576660468842043 -0.034708208697894184 -0.11257566313467243 -0.03442176125070296 -0.02058296041838535 0.057801700552198895
0.08266749215847803 0.09174421416681051 0.028139755304565004 0.08721555044643786 -0.07433303786508609 0.12344876750310452 0.05054047697014172 -0.02937195980377065
0.048135123269795035 -0.007446302144067596 0.11150275674870158 0.14975200066672392 0.21535114376929515 -0.13760087262056073 -0.1422927613491028 -0.0497064984595554
0.015768921011855966 0.08633148905934375 0.031100435472899566 -0.1992534064290821 -0.030171177873412374 0.08158276569385366 0.022671907950599198 0.07508319262499684
0.04728261490492861 -0.06747651768654862 0.033783897828188754 0.031216884220925795 0.05331458391139861 0.11225151935016033 -0.00014792114835224354 -0.02455741409832891
-0.03975517810624287 0.10792613317003369 0.21037504314199026 0.061467498385449286 -0.05832887052925894 -0.0508718284744629 -0.014026016850010127 0.010919836004730867
-0.05668338231990016 0.12274530784455491 -0.08897346309533485 0.025678101368767584 -0.061771446400577586 0.054229143393836235 -0.07060547771983217 0.16067088799721196
-0.06968527999975965 0.04169399316883506 -0.05786939892629185 -0.159951849121425 -0.031063944839209927 -0.00799848288342717 -0.07402618498062062 0.025543051236023222
0.06430554760967237 -0.05682745878394854 0.033128918026382306 -0.11013988225340923 -0.02236379825459018 -0.17499261816837217 0.06812151800988744 0.08213112614432971
0.024542920754351917 -0.07615968871652146 0.08898303676594593 0.15148989423387538 -0.1765245627156516 0.1285471467421111 0.1809622682077939 0.040172312614866146
-0.11816739046263411 0.08506794185421733 -0.017826607065192988 -0.059506067625205696 -0.12120122949168437 0.05424607135126218 0.07811758169200064 -0.06143830837886441
0.05129391064379162 -0.11275530754108953 0.07900971517218675 0.0045884122542324554 -0.01838326586807448 -0.010025318713533885 0.08561389698895386 0.0739402559434272
0.05216976858574783 0.013568103384907418 0.007667943579215765 0.060930817718605264 0.022908369617271135 0.06725378850358059 -0.030556713659718966 -0.23991169365548487
0.10235842950894457 0.2154895076913146 0.043488930858881586 -0.009868588371560722 -0.013444300101239008 -0.011730757690258964 0.0017153999713510986 -0.11055579040829894
0.009158118558352125 -0.12403757450660582 0.06363780021352201 -0.037919317229085425 0.07918680844979004 0.04037736674918586 0.12839715552688724 0.01200021377503302
0.1935153774766454 -0.188013879676087 -0.02447986500339179 0.08978042855532874 0.24022382684897306 -0.01937374062570607 -0.01708697059855281 -0.017243548832348823
0.11673264789155804 0.03984173579654856 0.03642936170107101 -0.05384437992604206 -0.11174204852962612 0.0069760958320562345 0.021383658569266693 0.12998793882847118
0.036488098086756154 -0.021831696980651103 0.01069592326833222 -0.03850387418186043 0.015055673789926666 -0.03245961937053439 0.1390629806837236 0.029567273495856545
0.17563016510353988 0.10248716654035508 0.054510186897672036 -0.1487688918979174 0.051020596970314795 0.06875278394525257 0.024357671518492358 0.09211879724413337
-0.07598033305321884 0.03849656870554229 -0.08688099310298333 0.2020936311054506 -0.12337648420441476 -0.15591889524601193 -0.16345491191623326 -0.07105586823254513
-0.1102697167845402 0.19273818142187113 -0.03217095147623813 -0.13229777663559414 0.10980341741090087 -0.05779192092651578 -0.12187078447026038 0.08629897383688728
0.061421700348255566 -0.04285755544490098 0.1386890372425059 0.012720756634623907 0.1593227781070107 0.04953653103646458 0.15359367381374667 0.010779767989809444
-0.12018498662202913 0.24134346429379167 -0.05377672669789812 -0.019592076791204734 -0.069012315328141 -0.020041050558087255 0.023910930521365715 0.019886918446169258
0.06513226428315735 0.17658659544061078 -0.011869726956474072 -0.121502996414685 -0.11649726661542968 -0.06559874188517621 -0.16496341466268483 0.08129260413784795
-0.008367246747843013 -0.034679630380693334 0.03365023971783643 -0.16720579502021748 -0.05422937704546618 0.10799622351909274 0.07160940072407657 -0.055234678272689346
0.17224456836471927 -0.12472272922096017 -0.03576655190751927 -0.026032284716391144 -0.28573111362883297 0.19184796463934686 0.03210426555403708 -0.1023222441382644

layer2 f8 [16, 5]
00000000: fdf1 ac84 55a2 d2bf db0f ce90 9a2e cf3f
00000010: 5c69 b328 13a9 d4bf b608 0afd 08ce cdbf
00000020: d248 d07b 8d48 d8bf 72e7 5cbc def8 c83f
00000030: b9ef 804d 5630 cbbf dbf7 f0b7 99c7 da3f
00000040: 040e 1347 23c8 cabf fc66 1355 863e bf3f
00000050: 8761 1218 6d58 d83f 0f61 30e4 0692 99bf
00000060: b2a4 35a4 969d d4bf 6833 269e bf5c b8bf
00000070: 9515 f297 83b0 d53f 5592 829e 7d81 c33f
00000080: b8de 2c25 d8fd bebf 52b1 d731 2d5e dabf
00000090: 4a4b 3dd4 00f6 c83f d02a 7156 2fb9 d83f
000000a0: a5a9 60e4 ef8b d93f cd0e c8a1 4bb8 b73f
000000b0: 9e4e bbbc 35d8 b6bf 7017 f1b6 2ff4 c8bf
000000c0: 72ea 5e1f 4204 c2bf 900c 3ed9 bb2e debf
000000d0: 907a c68c 46ae e13f e45d 1084 8734 ad3f
000000e0: 19ed a351 a09a e23f 4f90 58f3 3c62 a9bf
000000f0: 8d63 3442 48a4 debf 2501 0c78 1738 e13f
00000100: 9bd3 453e 6ee9 c7bf bf83 973f d28f bfbf
00000110: e825 964f 0a21 d93f d60e 0e2b 03fe d73f
00000120: 8d50 ccd7 6193 e3bf ff53 501e 5687 bf3f
00000130: 0997 976b 2372 d0bf f5ca 6f12 7e9e bf3f
00000140: 084e 1382 0fc9 da3f beff 2b32 fc7b c0bf
00000150: 3f2b 4196 d5a3 dc3f 77b3 6506 95ad d0bf
00000160: d814 882e 3f01 e13f a6cb eeb7 e5af d0bf
00000170: dc9c 9502 8316 b8bf 4298 12ea b7ec c23f
00000180: b098 af54 91df d8bf dbb2 934e 4866 d73f
00000190: d3b4 03b5 bce5 d5bf e73d cb38 9faf ce3f
000001a0: b498 a1b9 86ef d3bf a2f0 905a 1dcf 65bf
000001b0: 2421 e260 312b 9ebf 3f48 e811 6b42 b8bf
000001c0: 9e08 d0fb b93d ac3f 7157 1bcb cc54 cbbf
000001d0: 6626 6a9e d204 da3f 8745 f85a 4590 af3f
000001e0: 6399 6e47 0e2f e7bf 68ca c6bb 2fe7 de3f
000001f0: 4107 8793 8b5e b23f bd8e cf8d 93af db3f
00000200: 2e7e 2d23 7b7f abbf 3891 7359 84e9 e0bf
00000210: 9e9a 45a1 1db4 bebf 98cc 1a74 7776 d8bf
00000220: 7295 3ecf cb38 82bf 1052 db52 b0f3 bfbf
00000230: d533 87a2 b503 90bf d271 02ab ffc1 d7bf
00000240: db99 bf9c 9591 a73f 3e20 39f9 5623 c3bf
00000250: 4248 c9d2 f5b5 c33f 008c abfb 67cf dabf
00000260: 706f 212a 51ec bdbf f197 4480 ed98 d93f
00000270: 922b 58bd b322 d2bf 7454 7615 1da4 c73f
-0.2911580844554747 0.24360973425439067 -0.32281950926485137 -0.23285019259862388 -0.37942826358006443 0.19509491155059383 -0.21241263183935447 0.41843264544502085
-0.20923272104674606 0.12204780175252589 0.3803971037937334 -0.024971110990095243 -0.3221184352501708 -0.09516522990288723 0.33889856184426864 0.15238924255131062
-0.12106085689162682 -0.41199807994305104 0.19500742305043622 0.3863027900849092 0.39916608145235905 0.0926558752035433 -0.08923660142618892 -0.19495197708800616
-0.1407549527337611 -0.4716024037845239 0.5525238751905182 0.05704139220341256 0.5813752741372894 -0.049577622132603076 -0.47877699342057484 0.5380971283594006
-0.18681123772298922 -0.12328828861747264 0.3926416184627599 0.37487868504125055 -0.6117409910971375 0.12315881958086548 -0.2569664526657652 0.12351215314974325
0.4185217638271017 -0.12878372621343986 0.447499653561568 -0.2605946123574578 0.5314021977252663 -0.2607359214991284 -0.09409350216957385 0.1478490727360527
-0.3886454894076321 0.3656178252556807 -0.3421470420569907 0.23973455689564035 -0.31149452331591054 -0.0026622365299130016 -0.029461642778671707 -0.09476346194449635
0.05515843581089651 -0.2135253898365437 0.40654435606174955 0.061647574763024564 -0.7244941134602353 0.4828605016474854 0.07175514556641095 0.432591331946451
-0.05370697788634647 -0.5285054919336636 -0.11993584811498656 -0.38223062837932664 -0.008897392522906531 -0.12481214545125163 -0.01563915066235551 -0.3712157411589746
0.04603259600098727 -0.1495159832868484 0.15399048607156557 -0.4189090688434476 -0.11688716200427307 0.3999589684120784 -0.2833680485788871 0.18469584987602483
