HF_Fire/PG/results/NovelGridworld-v0_c0_b0_e2.npz (npz, 14334 bytes, 2 tensors)

layer1 f8 [103, 16]
0	0x3fd3ffc055c67b79	0.3124848210954308
1	0xbfc6f141fd99a43a	-0.17923760302372377
2	0x3fa6bedde260ce95	0.04442494762807062
3	0xbfbb5c97d6e6f1ae	-0.10688160893091123
4	0x3fb4324ecda01400	0.07889263649128964
5	0xbf93ae3c06d56159	-0.0192193392916534
6	0x3fd551e53a369076	0.33312349972607735
7	0xbfcd109ec904bf22	-0.2270697099243018
8	0xbfa5f740a1b1cab7	-0.04290201162156875
9	0xbfb8214140d4b40d	-0.09425742943558664
10	0x3fd2c769629bacb5	0.293421121880509
11	0xbfc975f19c4380e3	-0.19891185884535564
12	0xbfba3a93d8851dc1	-0.10245632206089451
13	0x3fa02257547543f4	0.03151200204832341
14	0x3fa1cb398759b193	0.034753606579076245
15	0xbfb41c1f4aac5f32	-0.07855411122397696
16	0xbfc7f9c29aad7ddf	-0.18730957558271563
17	0x3fbc5ae6f635c2e2	0.11076205740915726
18	0xbfb7e47a554f8824	-0.09333004553585106
19	0x3fb33b919efcd5d9	0.07512769824537403
20	0xbfbf45c22942e419	-0.12215817935329233
21	0x3fa123f07e895381	0.03347732109674607
22	0xbfc89474833cda73	-0.19203049095240807
23	0x3fceecb75656a48d	0.2415990039419608
24	0x3fc6e3459a477c01	0.1788107875172216
25	0xbfac41fa557399cd	-0.05519087117299968
26	0xbfd75a05625dbd9a	-0.36486944776603425
27	0xbfc9f59ddf8a4c7f	-0.20280812659311562
28	0xbf928973c0c7a7bc	-0.018102463380195152
29	0xbf8e6a0830959db5	-0.014850677473716137
30	0x3faf4bff9b6d27c5	0.0611266972760656
31	0xbfad433b0546b9b4	-0.05715355338485342
32	0xbfd543006682f628	-0.33221445094008795
33	0x3fb7808f5ac17c39	0.09180541959493461
34	0xbfc48b69df8eed74	-0.1605045644372286
35	0x3f5066fee4958515	0.0010011185825862846
36	0xbfc49382f7fb8224	-0.1607516966678456
37	0xbfb280dff53f6a2a	-0.07227897393696794
38	0xbfb3041a7acc2a8c	-0.07428136346804076
39	0x3fd05a1fbf20f222	0.25550073304092014
40	0x3fb7c5ae6b40df69	0.09286012762538366
41	0xbfb5a15aad57d704	-0.08449331981668357
42	0xbfd692d0878dd12a	-0.3527108501214281
43	0x3fc3f97e25676c23	0.1560514147412003
44	0x3fb840e53a1a8362	0.09474022549194452
45	0xbf9574f01a0a6d07	-0.02095389517726878
46	0x3fc685dc4acd198f	0.17596009876633587
47	0x3fd3e76261124f62	0.3109975765194034
48	0xbfd29401673a1063	-0.2902835376810399
49	0x3fca348f0d5c7169	0.20472896721265535
50	0xbfb66dc9d52c9ad5	-0.08761273817490729
51	0xbf9dc9161339f3fb	-0.029087395595059445
52	0xbfc0acc0e9207419	-0.13027202017920628
53	0xbfc26380c9f3033c	-0.14366159306339366
54	0xbfcea45aec610411	-0.23939072172109424
55	0x3fc66a397d06c928	0.17511671643075855
56	0x3fca8d9fefc2f4bc	0.20744704444033413
57	0x3fc1fd12861870da	0.14053565547590702
58	0xbfbe134f2f71f555	-0.1174821368058095
59	0x3fc20d236111d9f0	0.1410259460423755
60	0x3f935793baa21dd5	0.018888767496290832
61	0x3fcdadf29df6846d	0.23187096322093073
62	0x3fc0dd3a9502b9dd	0.13175136829290937
63	0xbf8f8f3a775afe3b	-0.01540990521186735
64	0x3fdf3162b20a809d	0.4873892534906277
65	0xbfdaee37c62d2e30	-0.42078966477558577
66	0x3fcecc67cb50979f	0.24061295917016154
67	0x3fd221474b02b626	0.28328115773442375
68	0x3fd4216f75a08cee	0.31454073416735084
69	0x3fce119844d62dc7	0.23491195069469326
70	0x3fd0c96612d79bfa	0.2622924026495067
71	0xbfda93cce5354c4e	-0.41527101882565354
72	0xbfd608c677a6dabc	-0.3442855995630614
73	0x3fa1a6e8e8f078fa	0.03447654574869037
74	0x3fe0cf0d4baaca7a	0.5252748945116104
75	0xbfc20723c629498f	-0.1408428876480454
76	0x3fbe8a3555c20840	0.11929639190387409
77	0x3fccad4ce6827098	0.2240387082609956
78	0xbfd523a6ff9bf308	-0.3303010460074778
79	0xbfb85766d3a8d16b	-0.09508364360300951
80	0x3fbc7634edf0f5d5	0.11117869195091797
81	0xbfb16e6d8e990ee9	-0.06809124690431258
82	0x3fbd5ab6dea185e6	0.11466544089628136
83	0xbf740c5735cfee73	-0.004894581475123882
84	0x3f8d1fbd11a42f6f	0.01422069273078083
85	0x3fc921df473e9c09	0.19634619692553226
86	0x3fa091d8033fd72b	0.032362699886944256
87	0xbfa8df0cc0ec0b14	-0.04857673506741925
88	0xbfa4711ce361b417	-0.03992548251776656
89	0x3fa5d116826853fc	0.04261083928955853
90	0x3fd04e6669cd467b	0.25478515941822594
91	0xbf9457c16e5d19a9	-0.01986601101023103
92	0xbfbd83b05e3c45df	-0.11529066372556639
93	0xbfb07fe54d990b8c	-0.06445153374174434
94	0xbf9b5262a19af4dc	-0.02668146239624468
95	0x3fb65e0fcb1a31ee	0.08737276752999154
96	0xbfbadfb471eb2156	-0.10497596532070949
97	0x3fc5b170c074b004	0.1694775523877753
98	0xbfc4d98360e8476d	-0.1628879759960528
99	0x3fb080effb2cf2d6	0.06446742899147337
100	0xbfae7863da8e1057	-0.05951225321680969
101	0x3f9eec4e43012cf7	0.030198309745441212
102	0xbfc1b7e273a78ae3	-0.1384242119521196
103	0x3fcafc6207db3f88	0.21082711585631508
104	0xbfb02ed7f38b0fff	-0.06321477599982471
105	0x3f93d35196dc72c0	0.01936080439837684
106	0xbfc3ac0f8c53eb4c	-0.1536883769220715
107	0xbfc57d89181cdbcb	-0.16789354016665778
108	0xbf6c78e7f42fc24a	-0.003475621256704896
109	0x3f79699b49199e81	0.00620422991196501
110	0xbf93b848a9f16c32	-0.019257674572468804
111	0x3fa8f7bb74a57cb0	0.04876504706293738
112	0xbfa3ac064404c94a	-0.03842181759172776
113	0x3f6cbfba92b0ab9a	0.003509392166525638
114	0xbfa0e2572f325380	-0.03297684146051605
115	0xbfa58012690d48c7	-0.041992736171452764
116	0xbfa76790d9e737fe	-0.045712019538413515
117	0xbfcdd08e7df5dfda	-0.2329271426240201
118	0xbf9877c7eda9a75c	-0.023894428139477383
119	0x3fc177ad0fd6ac39	0.13646472237937404
120	0x3fb1e4d142a7d572	0.06989772679647446
121	0xbfb0f2adeca6c114	-0.06620299365636512
122	0xbfb2582de994aa4b	-0.07165801003126508
123	0x3fc42d322d4d246a	0.1576292725751814
124	0xbfc32505270ecf48	-0.14956726462480163
125	0x3fc1bf4b7832ab3e	0.138650354090112
126	0x3fd1ea7f432696f7	0.27993756826104693
127	0x3fb3e3613450f3a0	0.07768828894854929
128	0xbfd44b9dbcde3bb6	-0.3171152443327928
129	0x3fc2019a832cd294	0.14067393689187624
130	0xbfb91345062b92e2	-0.09795028114929097
131	0x3f7225bab09daf5f	0.004430512673802982
132	0xbfb15102b3a95960	-0.0676423729540594
133	0xbf83a449abc3ff49	-0.009590697817202136
134	0xbfa0fdfe1cd3292b	-0.033187809961946556
135	0xbf8539ab34622ec2	-0.010363900695913645
136	0x3fc04f34bc18410c	0.12741717514337159
137	0xbfa02b5765971e0c	-0.03158066859355921
138	0xbf79fd942be2599e	-0.00634534720861382
139	0x3fa9245f53b67c3f	0.049105624169208266
140	0x3fa16130bb740502	0.03394462860343063
141	0x3fae82acba136ccd	0.05959071895059651
142	0x3fc4f6109b8b82be	0.16375930399865085
143	0x3fa7ff692f31adb4	0.04687050534343076
144	0x3fdb2ece2461c729	0.4247317652981218
145	0xbfd7fa58ffca1433	-0.37465500811987623
146	0x3fb6b34405cccf47	0.08867287770845876
147	0x3fc45001d1807981	0.15869162301619258
148	0x3fb5b7756e630d83	0.084830607843335
149	0x3fdabae2304597f8	0.4176564666180407
150	0x3fd16a48328d9217	0.2721119397813551
151	0xbfdfd74a4561e6be	-0.49751526618602415
152	0xbfd1273a6e25eba3	-0.2680193019547749
153	0x3fb004210dfb4bc7	0.06256300536487834
154	0x3fddabb20988c5ad	0.4636044591053075
155	0x3fc49a1d7dbb3cbd	0.16095322264889048
156	0x3fc8fa3ad757d1bd	0.19513640894696307
157	0x3fc0e0fd6b6de760	0.13186614747592795
158	0xbfd26d95fb6dc777	-0.2879385905608766
159	0xbfd3fd03970d3770	-0.3123177504647776
160	0x3fa1a18eb687f654	0.034435710698727334
161	0xbf9e6a74c8262f7e	-0.0297029730950693
162	0x3fb55605a0fa5e32	0.08334384136321019
163	0xbfb170642936b29f	-0.06812120443528123
164	0x3f9e128e5995dcee	0.0293676607302275
165	0x3fb41a61acb2b991	0.07852755037558824
166	0x3fbce52b3eb5650d	0.1128718402955153
167	0x3fae7e614a8001ee	0.05955795320915401
168	0x3fd04e1b46b6f8ae	0.25476724534736206
169	0xbfcb6fe4b307829a	-0.2143522142569239
170	0xbfa2bbc27ebab921	-0.036588743181129375
171	0x3f9b1e6441eaa05b	0.02648312237093396
172	0x3fce975e3768e277	0.2389943857722476
173	0x3f92891f77b1eb43	0.018101207428553378
174	0x3f947ea28bbe84ca	0.02001432397776596
175	0x3fc07523bb8590e9	0.12857481628737524
176	0x3fb3328be688f8fe	0.0749900281743727
177	0x3f85d3ad1ecc49b3	0.010657646658306463
178	0xbf87cfc4a9e9bfac	-0.011626755175910684
179	0x3f933997bb012c1e	0.018774386204580044
180	0xbfbdbf7ea82a7150	-0.11620322805032868
181	0x3f8d0e9a7673fcba	0.014188009967709515
182	0xbfa541fdeb8d8888	-0.04151910305405787
183	0x3fc4948bb1ef6a87	0.1607832545112908
184	0x3f99b49fa9bceb5f	0.02510308717249232
185	0xbfbc87557418a87b	-0.11144002994902451
186	0x3f63d53190184601	0.0024209945702373674
187	0xbfa63a2ad5272d35	-0.04341253139463178
188	0x3f9756f670078a90	0.022792673671470143
189	0xbfa2e48a7b5c80df	-0.036899879034764764
190	0x3fc16fefd88b7c75	0.13622854302863954
191	0xbfab433bbc12192a	-0.05324732466492528
192	0x3fc27c3afdf4cc39	0.14441621208388414
193	0x3fbfe926e3a42af6	0.12465136582992983
194	0x3f9db09afae7e78c	0.028994008602218055
195	0xbfc7aff0a1e46dfb	-0.1850567617883455
196	0x3fb1fd6f34ffcb72	0.07027335208821997
197	0x3fa09630820e420b	0.032395854831637726
198	0xbf8f4b0f4bde5cf4	-0.015279883864236933
199	0x3fbc4bb08a0527e3	0.11052993173248597
200	0xbfad397da3b51181	-0.05707924483661753
201	0x3f852cc62874fe26	0.010339305982255697
202	0xbfc4004f205a83ca	-0.15625943259968117
203	0x3fcc39081a498987	0.2204904678683983
204	0xbfb5e9f9ac97fd64	-0.0856014295932162
205	0xbfc3df964479b9c9	-0.15526083320169295
206	0xbfb21e4eec895f66	-0.07077496790713908
207	0xbfabf528df64250f	-0.05460479475920909
208	0xbfc04bb09410687d	-0.12730986814205272
209	0x3fbf91ce815f470f	0.12331858309269371
210	0xbfa72478fc8ceb11	-0.045200138882554815
211	0xbfb34cb8d89420bb	-0.0753894356495292
212	0x3fc5b5c789441ac6	0.16960996820872348
213	0xbf7c9a83d1b8389c	-0.006983294409577703
214	0xbfbac18c2232df74	-0.10451579890184154
215	0x3f8c9653fe52732b	0.013958603094857821
216	0xbf8616f784537a2e	-0.010785993314525202
217	0x3f9395e18f5b7372	0.019126438498335792
218	0x3fc680580193da5f	0.17579174115208482
219	0x3fb6dafdc766fd44	0.0892790424177195
220	0x3fcb198a4f0116c8	0.21171692712430557
221	0x3fba8d347f91454a	0.10371711840095546
222	0x3fbb8791b47d426f	0.10753737122036865
223	0xbfb4c8f735a1347e	-0.08119149264639877
224	0x3fa1eb807d832bad	0.03499986202367409
225	0x3fbd5dd67b28b196	0.1147131014519743
226	0x3fa3495ff5ce3395	0.03766918063693151
227	0xbf8c1df0cee42a5c	-0.013728982271023309
228	0xbfb65182d23e5161	-0.08718125946899626
229	0x3faf15c5601075cf	0.06071297452602275
230	0x3fc12dcf8bbfffc5	0.13421053241472528
231	0xbfa2d1f81f31d738	-0.0367581880645233
232	0xbf9d29291135234e	-0.02847732703711197
233	0x3fb558d42ddf6da1	0.08338667030277815
234	0x3fc21e544eb25e35	0.14155057757010217
235	0xbfb4b3105148e8f5	-0.08085729584209729
236	0xbfae118eaf14321f	-0.0587277020186756
237	0xbfaeebb385e0c2c8	-0.06039200791599836
238	0xbfcb096195038ed9	-0.2112237908942152
239	0xbf72b9e318d2ea44	-0.004571807000668008
240	0x3f756541bba60572	0.005223519105471796
241	0x3f93840e519bd1a6	0.019058440905568873
242	0xbf9997ac1987cc74	-0.024992646272903277
243	0xbfce5c8e70f38dee	-0.23719959750370329
244	0xbfb8ffdc1b05c810	-0.0976541105244737
245	0x3fc812c6720d522d	0.18807297295519856
246	0x3fa35d8db9a1a944	0.03782313242921245
247	0xbf81902ea4e2b8ad	-0.008575786978635891
248	0x3fcb416c449fe865	0.2129340491372346
249	0xbfc75cc7ac1b7595	-0.1825189199798102
250	0xbf86f1a941700453	-0.011203119573112518
251	0xbfb4e3e978090d79	-0.08160266094733072
252	0xbfcb6f5a403a6d40	-0.2143357099165346
253	0x3fcf8d52418e650e	0.24650028420436637
254	0x3fb44a15ace23783	0.07925544234077901
255	0x3f7ea04c5a08993d	0.007477091072848827

layer2 f8 [16, 5]
0	0xbfd612babb7cf235	-0.3448931532800857
1	0x3fda35d9967b8bd1	0.40953674026075954
2	0xbfdc8c95cf979f42	-0.44608063957865707
3	0xbfd08c7e9ce08534	-0.2585751087190886
4	0xbfdb353e996c6f95	-0.4251247881199956
5	0x3fc55334a81a4fce	0.16660173614638868
6	0xbfd200fcd7f8683f	-0.2813102826199873
7	0x3fe0f3d57ad2f95c	0.5297648810299438
8	0xbfc70653cda7bde7	-0.17988059560546718
9	0x3faecbe6d46a4048	0.06014939635235855
10	0x3fd4d378a86529e6	0.325407185028466
11	0x3f909e6f7d58d84f	0.016229383493019885
12	0xbfdb7067800d21a6	-0.4287356138707089
13	0xbfadd6b0dba32ba9	-0.05827858620758459
14	0x3fda77fe83f38df4	0.4135738648021452
15	0x3fca1f511a918653	0.20408071324622998
16	0xbfc691c5336ed1be	-0.1763235570084713
17	0xbfdcac994d1ba821	-0.44803459673005547
18	0x3fd0bac975a99c25	0.261400570778678
19	0x3fd688f25965f785	0.35210856180480504
20	0x3fd577e4a91f987c	0.33544270053824454
21	0x3fc25f12939b9951	0.14352638442432888
22	0xbfc96e470547a2c8	-0.19867789991191942
23	0xbfcc61f60815a763	-0.22173953432803292
24	0xbfb19a922fe915cd	-0.06876481694879218
25	0xbfe043e914be7b4f	-0.5082898526342009
26	0x3fe46ffc1c10b95a	0.6386700199271147
27	0x3fb45a9ffc2f061d	0.07950782687023446
28	0x3fe2787a8e4f01f1	0.5772068767037678
29	0xbfc36c36e7468579	-0.15173994343517075
30	0xbfe1dda428adfee6	-0.5583058161282366
31	0x3fe5d639fd6c145d	0.6824006986286225
32	0xbfcdef81e0c7ebd4	-0.23387168384200996
33	0xbfc07bb0699a577f	-0.12877469211951717
34	0x3fd3aef35214757e	0.30755312934510204
35	0x3fd8f5e908968a42	0.39000917280842284
36	0xbfe9454c305525cd	-0.7897091812130214
37	0x3fd5ca51cadd4067	0.3404736023994758
38	0xbfcef6fcbeebdbe3	-0.24191245386438628
39	0x3fa2c93e48d72ad3	0.03669161452451921
40	0x3fd9b6e755fe41ed	0.4017885532166748
41	0xbfc6dbb6d9cd4931	-0.17858014712198547
42	0x3fe44dff4ce42b30	0.6345211507590189
43	0xbfd303d39683df92	-0.29710855196707897
44	0x3fdc396732740067	0.44100360800803745
45	0xbfd0e57f83c54685	-0.26400745266173714
46	0x3fab9ca2f1ad6816	0.05392941665805055
47	0x3f86e69ef4f78aae	0.011182062006758055
48	0xbfd50ef5f843615d	-0.3290381359525066
49	0x3fd52e06ce5dc39f	0.33093423989253695
50	0xbfd82c0ada095b2f	-0.3776881341231499
51	0x3fdaec45c225d312	0.4206709285711422
52	0xbfdd4651d1c510f6	-0.4574169682057482
53	0x3f8e4523fef0cc8a	0.014780312745733565
54	0xbfc2808f4e84f92c	-0.14454833349186325
55	0xbfb750ea112db26d	-0.09107840461155954
56	0x3fafb1eec0ad4ca8	0.06190439321530877
57	0xbfd23942b76222a3	-0.284744910321516
58	0x3fdaff2a2cfdf3d6	0.4218240203261393
59	0x3fb99ba51744ec6d	0.10003120248886584
60	0xbfe9605967005a29	-0.793011380362093
61	0x3fe2d1b70dc49cd5	0.5880999821573832
62	0xbfa0ff8a6f907c00	-0.03319962131376286
63	0x3fd8e1c142f843f0	0.3887789873124907
64	0x3f829727b1c30e38	0.009077367889751206
65	0xbfe284d576c43272	-0.5787150687843463
66	0xbfa46b9f47a60ec6	-0.039883592125105546
67	0xbfdbb82be041687a	-0.4331159296031114
68	0x3f97428b150c0c8a	0.022714780006037695
69	0xbfc5905079a94e40	-0.16846662464614504
70	0xbf94c135eb4aa8ff	-0.020268290029584964
71	0xbfd9a85449e4b74f	-0.4008990022292566
72	0x3fc8c533e02d01c2	0.19351814695438746
73	0xbfc7962fc384ae66	-0.1842708306006557
74	0x3fb67bcaee6c5e00	0.0878264267051847
75	0xbfde078d45a82b58	-0.46921092798645736
76	0xbfc15f26288cc13a	-0.1357162187573609
77	0x3fdb112322c1620d	0.4229209746750094
78	0xbfce3255bcdc4e0a	-0.235911099640916
79	0x3fc46c310714e38b	0.15955174299031358
