HF_Fire/PG/results/NovelGridworld-v0_c0_b0_e3.npz (npz, 14334 bytes, 2 tensors)

layer1 f8 [103, 16]
00000000: c6c1 666f cb87 e13f 09e2 6cb0 6fa4 cbbf
00000010: e183 8e64 1a14 cb3f d752 f558 f50e c9bf
00000020: b36f 690e 2a95 aa3f 37a4 0976 9f21 c23f
00000030: f0e4 141a f18c e23f f6ee 1f80 9eeb dcbf
00000040: 1e0a 71cd 712c b3bf 4fb4 1f14 a08d b0bf
00000050: 9925 80b8 357d e03f 9643 e3bc 7db5 d3bf
00000060: 245f 1278 5fc2 d5bf 8da1 62af 459f c5bf
00000070: 0ca1 0228 c6b8 a7bf 2bb6 0cc0 c807 b1bf
00000080: ad7b 9daf 11fe d4bf c816 8224 8746 bf3f
00000090: b74f f890 8aaf cbbf 9066 cf55 8e3f c53f
000000a0: 76a7 af14 b453 d7bf 9e42 14bd b331 cd3f
000000b0: 3fc7 ef8a 1260 d6bf d129 d4c9 a6d5 cf3f
000000c0: e676 6e90 ca3b be3f 9120 3d5b e014 b1bf
000000d0: b763 6e0d 7c93 e6bf 76a8 63d0 fccd cfbf
000000e0: 8253 7cb1 783f c43f 58fb 1127 a5b4 a73f
000000f0: 8254 80e6 bf04 b63f d024 2a0f f092 993f
00000100: f10e 4ab2 9c5c ebbf 4a9b 3b8b bc8a c43f
00000110: 7dc2 2edd c748 c4bf b16f c0b5 c38b ccbf
00000120: 1a78 1e0d f0ca c9bf 9545 d84d d11a aa3f
00000130: a8d5 dcb3 b2f0 d7bf c892 31e7 e853 d53f
00000140: 9555 4733 378b b23f 02a3 28f3 2115 c1bf
00000150: 3025 d4f6 d432 ecbf 9ac2 b2e9 4b50 d03f
00000160: e669 013a 32d7 d03f 6d65 148e c009 b43f
00000170: 32be 3a20 1c60 ce3f 8030 0d72 2dc0 d53f
00000180: bb80 c364 cc8e f3bf 8020 6ac6 54f7 ce3f
00000190: 029b 9c8a 83c5 e5bf c792 ac7d d459 ad3f
000001a0: 46ef cd18 eeee 923f 77fa 5024 feb7 ccbf
000001b0: 2082 cc29 0454 ecbf f237 c9ce 0c53 d23f
000001c0: 6457 d934 c9ca d33f c770 7e7d 7b3e d33f
000001d0: 5184 3781 b333 ddbf 226d 1e21 5bc5 ce3f
000001e0: d1b0 a92f 322f ce3f ad9f fefe 2d12 dd3f
000001f0: f725 e65b 92b3 ca3f 58ab 4d85 20ae b73f
00000200: c79a eb38 dfdd eb3f cd1c 88f0 26f0 e7bf
00000210: 1b9e d6bb 8b91 ea3f 80fb 8364 7cce e13f
00000220: caba 4f44 a3de e63f 2279 c3cb 6bcd d23f
00000230: 475d 0e51 dfe7 e33f b31e f7ee a66d e1bf
00000240: 6768 de43 9a6e dfbf 3201 610d 25c6 c43f
00000250: 2ee6 dc8f b5fb ee3f 9d10 7ca8 42d3 bc3f
00000260: e5cb 43cb ac53 d13f 03cd d39f c183 e23f
00000270: 5864 fec2 42ec e0bf 6795 904c f34f e0bf
00000280: 727b 090e 8305 cb3f 8299 389e d176 b93f
00000290: 0df1 77bf 5b25 cb3f bcc3 771b d978 933f
000002a0: 06fc 639b 7a03 a1bf db5c 0739 5ef1 ce3f
000002b0: b8e4 1bc2 0a22 b93f 92fb ed77 b0c6 b53f
000002c0: 5810 126a 025b b53f 774e c5dd 679a b83f
000002d0: b50b fc8b d18a d63f 00e6 3fad cb48 c6bf
000002e0: 117c 5b17 6073 d6bf fcf3 33a2 347b d6bf
000002f0: cb18 948a c17e b63f 764d 31cc efeb d03f
00000300: 1425 7112 7a1d c9bf e293 a060 fb50 c33f
00000310: eb54 e4e7 2ec0 d1bf 154b 5b05 bd13 bb3f
00000320: ed4c 0430 5907 cfbf 4ab8 6d24 35d4 cb3f
00000330: 20e2 8111 3d08 d2bf 2c11 eb15 31c6 bb3f
00000340: e450 d924 35a7 bebf a784 6dfb f1dc 9cbf
00000350: 6b72 6c2b 7183 d4bf 9769 ce0a 1785 c5bf
00000360: 0ba2 47d5 d295 c93f fe1a 6f6e 752c c03f
00000370: 71b7 8d60 47be 98bf 0607 bd95 db96 b53f
00000380: 93b4 ec25 919d d2bf 8cb5 2915 5da1 a3bf
00000390: c3a1 0562 a495 babf 1c92 d16b 3d1e c7bf
000003a0: de52 9cd1 5f3e b1bf 2cc2 5ece 7ae4 903f
000003b0: 21d7 dc69 1fc8 b6bf 10b7 964b 7ac0 ad3f
000003c0: bb8c 02dc 2cd4 b5bf b157 9561 1351 cabf
000003d0: c907 496c 85bf d1bf ef00 0805 d5bc d23f
000003e0: 203f fbd1 d541 a13f f382 930b 6353 cd3f
000003f0: e0a2 7c37 67d5 c93f 0ba9 ea32 59ba 7b3f
00000400: ca60 aa9c 90af e1bf 6387 a1ed 7d2d 78bf
00000410: f0a0 3646 a545 d8bf 0e40 ee95 d9b1 853f
00000420: fbf6 35b3 91b1 be3f 04e5 4ad2 9eff 503f
00000430: c3cb 2a09 0373 bfbf c171 0561 483d c8bf
00000440: 0edb c418 e21e b73f 2ecc 1636 7dc0 c73f
00000450: 99a8 292c 34b0 b4bf 3652 f6bc e865 c63f
00000460: 5f1c 8a33 711c cd3f d04e 779d c479 d33f
00000470: 3131 1c91 eee4 a83f 4c00 a7da 814f 833f
00000480: bde9 e924 760e ea3f 56df cde5 7c5b e8bf
00000490: b85d 2465 31e0 e53f b116 8b81 3ca7 d73f
000004a0: 0f45 e4c5 0d2b d73f 563b b456 a617 e13f
000004b0: 5c50 1865 071c e43f 9301 ae59 ddcc e4bf
000004c0: 3328 1044 3c48 dfbf 9220 ea4d bdb3 cb3f
000004d0: 48fa b739 2627 eb3f 475a 5e02 8d7a d93f
000004e0: 23fa d8f3 36bb da3f f410 0c2b 5b2a df3f
000004f0: d8dd 0f7c 7bd9 e0bf 26fc a0cd 5d81 e5bf
00000500: 8290 cfa6 7c5d c13f 6503 c93f fb1d a93f
00000510: 69ba a9a4 f946 c53f 66c6 fa4f 8155 a6bf
00000520: e373 d6bc 8a81 af3f 8e6e a5a8 8497 cb3f
00000530: ad25 7172 9bb5 c43f d9d8 e38a 93a0 b93f
00000540: 0635 35e8 9624 d23f 4135 2245 dcfe c4bf
00000550: c5ce f294 bd61 b33f 2daa c067 2c30 a8bf
00000560: ee85 03c4 f60e c53f f2d2 66fc 0f51 b8bf
00000570: 74fe f849 8c95 a93f a61a bfdb 6a82 cf3f
00000580: 81dc 138d 39aa 823f ed50 2427 05e6 8b3f
00000590: e09d b5ae 9ad1 c1bf d641 68a8 d670 bf3f
000005a0: 632c 1da2 c4be c4bf e939 a540 8db5 ca3f
000005b0: bba3 331b 3d11 bdbf a3e9 025f 54f4 b23f
000005c0: 02d2 f65d 2116 81bf 50d8 95f7 8725 b2bf
000005d0: 6bb3 5dc5 bed6 c4bf 45de 2e09 496e 85bf
000005e0: ad2d a3d3 7563 c93f 579a e442 bed8 b83f
000005f0: 28e2 15d5 b476 c23f de48 e479 a947 8abf
00000600: df1a cbc9 75c1 b7bf 2f85 2409 ee09 c23f
00000610: b8b5 10b1 819d a2bf 5c7a 7a15 6643 d4bf
00000620: 9450 b92e a2ca a23f 0bd2 7f63 315d c23f
00000630: 8765 359c 9b69 c4bf f7b3 91ee 2583 c13f
00000640: f03b 523e 0ff6 c2bf e6e6 7ccf 6e18 a6bf
00000650: 0911 18d4 b8e1 d0bf d1d5 3730 acf7 d53f
00000660: bcbd 8d34 7955 a8bf c032 d888 3a78 c7bf
00000670: c59a 54b5 5cb2 b2bf 22aa 6a54 3e91 c2bf
00000680: 0ae1 3fd6 309f d0bf f732 c6b9 ede6 b43f
00000690: 20a7 e53e 1c81 d4bf 9d20 bbae 800f bcbf
000006a0: cb93 fbcb d007 d23f e931 ffbf efd6 bbbf
000006b0: 9278 9733 6c36 b7bf 5d12 6346 4849 b8bf
000006c0: 956b d120 c9e7 ac3f d9ef acde 4c47 c93f
000006d0: 20f4 8fa3 c224 be3f 369c ab79 e2b9 c63f
000006e0: 30cf e79d 871d d53f 3d2e 3111 7655 d23f
000006f0: 5146 ffa0 e106 b73f 0374 77c3 edd0 a3bf
00000700: a26d 20f9 72d9 b43f 818b c81b 9974 b63f
00000710: d74d 747b 51ee ce3f 2f8d 1346 37a0 ae3f
00000720: f78e 0496 d840 95bf 4bb5 cb70 f8d6 903f
00000730: e404 c466 adbf b73f ab95 5748 c981 a03f
00000740: e710 cb42 e05f 7fbf 0359 1e8d d240 a83f
00000750: 927a 1ba7 9ee3 c53f c1ce e6e1 deed a23f
00000760: 675d be6a 7820 a7bf 3abc db2e b4c6 a13f
00000770: 6d4e 4184 8622 c7bf 65b0 c47d bdc1 acbf
00000780: 5214 4671 2185 a13f 6c20 0780 f3a9 bb3f
00000790: 6108 33d1 14b4 60bf b071 a2b3 38ef cfbf
000007a0: b3dd e4ec c230 8b3f 944d 3045 0146 d33f
000007b0: de2b 6fc2 6aff ae3f 5cd2 2fd7 b009 9ebf
000007c0: 7707 3e7a fae0 d03f 211e a1c1 6755 b6bf
000007d0: 6e0f 0e57 5af4 a53f 787e 953e 03a0 bcbf
000007e0: 5c83 0b08 c5ae cfbf 91c6 ad00 8c56 c73f
000007f0: 8cf1 b4d3 42d0 bd3f 9ed4 6377 d0e7 c03f
0.5478264976318818 -0.21595569719808363 0.2115509978293906 -0.19576899379412424 0.05191928316045793 0.1416510893207332 0.5797048100859268 -0.4518810511797108
-0.07489691987670041 -0.06466103068642436 0.5152844050909834 -0.30795234151906337 -0.33998858190305925 -0.16892310203298813 -0.04633158911139121 -0.06652502716743729
-0.3280071463577155 0.1221699203616381 -0.21629459456073416 0.1660020750994602 -0.36448385257846583 0.22807928783779102 -0.3496137959292475 0.24870762686653206
0.11809984232101164 -0.06672479846486314 -0.7055034887626935 -0.2484737412954165 0.158186995184817 0.0463000879471937 0.0860099733111657 0.024974585462165078
-0.8550551874363618 0.16048390196302825 -0.15847109126982054 -0.22301527380556999 -0.20150566711976198 0.05098585200552034 -0.3740660435172125 0.33324644639496315
0.07243676187439115 -0.1334574162767908 -0.8812050648568057 0.2549009115419182 0.2631345335445573 0.078273806273861 0.23730804036812142 0.339854585054816
-1.2223628936845177 0.24192294777117596 -0.6803605754147102 0.05732597383601994 0.01848957086939087 -0.22436501286752605 -0.8852558914550777 0.28631897157617836
0.3092520729163566 0.3006886220480393 -0.45628059023699047 0.24039782635814172 0.2358153088310986 0.45423459913080927 0.20860509383446388 0.09250071768262325
0.8708339797711567 -0.7480654428371963 0.8302668255536817 0.5564557994074306 0.7146774610717668 0.2937879075888238 0.6220547278525509 -0.5446352641383413
-0.4911256468564091 0.16229689744251058 0.9682262239286439 0.11259857762712717 0.2707321152694802 0.5785835382106658 -0.5288404282065455 -0.5097595687299589
0.2111057108440622 0.09946928131885183 0.2120775875954525 0.019015686322692224 -0.0332296671567676 0.24174096855742885 0.09817569006908655 0.08506300857514607
0.08341994371045425 0.09610604442905833 0.3522228114163071 -0.1740965457864121 -0.3507919529055821 -0.3512698730481245 0.08787164338363877 0.26440043392832224
-0.19621206188666263 0.1509088727772499 -0.27735493322081933 0.10576993351723403 -0.24241175503320936 0.21741356161823183 -0.28175284108832166 0.10849291596520477
-0.1197388853991615 -0.028186589213309656 -0.3205225872095869 -0.16812408473635962 0.1998847524075845 0.12635677234921866 -0.024163356083071578 0.08433315664026617
-0.2908671255452841 -0.0383404815992022 -0.10384585755458091 -0.1806103493173773 -0.06735800616690876 0.016496580930551882 -0.08899113020455875 0.05810911343301772
-0.08526878711068069 -0.20559923424542384 -0.27731452536329165 0.2927753972180786 0.03370540798425581 0.22910726609463658 0.20182504853553151 0.006769512589622782
-0.5526812610505882 -0.0059027594635113504 -0.3792508302381199 0.010593128097553996 0.11989699006332082 0.0010375071516775533 -0.1228486916905203 -0.18937020051352074
0.09031499008856889 0.1855618013483719 -0.0808136565989649 0.17498501993817833 0.22743048683716702 0.3043071305994376 0.048621611798895244 0.009428991780510064
0.8142653199168347 -0.7611679542887753 0.6836173034125101 0.36958229685510974 0.36200279546126607 0.5341369336546034 0.6284214949141744 -0.6500078918034425
-0.4887838997534601 0.21642271332189417 0.8485289695088989 0.3981049082880514 0.4176766759227652 0.4869602127439656 -0.526548139866402 -0.6720417991817882
0.1356654943948606 0.049056865249901084 0.166228490259033 -0.04362110234559395 0.061535201598623045 0.21556146845511076 0.16179221237170563 0.1001064504706365
0.28348324467226893 -0.16402772308030403 0.07571015249669262 -0.04724253431807699 0.1645191628550004 -0.09498691475057422 0.04996908572183836 0.24616752366838063
0.009113740556570217 0.013622322327627912 -0.13920911341413866 0.12281552897935141 -0.16207178035469658 0.20866552025331878 -0.1135442916307871 0.07404067344297131
-0.00834299152379803 -0.07088517946780937 -0.1628035033894791 -0.010464258759255727 0.19834778627260388 0.09705723889474292 0.14424763111652905 -0.012831996948567011
-0.09279571701618348 0.14092803427141962 -0.03635793005410498 -0.31661369416716467 0.036702221110915506 0.14346902235378453 -0.15947289588329402 0.13681482457050695
-0.1481341413786761 -0.043155157878983094 -0.2637769767027441 0.3432417364959664 -0.04752711073421831 -0.18335658723699133 -0.07303409029973824 -0.14505747911364703
-0.2597162334709685 0.08164869103911686 -0.3203802694539366 -0.10961155191319212 0.2817270271319187 -0.10874842107222772 -0.09067417392313562 -0.0948681995242366
0.056455884224042276 0.19748841164425704 0.11774841778965639 0.17754774990973637 0.32992735310039034 0.2864661376849858 0.08994875126452341 -0.03870337496821465
0.08144301016039049 0.08771664551072257 0.2416478970340978 0.05981610041069484 -0.02075518050800348 0.016445047268395723 0.09276851424148763 0.03224019058306323
-0.007659793872054821 0.04736955616606233 0.17100890311754263 0.03697105891788289 -0.04516960433027855 0.03471911499024612 -0.1807411332871313 -0.05616562042482157
0.03421883113609482 0.10806199908904696 -0.002038994463505126 -0.24948796054094435 0.013276598791533844 0.3011477637930622 0.06054242728676916 -0.029333842405281238
0.26373159349179026 -0.08724068143157428 0.04287988960916676 -0.11181659963539825 -0.24752104657002405 0.18232870133538318 0.11645906132338818 0.13207441167438544

layer2 f8 [16, 5]
00000000: 8bef f79b 3ca5 ddbf 8481 7957 d9e6 e93f
00000010: 1933 cac8 1439 ebbf 8344 086c 1eb0 d0bf
00000020: 816d b59e 20db debf a07c 6fe7 5281 c1bf
00000030: 72a3 8ac8 f351 d1bf 276d 0ef6 c840 e43f
00000040: 0553 ed88 c410 b7bf c2c3 090e 51a6 a1bf
00000050: e5d7 3359 7751 ce3f 6597 7a94 400f cc3f
00000060: c023 45cb 4fdc eebf 12f3 fbef b2e6 b53f
00000070: cccf e55b 714d e03f 76a7 6b20 c3e5 ab3f
00000080: 1838 b853 6e5b c7bf edb0 65b2 f520 e2bf
00000090: 343a df46 edbd db3f cbc2 ddb4 0197 d53f
000000a0: 61b4 9ca2 3e2f d63f 2990 73f3 858c cb3f
000000b0: f749 d20e f6a1 dabf c3ad 5854 e3f0 c1bf
000000c0: c524 b90c b17d b1bf 67bb d759 43ed e8bf
000000d0: 880d 1242 7aee e43f 8e2f 76ca a4bb c53f
000000e0: 872e 18f8 7ce4 e43f 5790 deb3 2a34 cdbf
000000f0: 1afa 976d ae4a e5bf 36c6 c30d 2bb0 ef3f
00000100: 9e34 676a 4941 e1bf 5d06 2c1d 9f32 c7bf
00000110: 06e9 d234 62e7 d43f 21ce a065 d934 c93f
00000120: a2c1 b4d4 8bcc eebf a017 5e0f 6a23 e03f
00000130: 5796 ac7f 41ed 9dbf c59e 1185 3b14 c2bf
00000140: 95e1 8dd1 bfe8 b43f 3199 0f4a 057a c2bf
00000150: eb92 5ac2 1378 e63f c12e 6433 0430 d1bf
00000160: 7012 7660 dce2 db3f 280f e4a6 a3d5 dcbf
00000170: 4166 dc9c abb0 713f 6b7b c9b6 4333 a6bf
00000180: db8d 4ad2 5b4a d8bf 1b12 bb7d a74f e23f
00000190: a593 b102 c1e5 dbbf 4f1e bd3c c2c4 e83f
000001a0: 49e8 aa13 d7ae edbf 48ca 55e4 c114 b33f
000001b0: ae3c c714 c539 c5bf dbdc 9e7f 004d d0bf
000001c0: 2745 f98b a22e c33f 5d8a bb48 e533 debf
000001d0: f597 ae4f 1a9e e33f 3d46 1f51 befb bf3f
000001e0: 8c5e 2c0f 33de f1bf 27d3 24e9 920a e63f
000001f0: 89d9 4340 66ee c3bf 6447 4b23 8c57 e03f
00000200: 07fc 46b5 1845 b73f 1898 98ae 63d6 e6bf
00000210: 97d7 98fa 14d1 cb3f 6e7d 71f5 e898 e4bf
00000220: 30dc 9dd0 50bb 833f 277d f273 c0ee bebf
00000230: 479e 9e88 63b4 d5bf d585 79fc 8cc2 d8bf
00000240: 5a26 5f76 3a15 d03f c4cf 88d4 3811 b9bf
00000250: aa42 1616 a0bb a53f 85ef cb8d fea9 e8bf
00000260: 7ec6 7359 b69a bdbf 5daa bba7 25c0 e03f
00000270: 17cb b780 f538 c7bf a991 3dbc 39c3 c33f
-0.46321025115298003 0.80942980847253 -0.8507179185558896 -0.26074944067028855 -0.48212447642227835 -0.13675915051041887 -0.2706269701398504 0.632908325747313
-0.0900996050161887 -0.03447202011455587 0.2368611512717386 0.2192154622072692 -0.9643935175055205 0.08555143698681558 0.5094534678341858 0.054487321574767586
-0.18247775161620505 -0.5665234073944966 0.4334672157391737 0.337341715457154 0.3466335857399994 0.21522592913891117 -0.4161353249302517 -0.14016381853558188
-0.06832415161729262 -0.7789627794971751 0.6541110315742324 0.16978893171142 0.6528916211695596 -0.2281545046108728 -0.6653663769246265 0.9902549046366349
-0.5392195776163538 -0.18123234676754665 0.32662253531056284 0.19692532980262548 -0.9624690203109376 0.5043230343005582 -0.029225371759045462 -0.14124244687558565
0.0816764723402968 -0.14434877506500635 0.7021578594181767 -0.26855568903623 0.435721487236413 -0.4505395059388655 0.00431887661195557 -0.04335986715590575
-0.37953849350216523 0.5722234206846822 -0.43589806807568215 0.7740184007934178 -0.9275927909977862 0.0745354826411041 -0.1658254958588023 -0.2546998258871562
0.14986068567899588 -0.4719174585608579 0.6130496555604156 0.12493504982492083 -1.1167479126651498 0.6887907556143532 -0.15571287286702454 0.5106869401299545
0.09089807916369362 -0.7136705789641864 0.2173181747072561 -0.6436657708945128 0.009634620062327043 -0.12083056288473824 -0.3391350588012511 -0.3868744340489603
0.2512956768010547 -0.09791903675869579 0.04244709272018572 -0.7707512635674766 -0.11564197238819848 0.5234554554020395 -0.18142575058990282 0.15439531032019474
