HF_Fire/PG/results/NovelGridworld-v0_c0_b0_e0.npz (npz, 14334 bytes, 2 tensors)

layer1 f8 [103, 16]
000000 e8 dc d6 2f f0 fb bf 3f 8a 0a a4 46 8f dd b3 bf
       0.12493802230789053 -0.07759948229435501
000010 83 5f 00 49 44 34 9f bf 2b 02 1e 8b 65 61 bb bf
       -0.03047281928601776 -0.10695490499893683
000020 f4 3c 57 78 b0 63 b8 3f 5b 77 e3 da ce 75 c9 bf
       0.0952711385536878 -0.19890771568219176
000030 05 04 b3 40 56 c5 ce 3f ad 30 d2 4f c1 91 ba bf
       0.24039724501747642 -0.10378654669529182
000040 d0 ca bc b0 9d 27 a2 3f 61 8a 50 9f 06 8a 91 3f
       0.03545849592628303 0.017128089402954298
000050 d3 52 a4 ce 88 c9 c8 3f 35 6c b0 e5 e2 91 c5 bf
       0.19365034189163186 -0.16851459708490926
000060 c9 3d fd 96 c7 5b a9 bf 3d f9 77 da 56 f6 ad bf
       -0.04952834814195801 -0.05852004448751067
000070 15 87 f4 8c 2e d2 bb 3f bf fe 10 58 60 8a bf bf
       0.1086758703354714 -0.12320520544107703
000080 75 a9 bd 3b 86 8e a5 bf 28 a2 59 2b f8 dd ab bf
       -0.042102999489389704 -0.0544278672139778
000090 88 7f 0c fe 0d df 80 bf e2 31 d9 09 75 9e b7 3f
       -0.00823794299645876 0.09226161470832708
0000a0 c5 fe f0 99 32 c3 bb bf d6 65 99 9a a8 c6 b9 3f
       -0.1084472299416986 0.10068753981013087
0000b0 c0 31 cd b6 1d f5 aa 3f 62 b3 fe b2 bf 71 b6 3f
       0.052651337208405646 0.08767316932671812
0000c0 59 7e 89 f6 ad 23 bb 3f 22 79 d1 0e 17 55 b1 bf
       0.10601317662212163 -0.06770462142728609
0000d0 b3 b8 49 9c 3b 09 b2 bf a5 41 ba b1 3b 8b ba bf
       -0.07045338216423395 -0.1036870297341524
0000e0 50 78 72 2c 64 eb 88 bf a4 1b b2 f4 7d c1 aa 3f
       -0.012167723280352899 0.052257476921162366
0000f0 33 55 e1 4e 90 b5 a0 bf 47 f7 d6 af 51 28 ae bf
       -0.03263522112744468 -0.05890136023979991
000100 15 cc 99 d5 62 55 b1 bf ef fc 40 63 e0 51 b5 bf
       -0.06770913805830532 -0.08328058646383217
000110 23 86 ec 7d 8a ee b0 bf a9 86 91 f5 fc 71 54 bf
       -0.06613984655680176 -0.0012478800111001365
000120 af 36 f5 e9 fa 2e bc bf 9c da b4 0f ea a6 97 3f
       -0.1100918599306293 0.02309766503204945
000130 8a f5 37 4e 0c ef c4 3f 34 f2 db 4b b7 b7 b2 3f
       0.1635451681067191 0.07311578371076949
000140 2f 6a 6c b5 13 5b 93 bf f5 6a 0f bb d2 63 b6 bf
       -0.01890211863347185 -0.0874606806459431
000150 c0 5b 0a 83 bd d8 b2 bf 2f 63 f5 4c 79 58 c5 3f
       -0.07361969422559778 0.16676250703565063
000160 39 b2 a3 77 6b 81 74 3f 44 f1 2b bc 5e 11 b0 bf
       0.0050062368338613045 -0.06276504606279781
000170 b2 88 a5 d2 4f 43 93 3f 62 49 02 82 26 7d ca 3f
       0.018811461669778047 0.20694428775875467
000180 9e 78 81 02 5e 3f 88 3f da 19 42 0f 1f 23 af 3f
       0.011839613391370126 0.06081482945687684
000190 2d 19 c1 15 58 49 9e 3f b5 38 85 3a 46 c5 a1 bf
       0.029576660468842043 -0.034708208697894184
0001a0 94 2a 7d 37 c2 d1 bc bf c1 5a af a5 ba 9f a1 bf
       -0.11257566313467243 -0.03442176125070296
0001b0 7c 45 68 17 b3 13 95 bf fe bc 0c 3b 2f 98 ad 3f
       -0.02058296041838535 0.057801700552198895
0001c0 f1 53 43 5f b2 29 b5 3f 6d 94 71 7f 8c 7c b7 3f
       0.08266749215847803 0.09174421416681051
0001d0 f9 8f 00 03 ab d0 9c 3f 24 be de 20 c2 53 b6 3f
       0.028139755304565004 0.08721555044643786
0001e0 6b 93 a4 6e 7d 07 b3 bf 88 47 28 a3 56 9a bf 3f
       -0.07433303786508609 0.12344876750310452
0001f0 2c 08 6c ff 70 e0 a9 3f ac 42 1b db ae 13 9e bf
       0.05054047697014172 -0.02937195980377065
000200 3a 24 77 b8 2a a5 a8 3f f3 5e f5 82 03 80 7e bf
       0.048135123269795035 -0.007446302144067596
000210 b8 46 a6 d5 71 8b bc 3f 21 e4 af d4 12 2b c3 3f
       0.11150275674870158 0.14975200066672392
000220 be 99 d2 53 a0 90 cb 3f 23 37 e7 c7 e7 9c c1 bf
       0.21535114376929515 -0.13760087262056073
000230 d2 d8 39 32 a6 36 c2 bf 3b 9f 90 52 21 73 a9 bf
       -0.1422927613491028 -0.0497064984595554
000240 54 11 28 60 ba 25 90 3f 09 f7 1f 0a d2 19 b6 3f
       0.015768921011855966 0.08633148905934375
000250 a9 66 fd e4 ca d8 9f 3f 61 60 1d b8 22 81 c9 bf
       0.031100435472899566 -0.1992534064290821
000260 3b 0f fe 78 31 e5 9e bf 5d 84 92 ae 9b e2 b4 3f
       -0.030171177873412374 0.08158276569385366
000270 2f 34 be fc 4d 37 97 3f af ba cd f0 a6 38 b3 3f
       0.022671907950599198 0.07508319262499684
000280 cb 8f c4 18 64 80 b0 bf c8 ec 4d 8f 14 35 99 bf
       -0.0644590912311848 -0.02461654781971559
000290 7a 79 83 7f 50 50 a5 3f b9 20 11 cd ad 57 ac 3f
       0.041628375592824576 0.05535643699892163
0002a0 69 60 1f a0 7b 3f 9e 3f 6a 7f e9 e8 5b 62 a1 3f
       0.029539043090921178 0.03395354478993691
0002b0 a4 25 0b 9f 7c 67 79 bf 27 ac e4 a8 ad 07 90 3f
       -0.00620220832997501 0.015654290612627044
0002c0 c9 49 5e 2e 04 2e 9a 3f 63 ce a2 59 a8 de c3 3f
       0.025566163377854587 0.15523247124439185
0002d0 4d 6e c7 de 8e 2a c6 3f 61 41 a6 b4 d4 27 aa 3f
       0.17317376973993462 0.05108513550942707
0002e0 b2 a4 ad d5 d8 1c ad bf ba 2b 51 87 b5 6f b5 bf
       -0.05686071022393814 -0.08373579553260316
0002f0 0b 75 6b f9 01 e9 a7 3f 5f 51 f2 5f 24 bd 7e bf
       0.04669958276438465 -0.007504598702457648
000300 f1 36 8c 31 d3 92 96 bf a4 d0 0b 22 1f 62 85 3f
       -0.02204446782984965 0.010441058374887575
000310 0a 83 aa b9 65 87 b3 bf de 6f 89 b9 fd 41 af 3f
       -0.07628474982130853 0.06105034723142898
000320 cd ce 35 ce 9f 8e a6 bf a0 9f 09 e0 d5 26 be 3f
       -0.0440568865987224 0.11778008193652889
000330 fa 58 44 6c bd c9 54 bf 80 a9 6e a1 97 35 aa 3f
       -0.0012688016732390049 0.05119012685402691
000340 f7 db 4f 18 18 4a bf bf d8 fe bd 0e a6 3b 64 3f
       -0.12222433656266661 0.0024698489486921597
000350 62 91 f3 29 a8 bd a8 3f 0b f1 5e 57 bf 15 b9 bf
       0.048321967240357436 -0.09798808940007946
000360 b6 05 56 06 8d 08 9c bf b3 63 0a 00 6c 53 6a 3f
       -0.027376369010658506 0.0032136067751022622
000370 fd e5 da 97 f0 b9 c0 bf 0e 42 0c 79 95 49 8a 3f
       -0.13067443289564543 0.012835662609661316
000380 30 ba b9 1d 0b 58 b5 3f db 14 6f dc 48 ae b5 bf
       0.08337468600959919 -0.08469062215506844
000390 b8 24 6f df 44 af a1 3f f6 05 15 3e 01 8d c0 bf
       0.03454032161205006 -0.1293031266341555
0003a0 ab 45 57 a7 fb 3b 6f bf 4e c3 67 46 e3 60 c4 bf
       -0.0038127818213317863 -0.15920678079376177
0003b0 7b bb e3 d2 80 49 bc 3f 54 df d9 ac e9 a0 a4 3f
       0.11049657009765028 0.04029016718862857
0003c0 9b e2 f7 bd cf de 63 bf 76 be 03 0a 92 8d b3 bf
       -0.002425580736368294 -0.07637894386766128
0003d0 88 ee de 31 9c 10 c0 3f e6 dc 61 07 3c cf c8 3f
       0.12550690112208351 0.1938242946668886
0003e0 02 ba 39 8a ea 6e c7 bf 46 db 55 e9 78 2e bf 3f
       -0.1830723929337666 0.12180286118187408
0003f0 c1 35 fe 69 3d 87 c4 3f 6e eb cd d2 63 0d a1 3f
       0.16037719417037802 0.03330528209968163
000400 ee 9c 7d d5 37 40 be bf 43 af 33 3c 03 c7 b5 3f
       -0.11816739046263411 0.08506794185421733
000410 d9 e4 5f 59 23 41 92 bf fd 46 ba 4c 94 77 ae bf
       -0.017826607065192988 -0.059506067625205696
000420 bb da e6 34 0b 07 bf bf 36 c2 c7 1c 24 c6 ab 3f
       -0.12120122949168437 0.05424607135126218
000430 a6 18 9c 8a 83 ff b3 3f ec e5 6a 8a d7 74 af bf
       0.07811758169200064 -0.06143830837886441
000440 6f e7 65 09 32 43 aa 3f 08 e3 56 26 88 dd bc bf
       0.05129391064379162 -0.11275530754108953
000450 d4 16 bb 0e fb 39 b4 3f 81 ef 28 89 4c cb 72 3f
       0.07900971517218675 0.0045884122542324554
000460 3f c8 c9 16 10 d3 92 bf d5 86 0d 80 27 88 84 bf
       -0.01838326586807448 -0.010025318713533885
000470 4a 92 a6 d7 ca ea b5 3f 1d 88 22 a5 bf ed b2 3f
       0.08561389698895386 0.0739402559434272
000480 5e d3 d4 f3 fe b5 aa 3f b5 94 74 02 98 c9 8b 3f
       0.05216976858574783 0.013568103384907418
000490 1b a6 67 ee 6b 68 7f 3f 49 03 d7 fa 52 32 af 3f
       0.007667943579215765 0.060930817718605264
0004a0 f8 51 3e a9 4a 75 97 3f bb ac 27 56 8b 37 b1 3f
       0.022908369617271135 0.06725378850358059
0004b0 52 ee 5d 57 42 4a 9f bf d2 d1 16 27 6d b5 ce bf
       -0.030556713659718966 -0.23991169365548487
0004c0 7f f9 35 7b 29 34 ba 3f c1 29 15 02 29 95 cb 3f
       0.10235842950894457 0.2154895076913146
0004d0 0c c6 8d 5f 2e 44 a6 3f d7 20 82 82 fb 35 84 bf
       0.043488930858881586 -0.009868588371560722
0004e0 8f fa 04 6a af 88 8b bf ed 7f 18 a5 4b 06 88 bf
       -0.013444300101239008 -0.011730757690258964
0004f0 ab 60 b2 b1 e8 1a 5c 3f 1c e4 2f 60 62 4d bc bf
       0.0017153999713510986 -0.11055579040829894
000500 4c 07 d5 91 d5 2e b3 bf e0 e1 9b 86 99 0f b8 bf
       -0.07493338404040378 -0.09398803268766853
000510 2d 7f d1 24 f6 dd af 3f 19 a1 42 00 6d 76 8d bf
       0.062240306848933315 -0.014386035509531813
000520 3c 30 0a d4 53 1a ae 3f 08 2f ca f1 73 14 3d 3f
       0.05879461253525206 0.000443723971138552
000530 2c 1a 13 68 29 62 c1 3f ae dd 3a 0a 3b 17 7c 3f
       0.13580815870064222 0.006858091950270246
000540 a4 f9 86 ad 31 c9 cc 3f 72 c7 90 23 eb 36 c4 bf
       0.22488995526323408 -0.1579259799632911
000550 71 85 ef b0 ec e6 9c bf cd 62 b7 0a c5 05 bb 3f
       -0.028224657344144647 0.10555678855542823
000560 42 b0 af 35 0d 79 cd 3f 8f 27 96 7e ec 3a a7 bf
       0.23025670167351292 -0.04537142796750892
000570 39 f3 ad 64 c5 ab 91 3f a7 b5 a0 54 58 a0 a5 bf
       0.017256817121494825 -0.042238960581339406
000580 38 ef 51 91 33 28 c0 3f f6 4b b6 50 90 4c 84 bf
       0.12622685046869164 -0.009911658728730881
000590 d3 c4 6c e1 5c c7 ad 3f db 6e af 8c 9b 17 a1 bf
       0.05816164256828817 -0.033383236812111604
0005a0 7e 4f 3b aa be 0c c0 bf 75 12 67 78 08 05 a6 3f
       -0.1253889399728187 0.043007149407945734
0005b0 3a 2e 9f d0 66 25 af 3f 5d b5 a6 09 d9 0e ba 3f
       0.06083222672131368 0.1017890595018875
0005c0 48 8a 4e 2f 73 58 77 bf c2 b2 25 e4 36 6c a8 bf
       -0.00569958681163258 -0.0477006104946205
0005d0 fa 94 b3 c1 0a c4 a7 3f f0 3e 73 d4 15 ef 8f 3f
       0.0464175569011704 0.015592737718548716
0005e0 67 8d bf d9 af 6c 94 3f e8 7f 71 60 f3 81 7d bf
       0.019945857682512804 -0.007204008760794502
0005f0 b6 a6 df f5 00 03 bc 3f ef f6 bf 3f 72 f1 8e 3f
       0.10942083361410479 0.015108959742061027
000600 44 0b 19 7a 9f 05 c8 3f 9e f7 1e f4 98 06 bc 3f
       0.1876715990238954 0.10947566947922246
000610 29 fd 79 a1 c8 9f b0 3f b8 1f f5 d7 8d 86 c4 bf
       0.06493810598657447 -0.1603562645416312
000620 23 15 f8 e5 e5 62 ae 3f f9 49 e2 ec e7 33 a5 3f
       0.05934828216781287 0.04141163603448556
000630 6f 21 e8 de ae 74 b4 3f 3c 0c 0b ce 6f 58 ba 3f
       0.07990544263896536 0.10291193752623057
000640 c7 d1 05 10 4e 39 a4 bf 37 18 9b 74 fa c8 b4 3f
       -0.039499701934719016 0.08119168612310622
000650 36 3c db 73 1f 5e ac bf c8 5c 2d 80 c4 a7 c8 3f
       -0.055405600445390155 0.1926198602547855
000660 1a 3e a3 1e 82 cc c0 bf 38 3d 25 5c c8 34 c6 bf
       -0.13124109741191675 -0.17348579882898618
000670 69 24 e7 70 ba d1 c4 bf d1 ae 19 c0 b8 76 b6 bf
       -0.16265039933049089 -0.0877490490908557
000680 16 2b 54 db a2 3a bc bf af df f2 0c a5 ab c8 3f
       -0.1102697167845402 0.19273818142187113
000690 8b 7b f1 00 b6 78 a0 bf b7 df fd 2f 22 ef c0 bf
       -0.03217095147623813 -0.13229777663559414
0006a0 c3 d3 c4 a6 13 1c bc 3f 34 6e b4 14 e7 96 ad bf
       0.10980341741090087 -0.05779192092651578
0006b0 eb 3b a3 79 ec 32 bf bf 5c cb 4e 86 b0 17 b6 3f
       -0.12187078447026038 0.08629897383688728
0006c0 41 5c 85 44 aa 72 af 3f 4e 72 0b ee 6c f1 a5 bf
       0.061421700348255566 -0.04285755544490098
0006d0 d3 98 a2 f7 8f c0 c1 3f 7f 05 cf 0d 57 0d 8a 3f
       0.1386890372425059 0.012720756634623907
0006e0 ed 1d bd 54 b0 64 c4 3f 1d 8f 84 29 da 5c a9 3f
       0.1593227781070107 0.04953653103646458
0006f0 38 86 f3 1e f5 a8 c3 3f 1b 2f cc f7 b3 13 86 3f
       0.15359367381374667 0.010779767989809444
000700 27 06 03 7b 71 c4 be bf 06 62 1f b7 57 e4 ce 3f
       -0.12018498662202913 0.24134346429379167
000710 5f 24 e8 84 9f 88 ab bf f2 d6 50 04 f2 0f 94 bf
       -0.05377672669789812 -0.019592076791204734
000720 f0 08 5b 85 ca aa b1 bf c2 da e5 22 a4 85 94 bf
       -0.069012315328141 -0.020041050558087255
000730 1d be 6c 62 1b 7c 98 3f d4 c8 60 81 3c 5d 94 3f
       0.023910930521365715 0.019886918446169258
000740 02 b6 02 11 82 ac b0 3f fa 29 2a ba 63 9a c6 3f
       0.06513226428315735 0.17658659544061078
000750 15 5b b9 c8 27 4f 88 bf 61 92 f7 03 d2 1a bf bf
       -0.011869726956474072 -0.121502996414685
000760 27 c9 2f ce c3 d2 bd bf 4f 3a 0e 43 14 cb b0 bf
       -0.11649726661542968 -0.06559874188517621
000770 c0 a0 81 6b 85 1d c5 bf 54 c1 2d 94 97 cf b4 3f
       -0.16496341466268483 0.08129260413784795
000780 7b f4 5a b6 3e 63 b2 bf c3 2d 2f 42 0f a5 a0 bf
       -0.07182685806306381 -0.03250930483735772
000790 f1 fc ab 28 8d a5 9f 3f 84 4a e5 7e 4b 32 c0 bf
       0.03090496597996845 -0.12653487869336655
0007a0 f0 1c 8f 24 8d 2a b3 bf 1e 82 fb df aa c9 b5 3f
       -0.07486803190760205 0.08510845154115329
0007b0 ee 10 1b 76 a1 be b7 3f be 22 4e 7f 82 8c af bf
       0.09275254376831629 -0.06161887935656328
0007c0 5e 81 04 db ca 5b c7 3f d7 94 a4 b3 1b 72 bb bf
       0.18248878187388134 -0.10720990310490507
0007d0 35 a1 4f 5c 5a fc 95 bf 71 05 1e d2 69 68 86 bf
       -0.02147046268865545 -0.010941340183992595
0007e0 fb 6c ae d3 24 93 d2 bf 14 9b 08 0a 84 c8 c5 3f
       -0.2902309481812179 0.1701817559234874
0007f0 4e 36 01 d2 0c 3b a7 3f 58 88 c7 53 f7 87 bd bf
       0.0453723913529812 -0.11535592837711428

layer2 f8 [16, 5]
000000 7c b9 5e e2 7a ec d0 bf dd 52 e3 69 76 60 c4 3f
       -0.26443359476515815 0.15919380350410153
000010 82 80 7a 2e 3f 4b d1 bf 73 95 25 ff 14 f8 ce bf
       -0.27021770037573145 -0.2419458623727838
000020 f7 0f 66 13 b4 d2 d6 bf c4 ad a4 52 e9 ec c7 3f
       -0.3566103162231679 0.18691746268573983
000030 32 42 1d 6b a8 23 c2 bf 01 24 23 37 49 59 d3 3f
       -0.1417131922739983 0.3023245848131069
000040 81 8c 1e dd d5 91 cc bf 28 bb c4 71 2a 0e c6 3f
       -0.22320054337351183 0.17230730586148835
000050 cf cf e9 79 a5 df d9 3f da b7 b2 b0 61 20 a2 bf
       0.4042752924499355 -0.03540330202063986
000060 7d a0 c2 5f 91 c2 d2 bf e8 df 5f 70 c7 7d bc bf
       -0.2931254801901629 -0.11129423612135236
000070 11 cc ad 69 de de d5 3f 91 96 fc 7f d3 be c7 3f
       0.3417278320332012 0.18551105260228387
000080 2a 08 66 28 01 10 c1 bf 4b ee b0 e3 53 e4 da bf
       -0.13330091927133597 -0.4201860164209605
000090 89 6e f7 6d 58 ce c8 3f 7c 81 d2 62 79 46 da 3f
       0.19379716271838657 0.41055140162099923
0000a0 2a 01 55 c5 cf bc d9 3f 07 4e 73 cf 30 42 be 3f
       0.40214914580066596 0.11819748940188655
0000b0 2b 69 e1 81 4e 92 ad bf 64 4c f9 1b 94 6f ca bf
       -0.057756856302790226 -0.20653010717305442
0000c0 ae 3d 16 10 6e 9a c3 bf 01 28 2e bc da f7 dc bf
       -0.1531503275441372 -0.4526278341005537
0000d0 af 9d dc ec f0 f0 e0 3f c6 ab 8e 9b 7c 09 8e bf
       0.5294117571074163 -0.014666532037002866
0000e0 42 c6 b2 ad 52 fe e2 3f 4f ba d7 de a0 b7 8c 3f
       0.5935452835603388 0.014022118378275964
0000f0 87 77 fc 9d 89 00 dd bf 9e 0c 40 6f 9d e9 df 3f
       -0.4531578104814504 0.4986337267329847
000100 92 4b dd c9 58 11 cc bf fe 17 e4 bf 3f 13 bf bf
       -0.21927938324605784 -0.12138746676291132
000110 bf 27 27 6a 83 74 dc 3f d2 11 fa 96 1c 54 d6 3f
       0.4446114098215012 0.348883769453349
000120 78 19 a8 2a 9e 6d e1 bf ab c6 66 21 52 ea 8b 3f
       -0.5446310837876771 0.013630525249797762
000130 16 32 7f 3c 73 af cf bf 53 11 b1 88 71 11 c4 3f
       -0.24754181341121811 0.15678233312986353
000140 42 5b 35 ff 71 17 db 3f 2f 3b a2 d7 91 50 c0 bf
       0.42330598757455473 -0.12745879200925844
000150 5b 00 67 af ff 40 d8 3f 65 ba 73 a4 60 0e cf bf
       0.3789672100938383 -0.2426262667645062
000160 6d 6f e8 a5 c0 6a e2 3f a2 23 75 6a e1 71 ce bf
       0.5755313148870137 -0.23785035799144533
000170 98 aa 36 a5 a7 c7 ba bf a7 34 3f 5b 10 d1 b0 3f
       -0.10460899146588998 0.0656900618334527
000180 38 73 77 ac c7 58 d7 bf 17 d5 d7 2c 6d 41 db 3f
       -0.3647936996692809 0.425868314544759
000190 b3 82 65 97 f1 f8 d3 bf a1 4e 86 19 6c 5f c5 3f
       -0.31206931862656545 0.16697455641098194
0001a0 f1 04 58 f2 c4 af d4 bf 8f f7 44 82 35 2e 8c 3f
       -0.3232281080855293 0.013760011709219614
0001b0 06 82 a5 2f 3c 4c a0 3f b7 41 c9 96 98 d2 b9 bf
       0.03183162767050267 -0.10086969071676931
0001c0 25 66 81 5c f5 b0 b2 3f 39 16 d7 b7 e5 e5 d0 bf
       0.0730126715510769 -0.26403181985037666
0001d0 f6 a8 9e 8e 0e 65 d9 3f 6d 1e 57 bf 6a 9a b8 3f
       0.39679302146636475 0.09610621615785826
0001e0 30 24 6b e1 c4 67 e6 bf 41 ee fb 00 56 ce dd 3f
       -0.7001671221452224 0.4657187471018212
0001f0 91 c5 b3 41 f1 63 c0 3f f6 5e 04 c0 c3 9f d9 3f
       0.1280500002681433 0.4003762602965105
000200 ed 00 04 dc 6a ac 9f bf 2e 09 d1 ea 5a be e1 bf
       -0.030931157759369766 -0.5544867120991392
000210 14 b0 50 ef 1d d2 bd bf 13 c2 13 c6 42 2f d4 bf
       -0.11648737995773245 -0.31538457244372003
000220 14 8a c5 5a 01 9e 17 3f f4 9a 97 5a 38 2f c1 bf
       9.009249942474484e-05 -0.1342535440773741
000230 60 97 ee f3 28 8b 13 3f 1f 0d a1 70 6d ba d9 bf
       7.455289322297115e-05 -0.4020036315816515
000240 08 8b ae 85 1c 58 6b bf d9 5f 69 a7 4c ca c0 bf
       -0.003337913234149229 -0.13117368864436577
000250 a7 06 15 aa 2a 5d c9 3f 75 ae cc 04 6a ed da bf
       0.19815572075645102 -0.4207406088705519
000260 be 17 27 f4 c8 97 bd bf 85 cf 00 0c 13 47 d9 3f
       -0.11559730492362427 0.39496303722557285
000270 9a ac 21 b0 6d 6c d2 bf 3d f5 57 28 e6 28 c2 3f
       -0.2878679485354013 0.14187314004804277
