HF_Fire/PG/results/NovelGridworld-v0_c1_b0_e0.npz (npz, 9150 bytes, 2 tensors)

layer1 f8 [103, 10]
00000000: d6d5 289f 5e33 c13f d226 f058 ae1d cb3f
00000010: 38e5 5a6d 2b9e 91bf 487f b2a4 92fc a4bf
00000020: ec1b 76a3 db5e d83f f6e4 2725 2e84 d4bf
00000030: c843 58aa f5a6 d73f 7657 2acc 44b2 cd3f
00000040: fc81 281a e5c5 b53f 102e ba91 a298 8b3f
00000050: 1ef0 5f6a 4c71 cb3f a570 f9df 90e4 dcbf
00000060: 64c2 ee7a 083a b0bf 271f 317e 2be3 903f
00000070: 90b8 b384 7249 c2bf 309a bcf5 2497 853f
00000080: 16f1 789a 505d d3bf 2a5d 5487 d598 d2bf
00000090: dc53 9285 8345 bb3f 3067 2f63 f03b a03f
000000a0: f10b daf4 fbdb 60bf 3fff 2cf8 cc05 d4bf
000000b0: a2d3 4e15 d425 cd3f 97ae 511f 7755 c33f
000000c0: 661e a51b 1740 d0bf 742e bb5b 17e4 a73f
000000d0: 6e9b 96a3 d86c d1bf 60ad 9d21 7c2f ddbf
000000e0: af67 08a2 497f a03f 37ce 9b37 7d7b 94bf
000000f0: 1f6b 2689 22b1 a53f 934c 0e09 0b42 e2bf
00000100: 477f cb0f b305 ccbf 9d12 f4f7 a0b7 bfbf
00000110: b2f5 9556 6c04 e6bf c04f 8077 5b56 b03f
00000120: aeef 19a0 e419 f0bf 1fe2 1fce 3b2e e7bf
00000130: 86dc faf0 9adb d23f eb91 88ae bdfe cd3f
00000140: ce3c 9cc0 6f25 d9bf 09ad 3468 b74a e93f
00000150: ed06 b36d 4541 cbbf d655 10f0 1956 b53f
00000160: 2797 757f f201 ee3f 92b9 3d5d 831f d5bf
00000170: 9c39 b5ae c916 e33f 2338 1bac 7f60 f23f
00000180: 66b5 3f8e f4c5 c5bf 9e77 91e8 01ab ba3f
00000190: 449f 6242 3f89 b23f b37e 8eee 808d ca3f
000001a0: b1a7 1daa c012 b2bf 367f 2024 2727 653f
000001b0: 08d3 2405 7c82 cf3f 62b4 1b96 e18b be3f
000001c0: 89e6 5e6a d623 d23f ccb6 7d52 eff3 d53f
000001d0: 2fdc e50f 90b2 b03f b972 aa3c 8f82 c03f
000001e0: acf9 8c48 d8e2 9dbf f885 954f d036 ccbf
000001f0: 6ebc fc17 48bd 903f ef5f 32ee 47ae c73f
00000200: 6c22 3183 88ca cbbf 5161 6df2 bfce b83f
00000210: 1ef5 0488 e1f3 c3bf 0cae 9139 bddb c1bf
00000220: 7765 4cb4 ea4d d73f b631 0dfa de56 bebf
00000230: 2ed4 cf98 9eba a43f df7e c93f 969c d5bf
00000240: 0b0b a328 1a37 b83f 8f65 6170 7067 c13f
00000250: 1926 da9b 4a3e d1bf 87f2 80a2 e4f9 bfbf
00000260: b869 e85b d350 d1bf 45e3 9afd 7d0a d2bf
00000270: 5840 ec65 ac1e 8c3f fc4b 21b1 01b8 76bf
00000280: fdf1 06d7 fbc4 9a3f e4b9 e0d1 9ea1 d0bf
00000290: f3c6 3f5a 2c6b adbf 3bfb 4a2e 15e8 8fbf
000002a0: b043 9007 ede3 d1bf 8d6e 9238 c262 c1bf
000002b0: 6f55 458a e751 e1bf 6bda acd1 3242 d2bf
000002c0: d9b8 9bc8 a477 c03f 05a1 baab bf63 d13f
000002d0: a93b 5765 1bc0 d6bf fe75 7432 4f2d e63f
000002e0: f4f4 a48c 3594 b8bf c437 8e74 d6f3 c9bf
000002f0: 250f ad61 443b ea3f fbd5 6d7a 0d33 cebf
00000300: 4f0a 9992 e12b e03f fcea 98a3 11c3 ec3f
00000310: c3ba b833 3736 c6bf 3bf9 3de8 d191 bfbf
00000320: 7895 7e58 acf5 7ebf 91dc 45f3 979c ce3f
00000330: b126 0b89 c342 a63f fb9f d1c3 6a42 c43f
00000340: 0526 d379 9098 923f c22e c2ef 7637 c03f
00000350: ccdd db7c e124 c73f 4f30 07df f923 9d3f
00000360: 706e 6033 0de7 b53f f17a 6dd7 ca5a a83f
00000370: f474 c3dd 14da a2bf e06b 4854 3166 a33f
00000380: d944 3795 4546 b93f 6d20 bb16 cd58 b8bf
00000390: 30c1 71fb 162a 943f c67b 7033 2c46 c6bf
000003a0: f212 bf75 5dc4 babf 19dc 5f72 e338 c5bf
000003b0: b37d 6276 cb25 b73f cadb e12c b401 b13f
000003c0: 76cc 3fc5 3782 953f 3059 5156 524d c3bf
000003d0: 3915 ee88 06a6 c73f 53e0 67af 472b d33f
000003e0: dce7 bbe2 5c3e cebf 850e d208 cc38 cb3f
000003f0: b52e f8fb 4e13 b43f 56ec 0d41 3e04 b4bf
00000400: 9a38 f083 58c6 aabf 5b3c a799 1645 b33f
00000410: 2047 c87c d9ea 9a3f e0ec 3443 4778 d3bf
00000420: 8369 0cb7 afa2 ccbf deac 7237 1d4e 9dbf
00000430: decc 5001 8338 c3bf 328d dd9e 4ba7 c0bf
00000440: be7b d341 2484 d1bf b3af 72df edb8 d5bf
00000450: 6524 2749 2be5 c43f 1e46 3e96 3a5b ba3f
00000460: 97cd efd7 5f2e afbf 90f8 a0ed 0a19 ce3f
00000470: 0b80 285d 0a5f 95bf b4aa 747f 4a24 a2bf
00000480: abcd 0635 d9f3 d23f 55dd d06f dba8 993f
00000490: ad7f 455e ffec d03f a8a9 f563 aa7e dd3f
000004a0: bd2a 7b9b 96b8 b7bf 0211 6f22 9256 9dbf
000004b0: 4475 8be3 828e aa3f 584a bb96 2fed c3bf
000004c0: 4841 c605 fa61 c73f 5c23 8be7 4252 d33f
000004d0: 9451 299b 7d98 933f 0c8b 80c6 5650 c13f
000004e0: cc6f aa00 ba4b 9ebf 9ab4 7e00 c842 8a3f
000004f0: 67c8 ae42 0c04 983f 4027 0488 5b51 703f
00000500: 86bd cbde ee80 c0bf eafd 7c85 d48e aabf
00000510: 8214 5612 b27d b0bf 9e98 1a58 8180 b23f
00000520: 876b 3d86 9be9 cd3f 4480 b38a 1e56 c4bf
00000530: 467b 1aa6 23aa a73f 3f70 a5ff 9226 ba3f
00000540: 2dd1 b6ea d159 d83f eecc 1b99 9207 cebf
00000550: 8604 8f33 c0a5 d1bf 5fbc ed84 d9f0 ab3f
00000560: 6d61 8c7e e76b d43f 9906 2c7c 4f88 ae3f
00000570: 5f8b 6e57 4b1a 9c3f f432 8c17 cef8 76bf
00000580: be51 779c 1dd5 ca3f 6975 31c0 e8fe bf3f
00000590: 9663 5451 2e10 b63f 0f5e 3a91 4418 c5bf
000005a0: 59be f020 3b73 a5bf 06af 2257 0d48 76bf
000005b0: 42f9 ab9b 85d4 8ebf 0ca2 a1a7 033c 9b3f
000005c0: 6ccf bc31 bcfe 953f 6477 d114 2a6e bebf
000005d0: 0b2d b9a5 079f 923f 97ee eb1f 286f 97bf
000005e0: d5f8 ab2f e149 b73f d9d1 a2af 69aa b03f
000005f0: 9c88 45dc 93ca d83f 5fee 6653 4815 b0bf
00000600: 3fa1 446f f9a3 a93f 6bb3 d6f6 4b36 b13f
00000610: 8104 5e08 2e04 a0bf 39f9 bf2e 68a9 bdbf
00000620: 02b7 4ea2 bca7 bbbf b493 44e2 ded9 a4bf
00000630: 6c46 ea3d 35ba c73f d90a b281 39a7 a73f
00000640: a71a aa36 f009 b53f 74c9 7b38 8278 b43f
00000650: ffd0 4601 d611 9f3f e14a f765 0f06 d13f
00000660: e749 4b75 2638 c6bf 3b9e a541 3464 89bf
00000670: 0d3c bdb1 2e78 c9bf bf4b 1f4c 11ad bbbf
00000680: d4fd 9bb7 c7c4 b5bf b570 aba7 9f92 d03f
00000690: 17d0 a01a aff4 bebf 2c90 ef96 1701 54bf
000006a0: 265c 642c 3366 973f fe66 2803 c506 ad3f
000006b0: 2a2e c9bb 6176 7d3f d4b3 5294 33a5 c0bf
000006c0: 7008 d02b 6214 ad3f 68b9 5173 8e13 b13f
000006d0: 07b1 a6a0 eea8 d03f 7cd9 ff6f 8782 b23f
000006e0: 613f cdad cd36 943f 4def 454c abfb c03f
000006f0: 0c46 3ee9 0bb0 ce3f 51bf eb81 265f c73f
00000700: c722 f4e1 b36b b7bf beef 3c47 a87f c83f
00000710: 413b c278 5b64 babf 1601 72a2 c6f6 b23f
00000720: 37c9 04da 8612 be3f 391a f5f7 4763 afbf
00000730: 9a20 cd83 8741 723f f69d 7ed0 bd31 a93f
00000740: d2f4 17db dacd b93f db7d f748 8186 bd3f
00000750: f64c 1608 e875 c53f 6da4 7fc4 1aae aebf
00000760: 39e7 11f8 a013 95bf 98cf 91ef 9117 983f
00000770: 5b30 33c2 35e5 b5bf 2805 b035 a260 c03f
00000780: 7d88 bf77 6864 c13f 9662 04e4 633b cdbf
00000790: bdb9 58b0 f506 c2bf 158a 0d6f b1dd d4bf
000007a0: 15a4 e42a 9275 d4bf 1605 f97b 0518 d33f
000007b0: 7e2f 3fd6 e024 c0bf e927 7909 20b1 c8bf
000007c0: 3261 a352 d52f 963f 4e19 6f5b 2761 c7bf
000007d0: 9b68 201d b333 b13f 343b 8233 e0a2 93bf
000007e0: a967 3b8e 193a c8bf 3511 3fab 0c72 d23f
000007f0: 2003 5402 2a2f 9bbf b293 a943 19e3 adbf
0.13438017627201643 0.2118432935970334 -0.017204931783202343 -0.04098947773422751 0.3807896705915812 -0.32056764248370884 0.36956540713532293 0.23200283020986107
0.08505088699940438 0.013474721977465826 0.21439509576873744 -0.45145055649278226 -0.06338551522527208 0.016491584374562464 -0.1428664348563342 0.010542191266336237
-0.3025704868812381 -0.29057825294281037 0.10652944575333784 0.03170729838139008 -0.0020580216431098576 -0.31285404430308356 0.22771693268228171 0.15104569463016013
-0.25391175937372734 0.046662073085454475 -0.2722684476415712 -0.45602324755483004 0.032221127538107346 -0.02000232364566853 0.04236705707736221 -0.5705619027015864
-0.2189239337085331 -0.12389570287275338 -0.6880399409416695 0.0638177077055948 -1.0063215497930105 -0.7243937517042162 0.2946536401099781 0.23433657667295846
-0.3929099446258534 0.7903706584233144 -0.21292941910183263 0.08334505186970573 0.9377377023163022 -0.33004840951516556 0.5965317165626405 1.1485592577842076
-0.17010361619706343 0.1041718666833433 0.07240672465070214 0.20744334839127063 -0.0705986419031024 0.002582146117688834 0.24616956950344382 0.11932191767455572
0.28343735111011675 0.34301360183495144 0.06522465122348885 0.12898436033437635 -0.029185656955854775 -0.2204227818101996 0.01634705206305081 0.1850061333723256
-0.2171183243356326 0.09690475147852352 -0.15588015691347662 -0.13951840697278362 0.3641306648947515 -0.11851304631017609 0.04048629393938828 -0.3376823065682241
0.09459079258071428 0.13596921431853246 -0.26942696781097336 -0.12490681617141251 -0.27055820441605816 -0.2818903900729775 0.01373037992519259 -0.005546576127090749
0.026142058371748423 -0.25986452575571506 -0.05745829202341026 -0.015579381442305631 -0.27953649271608594 -0.1358263756018129 -0.5412481022455448 -0.28529043651670943
0.12865123553587557 0.27171317835247094 -0.35547528168256776 0.6930309281776201 -0.09601149257374059 -0.20275383654774093 0.8197347553000084 -0.23593300321560648
0.505356584857802 0.898812121892973 -0.17352952981442202 -0.1233187858578945 -0.007558510995214866 0.23915385607299247 0.04347811744589814 0.15827688752619892
0.018160111842723498 0.12669264513930584 0.1808130130445832 0.02845755027537705 0.08555681709588625 0.047567690656014856 -0.03682007987092986 0.037889043367804964
0.09872851269689721 -0.09510499768214382 0.019691809746690214 -0.17401649963082216 -0.10455879330318021 -0.16579859814348266 0.09042045250179491 0.06643224807508755
0.02100455418981225 -0.15079716887221073 0.18475419698749265 0.2995166027972164 -0.23627816267963808 0.2126708071774496 0.07841962482069216 -0.07818974579088098
-0.052294508081204685 0.07527295352268608 0.026286504975423175 -0.3042162090602698 -0.22371479452051454 -0.028618294247888858 -0.15016210140456726 -0.13010545022107461
-0.273690284999187 -0.33941218205540763 0.16324368545454884 0.1029545418553188 -0.06090068350740834 0.23513924220055005 -0.02087036317436745 -0.035433128412781484
0.2961333291852621 0.02505820150346712 0.26446518140982783 0.4608560539405979 -0.09266034408498576 -0.028650554038692107 0.05186852481504414 -0.15567583904210625
0.18267751008944288 0.301895834080417 0.01913639316110645 0.13526425068365489 -0.02958574894965675 0.012822687640289755 0.02345294148444346 0.003983838600342626
-0.12893472555832036 -0.05187095765586121 -0.06441796252882351 0.07227333451246173 0.23369163565334025 -0.15887815258520466 0.0462199344885819 0.10215109578479174
0.3804821769838494 -0.2346060988998952 -0.27574162516618406 0.05457191226639035 0.3190859542678684 0.05963371649523914 0.02744405480519718 -0.005608372732933676
0.20962877407022334 0.12498335544792884 0.08618440137469316 -0.16480309573374582 -0.04189476754288241 -0.005439807997543294 -0.015053790868020504 0.026596123796851542
0.021479549918879057 -0.11886847503907699 0.01818477581973092 -0.02288496680101434 0.09097106374608484 0.06510029352177273 0.3873643542375562 -0.06282474552329508
0.05007915004017826 0.06723475242934078 -0.03128188945903166 -0.11586619511942765 -0.1080282112368103 -0.040724721069899245 0.18537011645507862 0.04619769771763566
0.08218289694387214 0.0799638164424204 0.030341476276320552 0.2659948821794114 -0.17358856894732286 -0.012398155454049866 -0.19898017576858287 -0.10810955151036604
-0.08503387673044155 0.25894919752114315 -0.12092108154394086 -0.0012209635130995362 0.022850799164270928 0.056692272792316686 0.007192975780138814 -0.1300415491326975
0.05679613861868027 0.06670465770159739 0.2603107994898583 0.07230421528206493 0.019740308506981722 0.13268033241535662 0.23974751366454006 0.1825912603740059
-0.09148716227003738 0.19139579275531377 -0.10309383104525428 0.07407800165129105 0.11747019598695806 -0.06130432988952745 0.004457024912717733 0.049207622242928226
0.10079734658207265 0.11533363372244969 0.1676607169616557 -0.05992206238426765 -0.020582690373408517 0.023527412650267004 -0.08552871695718649 0.12794902440513423
0.13587671134070325 -0.2283749450077905 -0.14083739386246732 -0.32603107304581275 -0.3196759623411379 0.2983411513015012 -0.12612543545980864 -0.1929054304367235
0.021666844528995095 -0.18265239681768225 0.06719512425516642 -0.01917600931534054 -0.1892730659954485 0.28821102832104667 -0.026547104255772003 -0.05837325049359467

layer2 f8 [10, 5]
00000000: a56d ac94 8359 b73f f309 8ba7 05df b4bf
00000010: f42a cc44 d227 e03f 90e1 5ab1 9376 d4bf
00000020: 51ef 7bea 8d00 da3f 25a8 ea2d d9bb 963f
00000030: 0673 2405 b4ac f13f 1daf c415 a732 e9bf
00000040: ea40 6427 fcb0 b63f afeb 0247 3a44 b13f
00000050: 1999 bde5 320e e6bf a8bc 0931 1465 c03f
00000060: c9fe 104b 64f7 b93f a147 e6e3 9626 cb3f
00000070: 87c6 8825 5b27 e1bf dee1 7998 4471 e4bf
00000080: 2547 3569 8361 d13f 006c 4be4 6389 da3f
00000090: 1e88 5327 0233 df3f ab7f c377 606f d2bf
000000a0: f51a bc14 b05f e0bf df7f 7728 baf9 d13f
000000b0: bd18 9ca9 9e22 f4bf 6ed2 ed47 d5ea b7bf
000000c0: 5079 814f 932e d73f 0064 f967 fac2 dd3f
000000d0: 430d 3a16 0265 bbbf e720 ed5c ae39 e33f
000000e0: c815 8d01 59ef d23f 27a6 8d94 80ae a73f
000000f0: 8a41 570c 1f76 c8bf 0ff8 6417 0638 da3f
00000100: 7b41 e0e5 07b6 e6bf a04f 5c52 90ec 6e3f
00000110: 81c2 ad76 6099 bfbf 0fcf ea65 55fb 983f
00000120: 45f7 7386 4b12 d93f 9470 62e1 aea3 f3bf
00000130: 5c29 e409 e36e b03f 1a3a 4a70 0ee2 cbbf
00000140: 0c10 1188 324f eabf ac08 58ee c3da c83f
00000150: ca2d 3a05 3a80 e03f 67de 502d 3b04 e83f
00000160: 5f22 85d5 3be9 df3f 58c6 95e8 e62e d9bf
00000170: 757e ffd2 05d8 d93f cf1d bccc cf2e e03f
00000180: 860e 65b6 af86 e5bf 0fe3 25e9 8edd d03f
0.09120962505078596 -0.08152804699333398 0.504861006136109 -0.31973736114334717 0.40628383540000806 0.022200959613350463 1.104663868033812 -0.7874331879770328
0.08863807641705859 0.06744732125927898 -0.6892332541581566 0.12808468241153048 0.10143114884067041 0.21211515548617135 -0.5360542042819397 -0.6388266542481309
0.27157674097280654 0.41463563246151125 0.4874883064313752 -0.28804790206595027 -0.5116806416488929 0.2808671374496025 -1.2584520936375576 -0.0934270191772357
0.36221773876413454 0.4650255217907784 -0.10701001207967402 0.6007911505667182 0.29585862304187716 0.04625322163958528 -0.19110477545337928 0.40966942104921683
-0.7097205629125222 0.0037749117644895885 -0.12343409440451049 0.02439626154473645 0.3917416394250391 -1.2274617008288589 0.06419199935422654 -0.21783619387538594
-0.8221676499892978 0.19417618883023147 0.5156526662917085 0.7505164990497634 0.498610456958465 -0.39348767007240815 0.40380998235011784 0.5057143210150857
-0.6726912081143872 0.2635228421054742
