LF_Fire/results/NovelGridworld-v0_c0_b0_e1.npz (npz, 4590 bytes, 2 tensors)

layer1 f8 [46, 10]
0.2394966578896461 -0.09019856231887152 -0.07787467633948363 -0.15820059254353047 0.12759739373900272 -0.33934336763422174 0.25725845963815497 -0.11223383450658088
0.047039748412548744 -0.03676765596747053 0.21557605434751217 -0.3037511761626718 -0.0475378232577441 -0.056625725322117855 0.16716518440658373 -0.16217012001046957
-0.02542315221751885 -0.12943316236537025 0.0062240773923743714 0.08593141518709527 -0.15227806354482232 0.17878003206138207 0.14293194344119467 0.08408465134462204
0.12282424735739739 -0.09081050782402382 -0.018119175242785945 -0.14796259542635326 -0.02949943121912666 0.06819717350391538 -0.10853479919702978 -0.04147848177935825
-0.10523895698889701 -0.1446145338065345 -0.08897143290781317 -0.010236856669960617 -0.16509895331446395 0.024570897298280138 0.23466135511639705 0.10464715742432458
-0.03732397696002952 -0.10468003337131407 -0.13003984542644798 0.2097514753739448 -0.00714416014670165 -0.08117664626598137 0.02796804136137674 0.3023717764640264
-0.007746682307826108 0.06080636385366458 0.04425769915392856 -0.05193640642226662 -0.16845511805895247 -0.051507774361031884 -0.030799774398254882 0.08649287083373142
0.12370135572317068 0.13728351224729257 0.04210755388853277 0.1305069447332993 -0.11122990813977315 0.1847253316117733 0.07562737609261132 -0.043951390723303584
0.07202807114265325 -0.011142441197800968 0.16684965052820638 0.22408476441039718 0.3222455132632839 -0.2059021514675165 -0.21292296438283118 -0.07436113311853182
0.013596290884672466 0.10919231189046708 0.036538105038528376 -0.29815730299990234 -0.035147599471323475 0.12208386581447556 0.03356761399242239 0.1123272374211549
-0.02278310137900023 -0.02695911966639955 0.01871388534025918 0.0631335597889187 0.04068573426472117 0.017546867537197027 -0.09426196396069206 0.05433196338297605
0.017412366643138274 0.17223345344816907 0.16728869150784936 0.041828767094156026 -0.07612085377720673 -0.12442557508572273 0.03277714669173152 0.02975274775129933
-0.050996944772362204 0.003305464506235748 -0.09696221905979871 0.07780500537834437 -0.06592551024477923 0.18054381132326608 0.059491596957786594 0.08751837859760822
-0.1614359443532282 0.02497407726844594 0.10918909179276316 -0.14061548231666451 -0.03925177728980826 0.004808752563574018 -0.202455103727352 0.04646771726330362
0.12475958110123186 -0.1267287116625849 0.051685184816468825 -0.19348563318246825 -0.005705341580596524 -0.2382326366784581 0.165344020569008 0.060289095186195615
-0.023087524007010293 -0.09431621287354104 0.18757916708443803 0.28983351927420753 -0.27394448059435206 0.1922622819966851 0.240009432712875 0.06978025060199726
-0.16682278435274178 0.12727981139883157 0.001452958744118325 -0.05139560183891195 -0.2013608886383586 0.04942876759795921 0.09868405411339072 -0.08193780269454753
0.08095450599169435 -0.1995225638189036 0.1085503723188228 0.003126585066039413 -0.04719807387348768 -0.014559672522006057 0.1480461733632016 0.10981339076965366
0.05529760728246769 0.028359593162840174 0.008798803682414376 0.11104606516322246 0.03485052376122347 0.08065767005422483 -0.045724223723947965 -0.3589972428597725
0.1531663313999842 0.32245255722083094 0.06507563693696945 -0.014767083514469268 -0.02011767994708507 -0.01755358233395041 0.0025668772152519803 -0.16543263620887214
-0.07624141839261454 -0.14700358580766626 0.03668343504471083 -0.04373735178160291 0.073014926317367 -0.025758575618875814 0.1454271895167718 0.031483856118284345
0.32300105338730045 -0.2796031640467687 -0.10533482157364754 0.15274602618436128 0.35280439651198164 -0.03662519018754805 0.006438641777536548 -0.02415126661489713
0.18631293285500516 -0.06235074014256041 0.10109110137990958 -0.04718107647104279 -0.18762855219551036 0.02971983972982728 0.0698975407458522 0.20064964031903176
-0.026282748153721766 -0.10671066686816097 0.04381666096221004 0.05397784167090836 0.001564747136738433 -0.020748139834454005 0.1663427417614639 0.06564248784384763
0.27946939772261425 0.12453690973879775 0.07286213784282435 -0.22496785389213397 0.0886021499856503 0.05487154838633264 0.11191743930324402 0.13461127022151484
-0.05910626477719737 0.12149300026695391 -0.08290741270597718 0.28823104742365174 -0.19638555921507828 -0.2595993655247464 -0.24338557249959328 -0.131305257393667
-0.16500456352671364 0.28840809995539163 -0.04813972468023956 -0.1979667448676298 0.16430680600212982 -0.0864782368715308 -0.18236408131405318 0.12913540476922014
0.09190973870763955 -0.06413086417756418 0.20753045100183112 0.01903498945523674 0.2583491056736956 0.09196653727879008 0.24971041688941828 0.03607859960041882
-0.179841499899564 0.37113872676789417 -0.08047001094616121 -0.049293404133655176 -0.11326445649156376 -0.0332191916929853 0.034996165979633724 0.037022705559609036
0.11210842953184494 0.27845470646315723 0.0071469838307918355 -0.18181373340938656 -0.1843187382482422 -0.11040887236098182 -0.24684670486166319 0.11046873403116265
-0.0734662471841884 -0.022326093643194028 -0.0002119189185631181 -0.2303546946389766 -0.15471062622945062 0.11186085046879031 0.07138248253583405 -0.07555526956107757
0.23894090135296328 -0.2134934258204037 -0.05086558911367076 -0.0340354632861876 -0.41181791612850704 0.2856730383860319 0.05401270882595041 -0.1540163018471197
00000000: 0b94 9194 d3a7 ce3f 0447 4ec3 4017 b7bf
00000010: 078e 1044 98ef b3bf 1c55 97c1 ea3f c4bf
00000020: 19f9 9484 1c55 c03f 899f 863e cdb7 d5bf
00000030: 3af9 b02f ec76 d03f 79df b548 5bbb bcbf
00000040: 8d82 160a 9815 a83f 5c9a dccf 35d3 a2bf
00000050: 8d94 9c03 ff97 cb3f 9a5f efc5 a870 d3bf
00000060: 9a19 6ea8 e056 a8bf 41d6 bd0c 0cfe acbf
00000070: d62d 0734 ab65 c53f 9bab ea90 fdc1 c4bf
00000080: 5386 57dd 8608 9abf 9345 b00f 4491 c0bf
00000090: 597e 910d 6b7e 793f 5a75 ede9 99ff b53f
000000a0: 545f 69fb d87d c3bf edd3 709b 43e2 c63f
000000b0: 891b 510b 984b c23f 1ee7 9e5b 9286 b53f
000000c0: 484b 8eed 6871 bf3f f3c1 3c81 5b3f b7bf
000000d0: e09d 6444 d58d 92bf 8098 3136 70f0 c2bf
000000e0: 1ad5 5851 1935 9ebf 2603 e1b5 5e75 b13f
000000f0: af77 07c5 efc8 bbbf 77cc 75e5 aa3c a5bf
00000100: 844f 88b6 f0f0 babf 56d8 9ca2 ba82 c2bf
00000110: 6808 9ef2 d4c6 b6bf e8fb e3a4 0ff7 84bf
00000120: 3673 8b66 f621 c5bf 4a65 5101 1d29 993f
00000130: 6b13 ee1e 6209 ce3f 1dc0 c1f6 27ca ba3f
00000140: beca ccd8 201c a3bf 52bd df87 4fcc babf
00000150: 6049 a449 25a5 c0bf 6d69 82e7 22d9 ca3f
00000160: b3e0 ffe2 3143 7dbf 444e e920 fec7 b4bf
00000170: bad0 eb7b a7a3 9c3f e15e c926 0f5a d33f
00000180: 4643 a232 fcba 7fbf d3c3 4700 0322 af3f
00000190: 86b6 ecf4 f1a8 a63f 535d 1c9e 6897 aabf
000001a0: 3a19 74f3 ef8f c5bf 59a2 bd1c 3a5f aabf
000001b0: 0209 0fdf f989 9fbf 546a 9193 6524 b63f
000001c0: 0a48 4d5d e4aa bf3f dee9 b091 8192 c13f
000001d0: e84a bb0d 1f8f a53f 25e4 c399 73b4 c03f
000001e0: 0e23 cc31 9079 bcbf 0cf6 0165 14a5 c73f
000001f0: cb03 00d3 505c b33f a365 8af3 cb80 a6bf
00000200: cc9f f381 6e70 b23f 0d57 5624 d9d1 86bf
00000210: fe0f 2f50 545b c53f b156 563f cfae cc3f
00000220: 0ee8 2fa5 ab9f d43f 9650 5d6f 005b cabf
00000230: 9fba 4b48 0f41 cbbf bc6c d6ca 5409 b3bf
00000240: e593 9245 5fd8 8b3f e84f 8b00 07f4 bb3f
00000250: 8e86 655c 1fb5 a23f 61ae 5c5e 0215 d3bf
00000260: 7b44 86bc ddfe a1bf 5cdc 0a63 e340 bf3f
00000270: c4ba 9a38 c62f a13f e783 2c53 7ac1 bc3f
00000280: 6b0a 4c0d 7454 97bf 683e 2fe5 2b9b 9bbf
00000290: 5ced 1196 bb29 933f b3ce 925e 8529 b03f
000002a0: a954 29b4 c2d4 a43f ffc5 e058 cef7 913f
000002b0: 7ec8 7754 8d21 b8bf ccf6 b62b 66d1 ab3f
000002c0: ffea 1c25 8cd4 913f 9f23 ebec be0b c63f
000002d0: 0228 8241 b769 c53f 0b1e 6785 946a a53f
000002e0: 8446 8401 a87c b3bf c977 c7bf 5ada bfbf
000002f0: c5c1 318a 2ac8 a03f 025c 3b1a 8177 9e3f
00000300: 8686 fc83 451c aabf 6ed3 79be 0f14 6b3f
00000310: 5e36 cf17 84d2 b8bf f2a9 9061 07eb b33f
00000320: 5933 7986 7ee0 b0bf b276 9042 0f1c c73f
00000330: 6e19 a4be ae75 ae3f 262c e0bd 9a67 b63f
00000340: d5af b2da eea9 c4bf c787 76f4 cd92 993f
00000350: b171 54fa d0f3 bb3f 6740 ee28 b0ff c1bf
00000360: 4609 8a17 cf18 a4bf ddf4 ebaf 57b2 733f
00000370: ed68 b580 0cea c9bf 786b eedb 9dca a73f
00000380: 7044 b170 3ef0 bf3f c30a 077c a538 c0bf
00000390: 07eb f204 7b76 aa3f e4dc 6121 23c4 c8bf
000003a0: e7cb 04f8 7b5e 77bf 95d9 af33 687e cebf
000003b0: e06d 772c fe29 c53f dea1 4258 36de ae3f
000003c0: bc0f 3982 41a4 97bf 3d41 c679 1b25 b8bf
000003d0: 39f0 041a 9802 c83f c24e a4e3 a18c d23f
000003e0: 00a3 446e 4e88 d1bf 420d b7ea 0c9c c83f
000003f0: 20dd 1d0c a1b8 ce3f eb04 3e56 1edd b13f
00000400: 64e7 82f1 725a c5bf 6713 b371 b44a c03f
00000410: f88f 7592 26ce 573f c8db 1c3a 8650 aabf
00000420: 7e97 b28f 31c6 c9bf fe2f a138 ba4e a93f
00000430: c5bf 0db1 5b43 b93f 1812 e136 e0f9 b4bf
00000440: d4ba b23b 6fb9 b43f 2248 3593 f489 c9bf
00000450: aff5 130b f5c9 bb3f 84ea 6a93 ec9c 693f
00000460: 880f 718f 582a a8bf 7773 942a 76d1 8dbf
00000470: 754a 7250 2df3 c23f 6ebe 04fa ba1c bc3f
00000480: 3087 a6cd f74f ac3f 7828 a614 4c0a 9d3f
00000490: c4a9 7a70 1b05 823f 08bc 39d2 836d bc3f
000004a0: 1419 9b87 edd7 a13f b6f0 0d27 fba5 b43f
000004b0: 2806 0f5b 2a69 a7bf 0cf6 5b92 cff9 d6bf
000004c0: 9609 1b50 f49a c33f 379a f10c 10a3 d43f
000004d0: 9520 6904 cca8 b03f 65fc 0366 343e 8ebf
000004e0: cec8 c6a5 ba99 94bf 1935 35f8 90f9 91bf
000004f0: 45c5 27b6 2107 653f 5ba5 1a89 e52c c5bf
00000500: 8fd0 98be 8e84 b3bf e425 b874 03d1 c2bf
00000510: b0d9 a4d3 2bc8 a23f e500 08ff bd64 a6bf
00000520: 2427 a730 1bb1 b23f f79a 7fbf 7460 9abf
00000530: c03c 76af 5b9d c23f 768f c2e8 a61e a03f
00000540: f0ce 379c 0cac d43f 7d18 5cab 04e5 d1bf
00000550: 8cef c90d 39f7 babf 2c24 8789 2e8d c33f
00000560: c5da 39e4 5894 d63f de6e 2174 89c0 a2bf
00000570: b5c5 d7bd 675f 7a3f 0e64 1211 1cbb 98bf
00000580: 4c90 b728 1ad9 c73f b65e 96ab 6fec afbf
00000590: 9de4 573e 1be1 b93f e6cc dd38 1e28 a8bf
000005a0: b1de bc5f 3604 c8bf 4056 baae e06e 9e3f
000005b0: e002 9323 cee4 b13f 7cec 8f2d e3ae c93f
000005c0: 7cb3 135f dde9 9abf 2e46 55e8 6351 bbbf
000005d0: 9089 b42b 236f a63f d1d4 5ed1 fba2 ab3f
000005e0: 08e1 d771 06a3 593f 80d1 2a18 003f 95bf
000005f0: 5c6f e50d b84a c53f 8874 8432 f2cd b03f
00000600: 7ae4 dc9c d3e2 d13f 2a19 79a2 a6e1 bf3f
00000610: 97cd 26d3 17a7 b23f 561b 8f23 bfcb ccbf
00000620: f82c 8b68 a1ae b63f 3ab1 99a3 1f18 ac3f
00000630: ded4 a80d 9fa6 bc3f 5b20 a32d f13a c13f
00000640: fede 6924 2d43 aebf 93e8 d64e 2a1a bf3f
00000650: ac0b 2b92 6b39 b5bf 1717 98a2 6072 d23f
00000660: a822 1e79 2923 c9bf c46e 3fa8 469d d0bf
00000670: 591c 1a29 4227 cfbf 8e3a 2655 9cce c0bf
00000680: d7dc 049a de1e c5bf 1a6f 4d3f 4775 d23f
00000690: a5b7 471e c5a5 a8bf 3d76 736b f956 c9bf
000006a0: e209 2563 0108 c53f bad0 2d0f 7023 b6bf
000006b0: a6be 9aca b457 c7bf b0a8 1e4a 8287 c03f
000006c0: 52e7 ee89 6587 b73f 1f8e 4e5c e16a b0bf
000006d0: 2d0e fd99 5b90 ca3f 6081 c284 e87d 933f
000006e0: 9270 f4af ca88 d03f 1d53 f075 1e8b b73f
000006f0: 9b5a 01cd 82f6 cf3f f111 bdea e478 a23f
00000700: 9c1f 44d8 0b05 c7bf e2d1 6fa5 bcc0 d73f
00000710: f690 52c1 ae99 b4bf 173b 532d fc3c a9bf
00000720: 0534 6e40 e6fe bcbf b683 d71b 1b02 a1bf
00000730: 4f5f bc78 04eb a13f db08 2ddb a3f4 a23f
00000740: 46f8 7156 23b3 bc3f 6f4c 6bb0 33d2 d13f
00000750: 12b9 17dd 2746 7d3f 407e 7a23 ac45 c7bf
00000760: bc78 68a4 c197 c7bf 2689 fa7f c143 bcbf
00000770: 69cb 403e ac98 cfbf 29f5 e4cf ad47 bc3f
00000780: ba14 0419 afce b2bf db07 2ec8 a6dc 96bf
00000790: c033 36a6 d1c6 2bbf 1b2c fa3b 437c cdbf
000007a0: cfe4 ffcb 8ecd c3bf ed58 77a6 e9a2 bc3f
000007b0: b3aa ff53 1f46 b23f a527 ce13 9757 b3bf
000007c0: 3f6e 7e8e 9d95 ce3f 26a2 e7a8 c053 cbbf
000007d0: 8d50 78f3 0d0b aabf 16d0 6fa3 186d a1bf
000007e0: 9a71 6b88 395b dabf abe2 4d91 7748 d23f
000007f0: ac9f f3c3 8da7 ab3f b1fb bd61 ceb6 c3bf

layer2 f8 [10, 5]
-0.10953589626519945 -0.28200268637385906 0.3495173739451896 0.2121126752209969 -0.041150378781719205 -0.03222599855057362 0.15933731704426168 0.5779929866718108
0.2774744960995876 -0.1867239134128181 0.24402058972318308 -0.03728822892671563 -0.08242399442767617 0.6083950831649566 -0.14822074895766488 -0.1337440722592438
-0.5987200938531523 -0.45829017821519585 0.14541673044494702 -0.2381748209957373 0.15929480717739755 -0.3159227960669592 -0.23343695055618774 0.22803641064674973
0.4463238062028625 0.18721221840452285 0.38255000904900077 0.5596112594102371 0.30981506381207624 -0.3089818794621324 -0.03097091372569993 0.1808970515899138
-0.12101354151502212 0.14254244166271793 -0.518972541595589 -0.24994069751746045 0.18722767516089456 -0.6893692604756794 -0.35016113464152276 -0.03355374301247421
-0.5200308555009019 -0.0018540742689495734 -0.23268207720584838 -0.11238096550580257 -0.0916603364189945 0.05944762609690284 -0.13831587296107883 0.03552947117981241
-0.19289188904748233 0.14747954792763862
00000000: d973 3264 8b0a bcbf 1a08 d7fe 540c d2bf
00000010: f99d 9e1e 7e5e d63f 8514 9215 8226 cb3f
00000020: 2cc6 2b96 a911 a5bf b018 b613 ed7f a0bf
00000030: fc65 de4a 2a65 c43f 4e54 e225 eb7e e23f
00000040: 1b32 8e63 24c2 d13f c39d beb6 91e6 c7bf
00000050: c0b2 3412 113c cf3f c831 8857 7117 a3bf
00000060: 64f9 7828 bd19 b5bf b9b3 27f7 f877 e33f
00000070: 5b4f aec2 e5f8 c2bf 7993 3198 861e c1bf
00000080: bad5 d10a b728 e3bf 29c9 e053 a054 ddbf
00000090: 9ab1 c6f2 039d c23f e923 7435 837c cebf
000000a0: 35f1 9fb1 c563 c43f 2bc8 4a3f 1438 d4bf
000000b0: c08c 2812 43e1 cdbf bc33 030f 4c30 cd3f
000000c0: 8452 c4b9 9190 dc3f a8c1 bae9 91f6 c73f
000000d0: 2fcc 7c08 b37b d83f ac7d 34df 55e8 e13f
000000e0: a462 b88f 02d4 d33f 9c2c d6ee 5bc6 d3bf
000000f0: 7f04 51d6 d6b6 9fbf a9c0 4274 a227 c73f
00000100: db1e 2e53 befa bebf c9de 9daa d43e c23f
00000110: 0c9a b54d 6c9b e0bf 2672 e388 0efe cfbf
00000120: 886f dc92 13f7 c73f 408b 931f 500f e6bf
00000130: e065 673f 0a69 d6bf 083f cbc9 f42d a1bf
00000140: 5c31 a9bf 17a4 e0bf 181a 5e16 8d60 5ebf
00000150: 9e73 fbbb 86c8 cdbf d052 8abb ffc4 bcbf
00000160: 5f8b 4243 0d77 b7bf 0773 d253 eb6f ae3f
00000170: dc58 71a3 55b4 c1bf 3edf 8539 eb30 a23f
00000180: 44b1 8f71 aeb0 c8bf 14cb 961d 9ce0 c23f
