LF_Fire/results/NovelGridworld-v0_c0_b0_e2.npz (npz, 4590 bytes, 2 tensors)

layer1 f8 [46, 10]
0.24949548678326972 -0.10019654281468073 -0.06787506253686662 -0.16819972646286596 0.137596564437244 -0.33934336763422174 0.26725080603049184 -0.10223476468896854
0.057037773416538776 -0.04676630933434182 0.20557797027806463 -0.31375055389420264 -0.037539286728726626 -0.06662530956585803 0.17716244397575764 -0.17216884405847493
-0.015433938925160973 -0.1194332695680843 0.016215891569915486 0.07595048376905153 -0.14227890491922002 0.18877982461348639 0.1329328722953806 0.07408503555274784
0.11282439557940419 -0.08081076929244128 -0.008124773368115462 -0.1379627267085916 -0.019500522188870176 0.058197363996739276 -0.10736144830239955 -0.04292987125162108
-0.08848802967145501 -0.1459194898363576 -0.09897117241509523 -0.011100133475605007 -0.17509637947331172 0.01104406207050208 0.21947665938892305 0.11867690084133839
-0.017638230758439725 -0.08469206141190311 -0.12963272521878635 0.22814807499801346 -0.026522375380763158 -0.08448660309340858 0.027941008552890577 0.2826093971522269
-0.027732761187644166 0.04096641145289433 0.04425769915392856 -0.041937822691579967 -0.1584552861674294 -0.04150822861914357 -0.030799774398254882 0.07649424890777498
0.1337010411849136 0.1472823007305773 0.05210634573269889 0.12050744222346517 -0.10123053292736214 0.19472406317579546 0.06562759163107001 -0.05395103309086004
0.062028456881296205 -0.0011430228032622766 0.17684914085411843 0.2340843543938 0.31224628684101235 -0.21589744730714672 -0.21292296438283118 -0.06436130682124477
0.0035972957276824754 0.11919213141920049 0.02654326691360117 -0.29815730299990234 -0.025147965792366195 0.11208394265204569 0.023568013465999564 0.10232836967769833
-0.01278391686925544 -0.007266288931852976 -0.0008716616578370289 0.08277376286556738 0.05913194685355805 0.03485396454571266 -0.09425740981992427 0.037084298240053035
-0.0021572394214289733 0.18540288747495992 0.18641901973197167 0.04044119720375204 -0.07014784707398045 -0.12442669239427973 0.014567317759015251 0.022153419406431847
-0.06252494852217681 0.00281353979830458 -0.10471168822333733 0.07898283169152487 -0.06625432946914059 0.18048448988482477 0.07304206555505997 0.0750128661177576
-0.1614359443532282 0.017363899238163474 0.0909104578374288 -0.16047768043722144 -0.04963737505893177 0.004850952238762678 -0.2124549582907308 0.03646784035347086
0.11475970264697696 -0.13672782172177833 0.051685184816468825 -0.19348563318246825 -0.015704702335127208 -0.2282327659031071 0.1553457093839743 0.07028624731734
-0.003097034200742293 -0.07432639925979434 0.1975790112225933 0.29983321707967076 -0.27394448059435206 0.1922636655493984 0.23001018802397785 0.04978863684720004
-0.1768224474276665 0.14725118394384676 0.009994270457083147 -0.03407599048800578 -0.18859824266883893 0.06272973473687328 0.08868600252384917 -0.09122130400013555
0.07890522519882287 -0.2154507583444542 0.10853738530121308 -0.01326554931413977 -0.06719111912870916 -0.025336178640781994 0.1280926226934369 0.09723832277546472
0.03573746117079474 0.02593265908881145 0.02874942201248682 0.1095911782581472 0.028069312685013514 0.0962174181425401 -0.045724223723947965 -0.3689963398236231
0.14316746709194905 0.31245280502803335 0.06507563693696945 -0.024766952757459562 -0.02011767994708507 -0.007553910340122136 -0.0074328258266549325 -0.15543297964294323
-0.08624024524000305 -0.1370056520459933 0.04668143261767359 -0.03373905567916216 0.073014926317367 -0.01576064695577895 0.15542623989869445 0.04147967853182453
0.3312744809142992 -0.2896011591453303 -0.10533482157364754 0.1427464170341174 0.34280448844140077 -0.046624331428641815 0.006438641777536548 -0.014154171807297765
0.19631240610576225 -0.052350881023352246 0.09109224863293776 -0.05718000453069267 -0.17763083327637766 0.02543297833903989 0.08989162345181846 0.20064849559158054
-0.026282748153721766 -0.1167339866865372 0.038515718640746 0.054028394365606705 0.0003307307590015886 -0.020240264267709404 0.1710531855163322 0.08499613111486415
0.280392212604762 0.12554154542278848 0.05326634875258462 -0.22591561959369366 0.0860951581872483 0.04692700927013342 0.10802113397902902 0.13457550216672623
-0.058343815291608044 0.11316663613325444 -0.07177990002334657 0.29701716217529345 -0.19638555921507828 -0.2595993655247464 -0.24338557249959328 -0.1250828147588768
-0.17497826636828018 0.28056521117770883 -0.058139520828138905 -0.20796662052869885 0.15430689017407662 -0.09647808952895917 -0.18236408131405318 0.13911750694525915
0.08190999221613694 -0.05413107517974116 0.21752928475822586 0.029034804412040493 0.25823975272621286 0.09186769146398704 0.2496917557717934 0.03606858311344374
-0.16397615602223645 0.3811385421447726 -0.08047001094616121 -0.04925800847939864 -0.12325492487818107 -0.033106768489782966 0.051383384395938245 0.056114829503181994
0.09459060297710364 0.26251131659163135 -0.002848574933717903 -0.19181255359963031 -0.1943183401578645 -0.12754075953119393 -0.25684502265511727 0.12857075401442322
-0.0674961288656815 -0.042138187397988074 -9.983939305435036e-05 -0.2104449719994168 -0.17411478349648618 0.10103241397191627 0.07030369170003156 -0.07666152162626376
0.23252595127659276 -0.21248848199280815 -0.06086416353965666 -0.02403576891219192 -0.4218161069622696 0.29567260251050664 0.04401398806040974 -0.16401047532873858
00000000: 50eb 1dd6 77ef cf3f 81b2 8f0a 7ba6 b9bf
00000010: da4e cf95 4260 b1bf f454 2d92 9187 c5bf
00000020: c463 26a4 c39c c13f 899f 863e cdb7 d5bf
00000030: 2fc2 ee1f a31a d13f d176 daba 0e2c babf
00000040: dadf eb16 0e34 ad3f 658e 4af2 c0f1 a7bf
00000050: 16a9 8f01 6150 ca3f 87f5 0434 7d14 d4bf
00000060: ee4d a171 5938 a3bf 23d6 ab35 5b0e b1bf
00000070: a447 7a4b 42ad c63f e685 4ff1 a009 c6bf
00000080: faca 7437 d49b 8fbf 076a d9c2 2d93 bebf
00000090: f081 df0f e69a 903f d648 e7ab 7d71 b33f
000000a0: 8cf5 c4f5 3136 c2bf 6705 6ef2 ef29 c83f
000000b0: 6e37 89c1 f103 c13f d271 d2a4 3cf7 b23f
000000c0: a25a 3441 0fe2 bc3f 1b90 46bb 03b0 b4bf
000000d0: 434d 3a9f b8a3 80bf b6e3 a33b c3a8 c1bf
000000e0: 7477 39e4 f1f7 93bf 84a7 287e 0bcc ad3f
000000f0: 365c 4f35 0a7c bbbf 022b 1872 e7fa a5bf
00000100: a3c0 86c9 26a7 b6bf c81b 5966 7dad c2bf
00000110: 4005 c5bc 2c56 b9bf bd58 12b2 aabb 86bf
00000120: 4d31 bee3 8e69 c6bf e62c 43eb 449e 863f
00000130: d9c6 27a9 cf17 cc3f 8e78 e7ff 9b61 be3f
00000140: fe33 11a1 c10f 92bf e0b4 fe01 61ae b5bf
00000150: 612c a71d ce97 c0bf 6b83 61c4 f433 cd3f
00000160: 588e 7d7b ae28 9bbf 9e7f 3cfd e9a0 b5bf
00000170: 76c4 ce57 919c 9c3f e6e8 93b9 4516 d23f
00000180: 4e99 5019 fa65 9cbf 2a6d d9aa 8cf9 a43f
00000190: 86b6 ecf4 f1a8 a63f 2f00 dad1 df78 a5bf
000001a0: c3d4 fb47 4348 c4bf 0b44 de08 9140 a5bf
000001b0: 0209 0fdf f989 9fbf 1617 6489 2095 b33f
000001c0: 0249 aa9f 1d1d c13f 8a6f 757c 25da c23f
000001d0: 9f09 acd5 aead aa3f 953e 4663 93d9 be3f
000001e0: 8e98 4784 3eea b9bf abc9 8ad5 b7ec c83f
000001f0: e04b c547 f8cc b03f 52db 6b45 789f abbf
00000200: 8ff9 73a3 31c2 af3f e0ff bf63 2fba 52bf
00000210: 41a6 251e fea2 c63f e635 50e3 79f6 cd3f
00000220: b1e4 91d9 d7fb d33f 9aae bc0d 87a2 cbbf
00000230: 9fba 4b48 0f41 cbbf 42d1 ec8b fb79 b0bf
00000240: 8c58 2470 1378 6d3f e8d0 6222 6083 be3f
00000250: 76aa 4a7d 282e 9b3f 61ae 5c5e 0215 d3bf
00000260: 987a 8e6a 63c0 99bf 10e7 1884 88b1 bc3f
00000270: 9eca 459c 3622 983f 89fd 3729 3132 ba3f
00000280: 1925 f246 742e 8abf 6ca3 3595 41c3 7dbf
00000290: f09f 2328 0790 4cbf f176 794c a930 b53f
000002a0: 000a c5e3 8a46 ae3f 0035 b8fb 60d8 a13f
000002b0: f10d 95ec 4021 b8bf e6b3 4590 b6fc a23f
000002c0: f040 7818 0fac 61bf 5cfb 2425 48bb c73f
000002d0: 06f4 8c14 94dc c73f 4e6a cd66 b5b4 a43f
000002e0: 4e4b 1195 35f5 b1bf d837 957e 6dda bfbf
000002f0: 595c ec4a 78d5 8d3f 327b 61cf 62af 963f
00000300: af3a 1691 a201 b0bf 2249 6ead 6b0c 673f
00000310: 599d 6d9c 62ce babf a081 0f07 3838 b43f
00000320: 7ad2 4932 0bf6 b0bf d7ca bea2 1d1a c73f
00000330: b790 ca82 e2b2 b23f 6147 c10e 0b34 b33f
00000340: d5af b2da eea9 c4bf f790 6f8d d7c7 913f
00000350: 59b1 4663 e845 b73f 809f 9b5a 888a c4bf
00000360: d525 13ed 116a a9bf ace3 8493 97de 733f
00000370: 6ca9 dd5c b931 cbbf 430a 59ab e9ab a23f
00000380: a677 c451 e460 bd3f 24ca 5f19 4c80 c1bf
00000390: 07eb f204 7b76 aa3f e4dc 6121 23c4 c8bf
000003a0: ddee b0bb e414 90bf d6f8 b634 bb36 cdbf
000003b0: 4065 b042 5ee2 c33f af27 968d 47fe b13f
000003c0: 58c1 6a93 f35e 69bf 88dd 0c0e 0e07 b3bf
000003d0: f2dc c9df 444a c93f 5925 67a9 7730 d33f
000003e0: 00a3 446e 4e88 d1bf 2233 df85 189c c83f
000003f0: 63a7 a74d f970 cd3f e239 f16d e57d a93f
00000400: d043 7332 1ea2 c6bf 6505 ab75 20d9 c23f
00000410: cf9b 1546 e077 843f ed17 7381 6872 a1bf
00000420: 0b41 2cba fc23 c8bf 097f 2e4f 0e0f b03f
00000430: a0f1 7338 20b4 b63f d309 6185 475a b7bf
00000440: bc63 b601 2233 b43f 3671 7ef4 e393 cbbf
00000450: 7316 4328 1bc9 bb3f 67dc bde3 f72a 8bbf
00000460: 534c 3deb 6f33 b1bf 87cc ab2a baf1 99bf
00000470: 00e1 a9cc 5665 c03f 2f0f 3d58 9ce4 b83f
00000480: d8f6 f035 2e4c a23f 5732 bd4a 178e 9a3f
00000490: 3246 4a0d 7d70 9d3f 5581 8cde 2a0e bc3f
000004a0: 3369 03b0 33be 9c3f ed4e 3a68 b4a1 b83f
000004b0: 2806 0f5b 2a69 a7bf e8b6 f8d2 a29d d7bf
000004c0: fc6a 81c2 4f53 c23f 35e3 c80c 3aff d33f
000004d0: 9520 6904 cca8 b03f 649f 7510 825c 99bf
000004e0: cec8 c6a5 ba99 94bf 3044 e25d d9f0 7ebf
000004f0: f440 7afd e171 7ebf a8a4 2456 3ae5 c3bf
00000500: 1fa3 e738 d713 b6bf 1acd 73b5 6689 c1bf
00000510: 76bf d8f4 a0e6 a73f 64d7 7ad9 3e46 a1bf
00000520: 2427 a730 1bb1 b23f 019b f41c 8f23 90bf
00000530: ed0e a7cc 01e5 c33f 9d4d 7c0d d33c a53f
00000540: c1ae 61e1 9933 d53f b56c da4c d388 d2bf
00000550: 8cef c90d 39f7 babf e42f 64bc 8345 c23f
00000560: e8c7 b13c 82f0 d53f b925 5ef5 24df a7bf
00000570: b5c5 d7bd 675f 7a3f 194e 1dc8 dcfc 8cbf
00000580: 23fc 02d2 c320 c93f cbfc d213 bccd aabf
00000590: 712d cc54 d251 b73f d98f e392 b246 adbf
000005a0: 6975 d76d 9bbc c6bf 7cff d248 1a0b 9a3f
000005b0: a9ef e82e 2303 b73f 265a 4793 d9ae c93f
000005c0: 7cb3 135f dde9 9abf 167f 264f 47e2 bdbf
000005d0: 524c e30f 55b8 a33f 921a b615 9ca9 ab3f
000005e0: 4078 2fcb bdac 353f 1c6c 5e24 ddb9 94bf
000005f0: 90aa d51e 12e5 c53f 40c4 6c73 4ec2 b53f
00000600: ac31 cc2d f2f1 d13f 93a9 f0cf be11 c03f
00000610: df46 bd13 ba45 ab3f 2cbe e792 cdea ccbf
00000620: f617 c210 550a b63f 1687 3a24 d106 a83f
00000630: d87d b7e5 45a7 bb3f 0d0e 5322 c539 c13f
00000640: 61e0 3395 3ddf adbf 13cf 3019 7df8 bc3f
00000650: b144 1ce3 2a60 b2bf f730 7945 5402 d33f
00000660: a822 1e79 2923 c9bf c46e 3fa8 469d d0bf
00000670: 591c 1a29 4227 cfbf 132b 57b3 b602 c0bf
00000680: 5001 c815 b065 c6bf 78d4 99c9 c7f4 d13f
00000690: 32ba 1f99 76c4 adbf ac4a ea74 a69e cabf
000006a0: fc2c 6c03 54c0 c33f 5eb4 4ebf c9b2 b8bf
000006b0: a6be 9aca b457 c7bf acc2 503b 9ace c13f
000006c0: 29af c8a1 0df8 b43f d348 307b 11b7 abbf
000006d0: a4bb fae5 ffd7 cb3f 33f6 94bd 4cbb 9d3f
000006e0: 151e 1f07 0087 d03f 7c97 651a a484 b73f
000006f0: 2d72 8f42 e6f5 cf3f e045 c5d1 9477 a23f
00000700: f33a b8b1 2bfd c4bf 5071 70e9 9264 d83f
00000710: f690 52c1 ae99 b4bf 0e60 f87e 5838 a9bf
00000720: ac37 6c7f a28d bfbf 7b35 e1cf 5ef3 a0bf
00000730: cea2 1347 ec4e aa3f 2bd5 123b 15bb ac3f
00000740: 28ab 4bfa 1637 b83f 45d2 e543 fccc d03f
00000750: c4d9 c605 e555 67bf b319 5652 508d c8bf
00000760: 1fda fe61 6cdf c8bf 18f7 8b6f 4153 c0bf
00000770: 436c 1c1b 2670 d0bf a164 dba7 0175 c03f
00000780: 23af 1522 6d47 b1bf e7fb 92f1 2293 a5bf
00000790: 001e 4bb6 1b2c 1abf 402d 2c60 dcef cabf
000007a0: 2e0b 6faa 6449 c6bf 7d66 d8a1 42dd b93f
000007b0: 86c3 a338 6cff b13f 0b14 3fe8 16a0 b3bf
000007c0: 0a25 1a0e 69c3 cd3f 29c8 7794 d232 cbbf
000007d0: d56c cd6f 9629 afbf b9f7 a525 d59c 98bf
000007e0: 1b0e 15fc 08ff dabf fac5 86c7 4cec d23f
000007f0: d86d 925e 0089 a63f 2882 de95 4bfe c4bf

layer2 f8 [10, 5]
-0.10951660630975066 -0.2986150817963552 0.36945563862980274 0.21539589490652974 -0.04350514223362214 -0.025413982739071573 0.156789626743169 0.5770117696339268
0.28455459414829093 -0.18667351412613548 0.2636977046495964 -0.038905098510330915 -0.06480447125647504 0.6084045931214577 -0.12884580941733156 -0.1536980427336965
-0.598729282232442 -0.4583700124224758 0.16022312864044602 -0.25816121864035113 0.15925759410161808 -0.2964412610328435 -0.23284248049131248 0.20970807654042184
0.4457700854291846 0.20623767761728284 0.3750391177036637 0.5585944095725947 0.30980713665711984 -0.289159897925631 -0.05095323137801466 0.18071570082986868
-0.11363123323532506 0.12256015100207836 -0.5387524230629257 -0.2331021062548726 0.17598113408404342 -0.6893786050780486 -0.3393352573368996 -0.033478401317321035
-0.5003526703618504 -0.004751457339769002 -0.2283238274397299 -0.11232060568530326 -0.09039113757604371 0.07256724864342101 -0.15633243032405103 0.033813590844898087
-0.1875795595713562 0.16571978600156195
00000000: 2623 78c2 4709 bcbf ee17 9a6e 821c d3bf
00000010: 1138 4f43 29a5 d73f 2f79 28ba 1792 cb3f
00000020: 23d5 3356 4e46 a6bf bdd4 e682 1f06 9abf
00000030: f962 9bb7 ae11 c43f 7e83 ff62 e176 e23f
00000040: 17c8 f278 2436 d23f 26bf 19ef eae4 c7bf
00000050: a604 6056 6ce0 d03f 58c2 7f7b 5eeb a3bf
00000060: b05e ae9c 0697 b0bf ce2b c6e8 0c78 e33f
00000070: 8348 d6fc 047e c0bf 510e 80a1 60ac c3bf
00000080: 8d11 cb4f ca28 e3bf df95 342d ef55 ddbf
00000090: fe68 c904 3182 c43f daf8 c9a1 b685 d0bf
000000a0: 072e 2787 8d62 c43f 488c 54c4 e4f8 d2bf
000000b0: c733 6a4b c8cd cdbf da5d 39d9 b6d7 ca3f
000000c0: b805 9d40 7f87 dc3f 3cdc 4808 ff65 ca3f
000000d0: ee81 5012 a400 d83f 97f7 1a62 01e0 e13f
000000e0: 759f 0050 e1d3 d33f 2af0 3984 9881 d2bf
000000f0: b0c6 c9bc 8a16 aabf 9510 782c b121 c73f
00000100: 3ec4 8cbe ef16 bdbf 7dc4 5820 1a60 bf3f
00000110: d045 b6b8 753d e1bf 9027 7f31 4ad6 cdbf
00000120: 7a4e cdbf 8c86 c63f 08ea 6bb8 630f e6bf
00000130: 1212 293a abb7 d5bf de7d 8fbd 1424 a1bf
00000140: 0c74 759a e302 e0bf 7c52 1f9e 4376 73bf
00000150: e826 e015 b739 cdbf 83d5 1510 0bc1 bcbf
00000160: 9bc2 bca3 df23 b7bf 5027 af67 c493 b23f
00000170: 42e3 c579 b302 c4bf aea6 add5 0350 a13f
00000180: 4ce7 e064 9b02 c8bf 46a2 9652 4e36 c53f
