LF_Fire/results/NovelGridworld-v0_c0_b0_e0.npz (npz, 4590 bytes, 2 tensors)

layer1 f8 [46, 10]
0.2394966578896461 -0.09019856231887152 -0.07787467633948363 -0.15820059254353047 0.12759739373900272 -0.33934336763422174 0.25725845963815497 -0.11223383450658088
0.047039748412548744 -0.03676765596747053 0.21557605434751217 -0.3037511761626718 -0.0475378232577441 -0.056625725322117855 0.16716518440658373 -0.16217012001046957
-0.02542315221751885 -0.12943316236537025 0.0062240773923743714 0.08593141518709527 -0.1622774444698665 0.16878030303564356 0.13293229949530508 0.07408874828445328
0.13282396337332164 -0.1008101730342637 -0.018119175242785945 -0.1379716758971185 -0.03949794249063863 0.07819664747332163 -0.11197891613693338 -0.058509543379913174
-0.1031059914062463 -0.1346179178231086 -0.09896984259198661 -0.02022339998485757 -0.16473842343489545 0.03435262650891566 0.2347411258326548 0.11464357383300161
-0.017338542473245764 -0.114253327052103 -0.11005287719072539 0.22974187046421785 -0.007143436912195403 -0.10108246378463225 0.04790458225815723 0.30256440885012414
0.004386284128564171 0.07455681530865821 0.04425769915392856 -0.05193640642226662 -0.16845511805895247 -0.051507774361031884 -0.030799774398254882 0.08649287083373142
0.12370135572317068 0.13728351224729257 0.04210755388853277 0.1305069447332993 -0.11122990813977315 0.1847253316117733 0.07562737609261132 -0.043951390723303584
0.07202807114265325 -0.011142441197800968 0.16684965052820638 0.22408476441039718 0.3222455132632839 -0.2059021514675165 -0.21292296438283118 -0.07437943364619301
0.023596178576685247 0.12918405965150195 0.04653783405215003 -0.29815730299990234 -0.04514731860440597 0.12207820095266421 0.033925617883068075 0.11235241903710697
-0.032780496254756306 -0.00967614753690824 0.017507157068055536 0.06043184619760868 0.03923710399236048 0.017546867537197027 -0.08888529641895358 0.05569215624400487
0.01799659806045148 0.16765261536955758 0.18728369625853752 0.031412085661657346 -0.05616403032569686 -0.10446763747619256 0.05269405258854786 0.009762602085407593
-0.03100138356924021 0.0033444898914863934 -0.10504517644478752 0.0829323602992186 -0.06592551024477923 0.18054381132326608 0.059491596957786594 0.08751837859760822
-0.1614359443532282 0.02497407726844594 0.10918909179276316 -0.14061548231666451 -0.03925177728980826 0.004808752563574018 -0.202455103727352 0.04646771726330362
0.12475958110123186 -0.1267287116625849 0.051685184816468825 -0.19348563318246825 -0.005705341580596524 -0.2382326366784581 0.165344020569008 0.060289095186195615
-0.0036295721289035495 -0.1142913454664983 0.18780506600651056 0.2900333298658381 -0.27394448059435206 0.18226244277828565 0.23998401098126634 0.04983710574617625
-0.17682242464153428 0.12729332245586136 -0.008546318894066167 -0.07132188778996594 -0.19136191283483428 0.06119612862130078 0.10868375135292993 -0.09193459050667885
0.090952211171037 -0.18529681989648072 0.11193857695592291 0.0030939580461558794 -0.047202996881371334 -0.0149795860704075 0.148056722941443 0.10981575094155406
0.07529037103186124 0.008489960862596135 0.02878216465291871 0.11110788205341378 0.03446022115647858 0.08101370415377146 -0.045724223723947965 -0.3589972428597725
0.1531663313999842 0.32245255722083094 0.06507563693696945 -0.014767083514469268 -0.02011767994708507 -0.01755358233395041 0.0025668772152519803 -0.16543263620887214
-0.07624141839261454 -0.14700358580766626 0.03668343504471083 -0.04373735178160291 0.073014926317367 -0.025758575618875814 0.1454271895167718 0.031483856118284345
0.32300105338730045 -0.2796031640467687 -0.0953826619855514 0.13291699075268376 0.3727812880082482 -0.036659197994505455 0.006438641777536548 -0.03336821462191973
0.19631264121626565 -0.04236123340958835 0.1002708275135754 -0.04715217332308388 -0.18762855219551036 0.029795619577344452 0.08935130492973353 0.21064883153932565
-0.016284525626460718 -0.10671812727212432 0.06300500085849343 0.03549950811599675 0.021445432822093602 -0.010749246068290828 0.18632597401527928 0.06508625925692525
0.29944891166988125 0.14440384470364728 0.09282421276824075 -0.2449174001179243 0.10852409408585632 0.05490130786240761 0.11224081617563203 0.1353186037768145
-0.05910626477719737 0.12149300026695391 -0.08290741270597718 0.28823104742365174 -0.19638555921507828 -0.2595993655247464 -0.24338557249959328 -0.131305257393667
-0.16500456352671364 0.28840809995539163 -0.04813972468023956 -0.1979667448676298 0.16430680600212982 -0.0864782368715308 -0.18236408131405318 0.12913540476922014
0.09190973870763955 -0.06413086417756418 0.20753045100183112 0.01903498945523674 0.23840621185939656 0.0741250990811042 0.22983333817408402 0.016130547569585502
-0.179841499899564 0.36113970496209014 -0.08047001094616121 -0.02931704346199816 -0.10326812565355513 -0.029988875426381886 0.04499492973278217 0.03683880389832961
0.11207063871310899 0.27845214572507543 -0.0028510496414095414 -0.18181373340938656 -0.1743232973699735 -0.10997593192581825 -0.24684670486166319 0.11052544897992139
-0.053485545572449084 -0.041784494023047555 0.019686942214151192 -0.21045151272064497 -0.13472516026273887 0.09197291384856965 0.09118260414440967 -0.075322592287915
0.24802857776022963 -0.21217920355715966 -0.05086558911367076 -0.0340354632861876 -0.41181791612850704 0.2856730383860319 0.05401270882595041 -0.1540163018471197
00000000: 0b94 9194 d3a7 ce3f 0447 4ec3 4017 b7bf
00000010: 078e 1044 98ef b3bf 1c55 97c1 ea3f c4bf
00000020: 19f9 9484 1c55 c03f 899f 863e cdb7 d5bf
00000030: 3af9 b02f ec76 d03f 79df b548 5bbb bcbf
00000040: 8d82 160a 9815 a83f 5c9a dccf 35d3 a2bf
00000050: 8d94 9c03 ff97 cb3f 9a5f efc5 a870 d3bf
00000060: 9a19 6ea8 e056 a8bf 41d6 bd0c 0cfe acbf
00000070: d62d 0734 ab65 c53f 9bab ea90 fdc1 c4bf
00000080: 5386 57dd 8608 9abf 9345 b00f 4491 c0bf
00000090: 597e 910d 6b7e 793f 5a75 ede9 99ff b53f
000000a0: 3932 70de 81c5 c4bf 9e9f dfcc 979a c53f
000000b0: 790b 75f3 ec03 c13f 2420 e2ee 7af7 b23f
000000c0: 5e21 6829 6000 c13f 9448 490c b2ce b9bf
000000d0: e09d 6444 d58d 92bf ce4f e04d 0ea9 c1bf
000000e0: ad5e 8306 1339 a4bf 9504 8e0b b204 b43f
000000f0: d34f a676 a6aa bcbf 5b28 a47e f6f4 adbf
00000100: 468a 1c7d 2765 babf 40c0 40f1 283b c1bf
00000110: b90c 396d 1656 b9bf 4310 3266 71b5 94bf
00000120: b113 860e 2616 c5bf cc65 c6de aa96 a13f
00000130: d71d 3d49 ff0b ce3f 802e 4f00 4859 bd3f
00000140: 4916 88e3 31c1 91bf a8e1 25bf b43f bdbf
00000150: 1d68 5de4 6c2c bcbf 2235 157e 2e68 cd3f
00000160: dde3 b3be 6f42 7dbf 1773 2754 8ae0 b9bf
00000170: 0631 410c f386 a83f 8678 3c1c 375d d33f
00000180: b95e 212e 5af7 713f 40d1 71cb 2716 b33f
00000190: 86b6 ecf4 f1a8 a63f 535d 1c9e 6897 aabf
000001a0: 3a19 74f3 ef8f c5bf 59a2 bd1c 3a5f aabf
000001b0: 0209 0fdf f989 9fbf 546a 9193 6524 b63f
000001c0: 0a48 4d5d e4aa bf3f dee9 b091 8192 c13f
000001d0: e84a bb0d 1f8f a53f 25e4 c399 73b4 c03f
000001e0: 0e23 cc31 9079 bcbf 0cf6 0165 14a5 c73f
000001f0: cb03 00d3 505c b33f a365 8af3 cb80 a6bf
00000200: cc9f f381 6e70 b23f 0d57 5624 d9d1 86bf
00000210: fe0f 2f50 545b c53f b156 563f cfae cc3f
00000220: 0ee8 2fa5 ab9f d43f 9650 5d6f 005b cabf
00000230: 9fba 4b48 0f41 cbbf f661 01d3 870a b3bf
00000240: d793 30bd 9829 983f 4111 af6f 1a89 c03f
00000250: 9bb2 8f96 ced3 a73f 61ae 5c5e 0215 d3bf
00000260: 79e7 d0a1 8c1d a7bf f16d a558 8440 bf3f
00000270: 67d6 9bd6 b25e a13f 8c0f 64cd 20c3 bc3f
00000280: 8ebe b8ee 9ac8 a0bf f240 c789 16d1 83bf
00000290: ea82 366c 65ed 913f b27b 1c46 ecf0 ae3f
000002a0: 82b6 dfbc e216 a43f ffc5 e058 cef7 913f
000002b0: b7f4 36d1 2fc1 b6bf f966 6cab ae83 ac3f
000002c0: 7882 6f40 b36d 923f 65f1 0c12 a475 c53f
000002d0: b690 4083 e9f8 c73f 4460 3bb1 3e15 a03f
000002e0: 34bc eb22 88c1 acbf 8e5c 731e 64be babf
000002f0: 2f7f 1f01 b7fa aa3f 080c 7245 6afe 833f
00000300: 0218 3ea2 d3be 9fbf 0665 9556 e765 6b3f
00000310: 51d3 6e9d 3de4 babf 4ae6 431f 0e3b b53f
00000320: 5933 7986 7ee0 b0bf b276 9042 0f1c c73f
00000330: 6e19 a4be ae75 ae3f 262c e0bd 9a67 b63f
00000340: d5af b2da eea9 c4bf c787 76f4 cd92 993f
00000350: b171 54fa d0f3 bb3f 6740 ee28 b0ff c1bf
00000360: 4609 8a17 cf18 a4bf ddf4 ebaf 57b2 733f
00000370: ed68 b580 0cea c9bf 786b eedb 9dca a73f
00000380: 7044 b170 3ef0 bf3f c30a 077c a538 c0bf
00000390: 07eb f204 7b76 aa3f e4dc 6121 23c4 c8bf
000003a0: e7cb 04f8 7b5e 77bf 95d9 af33 687e cebf
000003b0: e06d 772c fe29 c53f dea1 4258 36de ae3f
000003c0: ba98 f2b2 c3bb 6dbf 2694 fe96 3242 bdbf
000003d0: e3b2 4214 ff09 c83f 3285 a1f4 e78f d23f
000003e0: 00a3 446e 4e88 d1bf 9dca 822f 6054 c73f
000003f0: e11c 5dcb cbb7 ce3f ec3e 9dc6 3f84 a93f
00000400: cb74 8401 1ea2 c6bf cd3a 79c8 254b c03f
00000410: e9a8 3581 bb80 81bf af00 8cb7 2642 b2bf
00000420: c8ad a912 8c7e c8bf e4fd 2356 1955 af3f
00000430: aedc aac5 b2d2 bb3f 20eb 987b 0689 b7bf
00000440: 4e7e 7ae4 a448 b73f 440c c162 ceb7 c7bf
00000450: 60bc 2faf 01a8 bc3f 222f f313 8058 693f
00000460: 54e2 c1bf fd2a a8bf bf79 3d02 9ead 8ebf
00000470: 5c43 7ecf 85f3 c23f 2131 e192 e21c bc3f
00000480: cb19 49d1 3a46 b33f 064d fe41 2f63 813f
00000490: 3eca 915f 1279 9d3f f54a bfef 9071 bc3f
000004a0: ba8f c225 c5a4 a13f cc46 de69 50bd b43f
000004b0: 2806 0f5b 2a69 a7bf 0cf6 5b92 cff9 d6bf
000004c0: 9609 1b50 f49a c33f 379a f10c 10a3 d43f
000004d0: 9520 6904 cca8 b03f 65fc 0366 343e 8ebf
000004e0: cec8 c6a5 ba99 94bf 1935 35f8 90f9 91bf
000004f0: 45c5 27b6 2107 653f 5ba5 1a89 e52c c5bf
00000500: 8fd0 98be 8e84 b3bf e425 b874 03d1 c2bf
00000510: b0d9 a4d3 2bc8 a23f e500 08ff bd64 a6bf
00000520: 2427 a730 1bb1 b23f f79a 7fbf 7460 9abf
00000530: c03c 76af 5b9d c23f 768f c2e8 a61e a03f
00000540: f0ce 379c 0cac d43f 7d18 5cab 04e5 d1bf
00000550: 7457 d585 ff6a b8bf 12c9 2e88 6c03 c13f
00000560: 8198 230c a6db d73f 80cd f790 fec4 a2bf
00000570: b5c5 d7bd 675f 7a3f 0eda 0d7d a315 a1bf
00000580: df59 e8ca c520 c93f 168d 3920 5fb0 a5bf
00000590: d7e5 e954 59ab b93f b347 b764 5424 a8bf
000005a0: b1de bc5f 3604 c8bf 6252 982e be82 9e3f
000005b0: 7833 8724 badf b63f 4b75 3379 8af6 ca3f
000005c0: 7270 fc03 e4ac 90bf 042e 8612 e151 bbbf
000005d0: 4df3 2b82 1821 b03f dcbb c3d4 fd2c a23f
000005e0: f052 7aa2 caf5 953f 2c4a 8f62 b303 86bf
000005f0: 843e 658e 87d9 c73f c16e ed3a 7ea9 b03f
00000600: c779 9cc4 2b2a d33f 279c 353f d37b c23f
00000610: 8bd5 1dde 53c3 b73f 9429 dd0f 7459 cfbf
00000620: 7341 ed2a 3cc8 bb3f 79a7 8d33 061c ac3f
00000630: 0c2d c06a d0bb bc3f ad82 e1b8 1e52 c13f
00000640: fede 6924 2d43 aebf 93e8 d64e 2a1a bf3f
00000650: ac0b 2b92 6b39 b5bf 1717 98a2 6072 d23f
00000660: a822 1e79 2923 c9bf c46e 3fa8 469d d0bf
00000670: 591c 1a29 4227 cfbf 8e3a 2655 9cce c0bf
00000680: d7dc 049a de1e c5bf 1a6f 4d3f 4775 d23f
00000690: a5b7 471e c5a5 a8bf 3d76 736b f956 c9bf
000006a0: e209 2563 0108 c53f bad0 2d0f 7023 b6bf
000006b0: a6be 9aca b457 c7bf b0a8 1e4a 8287 c03f
000006c0: 52e7 ee89 6587 b73f 1f8e 4e5c e16a b0bf
000006d0: 2d0e fd99 5b90 ca3f 6081 c284 e87d 933f
000006e0: afb7 8c41 1884 ce3f e0b8 5dcc dcf9 b23f
000006f0: 507d 7ec7 2d6b cd3f d59c 1cb9 8684 903f
00000700: 9c1f 44d8 0b05 c7bf 605a 86b5 e91c d73f
00000710: f690 52c1 ae99 b4bf e3ec 897b 4905 9ebf
00000720: 87b7 66a6 c76f babf 6cee cc5c 67b5 9ebf
00000730: ee50 604f 9309 a73f 8025 ef23 89dc a23f
00000740: b258 1d50 a9b0 bc3f 73f9 d8f2 28d2 d13f
00000750: 9815 039f 155b 67bf 407e 7a23 ac45 c7bf
00000760: 0745 91ce 3950 c6bf 62f0 f7f6 6127 bcbf
00000770: 69cb 403e ac98 cfbf 2c96 be54 654b bc3f
00000780: acb3 151a 7562 abbf b627 9ef6 c664 a5bf
00000790: f340 df53 d028 943f efb2 433e 13f0 cabf
000007a0: e96e a38e ac3e c1bf 50f1 1871 898b b73f
000007b0: adac c33e be57 b73f 1dcb 8666 5748 b3bf
000007c0: e20e fa82 66bf cf3f 87ac 152a b028 cbbf
000007d0: 8d50 78f3 0d0b aabf 16d0 6fa3 186d a1bf
000007e0: 9a71 6b88 395b dabf abe2 4d91 7748 d23f
000007f0: ac9f f3c3 8da7 ab3f b1fb bd61 ceb6 c3bf

layer2 f8 [10, 5]
-0.10922002334905075 -0.30135030152641923 0.3486830408075786 0.21210718749819182 -0.04081731350980449 -0.01449440539646435 0.1393530214236134 0.5584677827656559
0.27093523963454247 -0.16735597038129035 0.24458958532207942 -0.057276011723639886 -0.08290556348584352 0.608398748711771 -0.14820407491931295 -0.13375447442417487
-0.5987116952445963 -0.4591002964612601 0.14517536685648552 -0.22609642694758914 0.16091628497903587 -0.33591042326155035 -0.23340932942492093 0.22800884342501584
0.4464242440027368 0.20557721677155302 0.3690269225095686 0.5396293358516834 0.32689826305821923 -0.288998822385318 -0.0333269301883764 0.1809294655614771
-0.12116713811715199 0.16253491181544297 -0.5189762450165328 -0.2458898380521467 0.16724011340787023 -0.7064022749772046 -0.3502125082459969 -0.014500186086646704
-0.5239122226537477 -0.001860948565442548 -0.25200579633865544 -0.09242011016191629 -0.08750749993679591 0.06937381150384951 -0.15829636996595442 0.02914749738961241
-0.19323834575386822 0.16696764160102295
00000000: 5d3f 5aec d7f5 bbbf 8186 6cc6 5249 d3bf
00000010: 7a0e 3cac d250 d63f 2590 c60c 5426 cb3f
00000020: 8737 45c5 01e6 a4bf e0e4 3829 3eaf 8dbf
00000030: 907d cede 51d6 c13f d623 dbd3 f7de e13f
00000040: 361d 64c2 0057 d13f 78fb c9a1 eb6b c5bf
00000050: a844 f326 b64e cf3f 988d 650a 4853 adbf
00000060: 9e01 d48b 4c39 b5bf c09e 14a7 0078 e33f
00000070: f7c8 74e3 59f8 c2bf 5439 acda dd1e c1bf
00000080: 44dd d96d a528 e3bf 1da4 b835 e661 ddbf
00000090: 1aad 6a3e 1b95 c23f 98bd bd4b baf0 ccbf
000000a0: b47b b0a2 e798 c43f dfce 926e 8e7f d5bf
000000b0: ba0c 3b5e 5be0 cdbf f9c7 dace 642f cd3f
000000c0: a387 08fe 3692 dc3f 2f13 6baf 5a50 ca3f
000000d0: 786a e118 239e d73f eb3e aebd a444 e13f
000000e0: 8a12 3db1 e6eb d43f 998e aeea f47e d2bf
000000f0: d065 7836 3a10 a1bf 1a12 bc5c b228 c73f
00000100: 3226 903f cf04 bfbf 2b50 5aa9 f1cd c43f
00000110: 89e6 f711 749b e0bf 7c25 6d76 5179 cfbf
00000120: df43 d5c0 1f68 c53f 631b 9bf1 d89a e6bf
00000130: 9a44 64b9 e169 d6bf 7978 3908 46b2 8dbf
00000140: 75b8 c890 e3c3 e0bf e06a 994e 627d 5ebf
00000150: 5753 6beb dc20 d0bf a65d a326 d8a8 b7bf
00000160: 5c1d 623a e466 b6bf 7b9f 9b6b 7bc2 b13f
00000170: 3426 0a32 0e43 c4bf 3dcc 3170 d7d8 9d3f
00000180: e049 acbb 08bc c8bf 8c54 1518 325f c53f
