LF_Fire/results/NovelGridworld-v0_c1_b0_e0.npz (npz, 4590 bytes, 2 tensors)

layer1 f8 [46, 10]
0	0xbfb170b791256d51	-0.0681261758194769
1	0x3fcebcc4ac8c8fb9	0.2401357500576731
2	0xbfd3effb4184f212	-0.31152230642672507
3	0xbfe4095b844242a8	-0.6261422713451639
4	0xbfdb34bf1c73929c	-0.4250943925710915
5	0x3fdd346a6406186f	0.4563241936488173
6	0x3ff243eb1fbd4ebe	1.1415816535781427
7	0x3fe91e6931552265	0.7849622691656576
8	0x3febaa7a8d2dcad2	0.8645603902244494
9	0xbfe38fe5733c7d43	-0.6113154650410383
10	0x3fcdc311796c4609	0.2325155108342616
11	0xbfc584aed1532116	-0.1681116602033021
12	0xbfc88538ca57e1d9	-0.1915656078342767
13	0xbfcee2977ae44b80	-0.24129003048491526
14	0xbfb4740f22365fd3	-0.07989592156661666
15	0x3fb913ae78a6ec0d	0.0979565662918704
16	0x3fbd9fd356687272	0.1157199941594145
17	0x3fabc96a233e1066	0.054271046449714075
18	0x3fd027851c8c8c33	0.252412107353112
19	0xbfc04c1b894054ff	-0.1273226185009335
20	0xbfc85b71b10c2619	-0.19029065270324066
21	0x3fd93b5567bf6d73	0.39424643642060814
22	0xbfd08b1b3a6c4270	-0.2584903784309409
23	0xbfdecf1fa37addd1	-0.4813918205722674
24	0xbfcd26d217aad313	-0.22774721294049324
25	0x3fdab324ac02f1dd	0.41718403623579353
26	0x3fe4661a7aa666bd	0.6374637980945504
27	0x3fe43daf5ca6bba0	0.6325299081416809
28	0x3fe310c634bc2fbd	0.5957976369841088
29	0xbfc3bdf4eac45c9a	-0.15423451865419652
30	0xbfcb8082e84bbeb0	-0.21485935537883938
31	0x3fc4ddf7a3b87bc7	0.16302390569850742
32	0xbfc9be84ef312955	-0.20112668685244253
33	0xbfd3b29f90cc5305	-0.30777730122035535
34	0xbfd1e3e95890a84f	-0.279535614480328
35	0x3fe298f6c0cbd681	0.5811723485519026
36	0x3fe0e76920c64117	0.5282483711362457
37	0x3fe454de82602c6a	0.6353600069427447
38	0x3fe94cb83f4880f8	0.7906151996612882
39	0xbfc1e9c05529c1d4	-0.13994602354388397
40	0x3fc32ec1a52fa29d	0.14986439290739365
41	0x3fa34a872cd450aa	0.037677978727658726
42	0x3fb10f97e087f39f	0.06664418441501006
43	0x3fdb34afd25c929a	0.4250907472908608
44	0x3fcbc6562e00fb28	0.21699025388985516
45	0x3fd1c4383b2934e8	0.27760129716337056
46	0x3fd41e2e0e36a87f	0.31434203517950005
47	0x3fe898e5be836cf2	0.7686642380680537
48	0x3fd373ed0b985ea1	0.3039505589708629
49	0x3fbd23b1f85784cc	0.1138259154609102
50	0x3fce5dc6f1e67cb4	0.23723685084857993
51	0x3fd8f9ab4853539f	0.3902385908416423
52	0xbfdce867130cc7fc	-0.4516847311052741
53	0xbfd9526fc0112acf	-0.3956565261511686
54	0xbfdb328cb9b0b1e8	-0.424960309351063
55	0x3fe14ee3bc24cd46	0.5408800768549689
56	0x3fdb264bee0284be	0.4242124389948677
57	0x3fbb0f2d1b7671ee	0.1057003204391049
58	0x3fdc0678c3a94e86	0.43789500339082854
59	0xbfd4b8583b5e0479	-0.3237515048750264
60	0xbfa7e4e2b810bc1a	-0.04666813370601393
61	0x3fc61a43c374f594	0.17267653507034864
62	0x3faaed069425f9be	0.05258961256457749
63	0xbfa5a18775553f5a	-0.0422479944924123
64	0x3fb23f9808ac3f6a	0.07128286563624689
65	0x3f5c542fe6dcea78	0.0017290561476800675
66	0xbfb1e0242de2f516	-0.0698263752010074
67	0x3fbb5416edb61868	0.10675185492991235
68	0x3fb1a9d2448fadf5	0.06899751829012486
69	0xbfbf025cd5298796	-0.12112980083614241
70	0xbfb929cd635358da	-0.0982941024297789
71	0x3fb4cae437b7a0a6	0.08122087822232746
72	0xbfc196c27e39faf5	-0.1374133220997106
73	0xbfc04f1450e21fc4	-0.1274133105218863
74	0xbfd2abcd6041c7db	-0.2917359771737417
75	0x3f798c16000f3de2	0.006237111986549833
76	0x3fbfed6339227e14	0.12471599717036269
77	0x3fc4eff05285e1ab	0.1635723498291218
78	0x3fce448d6be702db	0.23646705406829124
79	0xbfc7e1d7db98d603	-0.18657968733320737
80	0x3fc645811f852db2	0.17399610556672723
81	0x3fc1de135e961e9b	0.13958971136547835
82	0xbfa8b4428be4ec1f	-0.04825027425473415
83	0xbfb8f64c5ff4aa92	-0.09750821440381177
84	0xbfa90ce144cc29a2	-0.04892639126599653
85	0x3fcc9e7ce0a4cb57	0.22358666390354173
86	0x3fbaaf0f7d4ad2f7	0.1042337113274917
87	0x3fc42b17e97d5e2c	0.15756510640015742
88	0x3fc9fb08e74f8e5e	0.20297347349616052
89	0x3fb889b7b445fb44	0.09585140372472006
90	0x3fc325059854a827	0.14956731737157833
91	0x3fc01531c187809d	0.12564680051491886
92	0x3fbec57b1204cbf7	0.12020081701193407
93	0x3fb497bc677b2035	0.08044030691519384
94	0x3fd46929432077d5	0.3189185290847239
95	0x3fd7a9e5c062c4b2	0.3697447184341157
96	0x3fc4711f6ad70d21	0.15970223156737354
97	0x3fd90b3fb0173f09	0.3913115710865758
98	0x3fbf13557bcb60b6	0.12138876221013359
99	0x3fc8025e021aeb9f	0.18757224180975826
100	0x3fef68c90e2c2003	0.9815411831668829
101	0x3ffc9cda97764826	1.7882944027410388
102	0xbff75901b43ccdd4	-1.459230140736385
103	0xbffb054b30569b5b	-1.6887924087729604
104	0xbfffb16d33905197	-1.9808170332154071
105	0x3feff1eb1e747d39	0.9982810587716023
106	0x3fd3bad5df99245e	0.30827853046191034
107	0xbfeeba1d25ca0821	-0.9602189767904329
108	0x3ff0b6a8843a53a5	1.0445943036222414
109	0xbff9d4cda26be78a	-1.614453920802108
110	0xbfb21fc6e024e7ce	-0.07079737636823255
111	0xbfd12ca8fed47035	-0.2683508385250691
112	0x3feb3c55be5f817b	0.8511151045059216
113	0x3fe6b36378090798	0.7093980163992795
114	0x3feb33b331797738	0.8500610319422099
115	0xbfe08eb43f468e31	-0.5174199329234793
116	0xbfaae8ee6a7d63cf	-0.0525583748810231
117	0x3fcaa9076dc3f8d5	0.20828335628170316
118	0x3f720528d539c170	0.00439945173603494
119	0x3fdc92ea29f9721c	0.44646696185171364
120	0x3fbcf5dda8a372be	0.11312661521101128
121	0x3f838803afd85550	0.009536770633568864
122	0xbfc0f650d0ad0dcd	-0.13251695813424505
123	0x3fb59abd80d4e550	0.0843923987894375
124	0xbfdefa1b2cca38ed	-0.4840152680780097
125	0x3fc7931b7d3038af	0.18417686093056804
126	0xbf54822179b4d0c0	-0.001251728716693143
127	0xbfd516c917ed5601	-0.3295157178557418
128	0xbfc707f1d468d3f1	-0.17992995139653048
129	0x3fc1a22cf3785ce8	0.13776170623962192
130	0xbfa077d14726fc86	-0.0321641349178146
131	0x3f9835c5fc8e9388	0.02364262918458196
132	0xbfd69641ba80b794	-0.35292094433941057
133	0xbfac94c254cbf91b	-0.05582244191281146
134	0x3f9e8fc88caea9f2	0.029845365130009634
135	0x3f880f2d9505ccfa	0.01174769984274925
136	0xbfceac4b503744ea	-0.23963300148765337
137	0xbfece5ddd39f3082	-0.9030598767508453
138	0xbfc19bca8d7f2a36	-0.13756687077541735
139	0xbfb31521bddaca50	-0.07454119572757034
140	0x3fb42cd86ef414f4	0.07880928715538343
141	0x3fad066b8f6d2666	0.056689606912709675
142	0x3fe445f5dbd9e55d	0.6335400861709491
143	0x3fe4e1c7350ee2b0	0.6525608097354816
144	0x3fe4152aa17c402b	0.6275838045130561
145	0x3fb0bd8ee94adc4d	0.06539242930999585
146	0x3fcfecc6217455e0	0.24941326745526649
147	0x3fe5bd0bb138884f	0.6793268643707594
148	0x3fc7894884ea3bc5	0.1838770531653308
149	0x3fe0bc3098666b12	0.5229723908008472
150	0x3fe17e40f2291fa6	0.5466618280124649
151	0xbfc1c69b96c7cbf2	-0.13887352812125148
152	0x3fdb2e91bb33bce3	0.42471736222701234
153	0x3fe311ed8200c96f	0.5959384478685886
154	0x3fbe6ef223666aeb	0.11888039936313148
155	0xbfd7af2e5a919c1f	-0.37006720394714593
156	0xbfdbd18880f65135	-0.43466389268839417
157	0xbfeb8db57cd06f90	-0.8610484540727033
158	0xbfd98150f029ccba	-0.3985178323120625
159	0xbfce0acc367b7580	-0.23470451984659846
160	0x3fc58b345945c0fe	0.16831068381316777
161	0x3f9cec250812ed0a	0.02824457036761622
162	0x3fdbde5205f1d976	0.4354443605474424
163	0x3fdbaab342927911	0.43229371548831447
164	0x3fe1f421bb856711	0.5610512411614953
165	0xbfd27cd4bf70f4a1	-0.2888690824073113
166	0x3fa9eb5b5b0868ed	0.05062375532379968
167	0x3f98d140ea710603	0.02423573904912325
168	0x3fc360ff2c090f4b	0.15139760637441166
169	0x3fb347924bf4b168	0.07531084398641996
170	0x3fc0bb962bf68ccb	0.13072468897471476
171	0x3fbc6a07130b5ee8	0.11099285330726227
172	0x3fe753c3d8619b39	0.7289752222248814
173	0x3fd2cee983674be7	0.2938789160954784
174	0x3fdbcb2074740ac4	0.43427287456885844
175	0xbfe04d323fc3475b	-0.5094233746878943
176	0xbfad66964f8fcfc2	-0.057423302852754
177	0xbfc1088d236a08b6	-0.1330734656258465
178	0x3f9b496764541eeb	0.026647201059886532
179	0x3fd134b1444328dc	0.2688410917877613
180	0x3fd20da37d23faaf	0.28208243580585707
181	0x3fb44ad87441ea76	0.07926705206220128
182	0x3fdbdecb28005d74	0.43547324091328865
183	0x3fe36951f9ba0869	0.6066064717745238
184	0x3fd82a89ff47e2fe	0.3775963776566157
185	0xbfdecba867a2b5ff	-0.48118028755820313
186	0xbfc37527cca5896d	-0.1520128010989298
187	0xbfc244f44bb6fda3	-0.1427293176366052
188	0xbfaaee3930ae65e2	-0.052598750298056066
189	0x3fd3c1745481f183	0.3086825204152534
190	0x3fd5886ef59befe8	0.33645223603502794
191	0x3fbee7258b56d681	0.12071451808773227
192	0x3fe88b321b2e65ea	0.7669916659244198
193	0x3fe78989a676cd8b	0.7355392695666735
194	0x3fe8590701a19d0a	0.7608675987111451
195	0xbfb42bb144d423f9	-0.07879169397723719
196	0x3fc6ab3ff49445ef	0.17710112993567814
197	0x3fdbc6a3eff4817b	0.43399904664149574
198	0x3fc87e804203689d	0.19136050437265775
199	0x3fe46f907e50eff7	0.6386187045204669
200	0xbfe3538ca54146ec	-0.603948900951051
201	0xbff5b7ffae5eb9d3	-1.3574215709046384
202	0x3ff4c1da5f1eb15e	1.2973273959751945
203	0x40040b54cc74b82c	2.5055328343505803
204	0x40029edca411fc7d	2.3275692766179064
205	0xc000d62344cec281	-2.1045594573591306
206	0xc000453f8effdb40	-2.0338126346427146
207	0xbfe701a40f40d5fc	-0.7189503000178656
208	0xbffe69f1818a622f	-1.9008650837114478
209	0x40058dcbabf8a0cb	2.694236129307773
210	0x400345ce72cc8f50	2.4090851753880216
211	0x400955ed9e9223bb	3.166957129320932
212	0xc003f3d1aa77ff39	-2.4940522497053306
213	0xc00abb5966a716fd	-3.3414791126004944
214	0xc00ee2bd625a9039	-3.860712784184241
215	0x3ffd2b99b8690798	1.8231446460272078
216	0x3ffc154a6487b482	1.7551978995282131
217	0x3fe3acbc110e335f	0.6148357709040332
218	0x400f378293fbcf90	3.902104526636272
219	0xc0032d62f9ac1bb6	-2.3971614366195935
220	0xbfe2e155fbd640a5	-0.590006820553772
221	0xbff545cd358956bd	-1.329541405798792
222	0x3fff21450a586267	1.945622482691897
223	0x3ffe541940f78804	1.895531896378544
224	0x3ff53dfc9f1ab385	1.3276334967624461
225	0xbfde6ab29b8244f2	-0.47526230989849616
226	0xbfeb3a64fcc8c127	-0.8508782326880792
227	0xbfe8156b3159a9ce	-0.7526145900604264
228	0xc00007217e7b21f8	-2.003481853611671
229	0x3fed284b1f12ba09	0.9111686331651195
230	0xbfe968d3b09dacd9	-0.7940462541131651
231	0xbff55e7cca255d96	-1.3355682274176153
232	0x40016ff6a28cac9f	2.1796696376018896
233	0x4003002d1005da0f	2.3750859500680757
234	0x3ffa0fa672a04097	1.6288208463265954
235	0xbfe20e563a977b00	-0.5642501015061896
236	0xbfe3700aa2bfb19e	-0.6074269465148523
237	0xbfe3cc43bc52c330	-0.6186846426190638
238	0xbfff539a91c888c5	-1.9579110808049773
239	0x3fe9a3a9675e1ff5	0.801228238954535
240	0xbffbaf8bfcf958b5	-1.730358112506605
241	0xbfd7b1b443febdb3	-0.3702212013258432
242	0xbf9fb1188161cbe9	-0.03094900407490889
243	0xbfd3964d8e206f4d	-0.3060487640338934
244	0xbfaa531a38490f17	-0.051415271158957214
245	0x3ff2515ba2165716	1.1448627788099137
246	0x3fe34eae180b1649	0.6033544988246798
247	0x3fec943c989e931e	0.8930953007553375
248	0xbfbbd257bc19d6a3	-0.10867832510288138
249	0xbfc4d75766f07e24	-0.16282169843997096
250	0x3fe72ec6369703bd	0.7244597498139381
251	0x3fb34950febdbd75	0.0753374692846956
252	0x3fd86e2a966fd77e	0.38172402087308643
253	0x3ff22223893ac2cb	1.133334671070929
254	0x3fe9ad7a8c8ec701	0.8024266000049637
255	0xbfdfd035589f1a8e	-0.49708303121989494

layer2 f8 [10, 5]
0	0xbff6671944ee5a4a	-1.4001705830211386
1	0xbfd96058c0f8c364	-0.3965055355538907
2	0x3fcafc64d01133dc	0.21082744750529414
3	0x3ff011b5378407a7	1.0043232124885237
4	0x3fe2a406c3f66d14	0.5825227572817391
5	0xbffa6612417be4ef	-1.6499197538344637
6	0x3ffb1f430b5a79bf	1.6951322978489853
7	0x3fe95121b96aedca	0.7911537763060832
8	0x3fdca67f4bb5df45	0.447662185607886
9	0xbfa272fede01857c	-0.03603359661134228
10	0x3fee67eaa3c94d65	0.950185127158346
11	0xbfedbb7b854d47c0	-0.9291360477020518
12	0xbff4022cc33dce99	-1.2505309702509406
13	0x3fee951f71a0cfba	0.9557034701633633
14	0x3fc7f859093c1740	0.18726647330202617
15	0x3fe573a2d892bd4b	0.670365736956151
16	0xbff92229844a11d2	-1.5708403747131467
17	0xbff9e03cce22aa6e	-1.6172454883732388
18	0x3fdc05b2a409d839	0.43784776706104683
19	0x3fbe24f9cd66292b	0.11775170578599574
20	0x3ff0c2b4696cb232	1.0475353353641705
21	0xbff2d08960de4531	-1.1759122642436746
22	0xbff7de9395dca43c	-1.4918399671535232
23	0x3fd8ca8707a84ad0	0.3873612952021803
24	0x3fe8c77415cd16de	0.7743473459056209
25	0xbf9046ca01f298d3	-0.015895038956522733
26	0x4000e9dca8e3c13f	2.114190406275298
27	0x3fb4715c3effb6f1	0.07985474145945283
28	0xbfc94eec9b2c38b4	-0.19772107674402195
29	0xbfed2c8dea1b85cb	-0.911688763848525
30	0xbfe44f64c0aa83e0	-0.6346915972718499
31	0x3ffadfab0d152d42	1.6796064864200422
32	0xbfea097bedf58033	-0.8136577270161126
33	0x3fbb046c4cfce302	0.10553624038301382
34	0xbfe3bc1767218da7	-0.6167103781012216
35	0xbfc7811793edbb5d	-0.1836270782764257
36	0x3fe7c2a1fb6adc6b	0.7425088797089193
37	0xbffa8ad9e6c77464	-1.658899213295876
38	0xbfd668aa22c20d99	-0.3501382197793759
39	0x3fb79c15646808a7	0.09222539616897284
40	0xbfff492a69718f69	-1.9553627127542887
41	0x4000587bd68ee1f9	2.0432049524645177
42	0xbfe04bf306f0ec53	-0.5092711577957608
43	0xbfca0db6a4922406	-0.20354350124060278
44	0xbfbe4ea0cf44bf26	-0.11838727054850703
45	0x3fe0eeccdcf040e2	0.5291504206852802
46	0xbfeee7da11aaf9c5	-0.9658022255969675
47	0xbfee854d6fd25c1d	-0.9537722763078623
48	0xbf79e9ad298294d5	-0.006326366819995506
49	0x3fe3fc63825170f2	0.6245591683650942
