LF_Fire/results/NovelGridworld-v0_c0_b0_e3.npz (npz, 4590 bytes, 2 tensors)

layer1 f8 [46, 10]
0.23949632748351224 -0.11019614102582916 -0.05787552961812362 -0.17819440994178962 0.137596564437244 -0.32934642627293514 0.2772480427977893 -0.09223539658060881
0.06702994011078002 -0.05669422218301729 0.1955792648458923 -0.313508672964195 -0.04753863957201207 -0.04674694282235023 0.18716148315770365 -0.1921111971671722
-0.025432996836805045 -0.12016143185589519 0.016252511864782555 0.07600097480320749 -0.15842104391347395 0.20833421579900382 0.13293222245221703 0.07394712638433751
0.12282385594987824 -0.07081147042517563 0.0018749238255225606 -0.1338320451435519 -0.0013788960493625116 0.04905682789992188 -0.08737315053323809 -0.04294733259413937
-0.10627534142701642 -0.1426574726132624 -0.09591177363271398 -0.012695642546764007 -0.18227358007430727 -0.008870341677893084 0.23903762594449313 0.13795900335550199
-0.017622286670534212 -0.0869195823795141 -0.12957229334253134 0.22815431906724992 -0.046516265531786345 -0.08778811340573539 0.008195520751456973 0.2785824517744603
-0.02770111271148044 0.021288522679201102 0.034258743507990214 -0.04203403680216331 -0.1684549856085452 -0.0614818142239895 -0.030799774398254882 0.05715133821755756
0.1437007907776756 0.16726862627580663 0.07146806847125826 0.1009908447146063 -0.09123188405025576 0.19470838814706132 0.055628114110414836 -0.05363469665022349
0.07202757116737693 -0.0011458593174786258 0.16685249800397833 0.2539299778087258 0.30921053276155064 -0.23579450158220452 -0.20295552625342858 -0.04505996542254238
-0.006576704960164597 0.10765022009335207 0.016545134137385807 -0.29815730299990234 -0.025147965792366195 0.09238525848468601 0.04222688139613254 0.0825742174395448
-0.0027843803702600253 0.002733491157531291 -0.010871421005915894 0.07277385505263102 0.04913213920734803 0.02485519435884301 -0.08425801909206433 0.027084543187934632
-0.012156862484826968 0.17540438873487102 0.1865468652134657 0.040485591700182025 -0.07014770329627958 -0.1243472365039109 0.03338578567584948 0.02063495943985739
-0.07684349311733199 -0.01580662728808819 -0.12469599079727013 0.09890192731004906 -0.05415494235309225 0.1801360753257974 0.06304273488570503 0.07510104570628763
-0.1614359443532282 0.017326085905576914 0.08091184093949047 -0.16028340561310853 -0.04962282379071186 0.004727360519130199 -0.21445982706992728 0.03700459624328489
0.1247594163090843 -0.1369722168546616 0.04168609779807991 -0.2035625545529489 -0.0057051796708417184 -0.22842655798011113 0.16534131838433025 0.0703418022738868
0.01689530680847933 -0.054336116812802426 0.19759108979630174 0.31938969011898244 -0.27394448059435206 0.19222172653126404 0.22999384544279652 0.030386513419170758
-0.18682158116235578 0.14730705853296805 -0.009998355763564533 -0.03404192073843679 -0.16860907751286494 0.04319503771470437 0.09868574442340192 -0.10121641208927182
0.08890487738177622 -0.21544723505337227 0.12847866376452993 -0.026885500601193858 -0.0871662790737484 -0.005401741884231691 0.10810107358143564 0.097241946651445
0.03592912940802468 0.0256041603448817 0.010332343948888335 0.10957784305716659 0.02807131700597399 0.09496713685840123 -0.043932209481004646 -0.3886222378100031
0.13317370904001016 0.3119778187969129 0.06507563693696945 -0.044285936070965634 -0.010161258023366145 -0.017697584839124904 -0.027403469471338038 -0.1363229047409325
-0.08407768861321618 -0.13423563123117685 0.036686135428763034 -0.03372114796467526 0.073014926317367 0.004195194231913734 0.16541889523625466 0.040669382415995305
0.350221796974271 -0.2958797888177372 -0.10533482157364754 0.15133263413563572 0.3574606822562302 -0.0344480257084624 -0.003558619777660146 -0.015042683758990054
0.1863139158598449 -0.06992107059868097 0.08109303083752943 -0.050748561802012294 -0.1676318093873275 0.04534663949210038 0.09989064599805635 0.20767431632573846
-0.026282748153721766 -0.1067341578178565 0.04851545141039317 0.034040902966066655 -0.009668769597365609 -0.040140966018164026 0.1591227813842575 0.08863720786455752
0.28044024187854083 0.12554159465419448 0.0731770784176056 -0.227257118753485 0.06824205904267114 0.05788234112360058 0.1080407687268406 0.13256490906658813
-0.045703524007665156 0.13191399923180575 -0.07284202313782139 0.28235523250917255 -0.18638779551274776 -0.2595993655247464 -0.2533827452756595 -0.14034227456010046
-0.1849769827545757 0.2611533802100086 -0.06813921379191898 -0.19796713384652204 0.1443070636387829 -0.10647796817593554 -0.18236408131405318 0.14911721492473934
0.09190921816937006 -0.04413156550509104 0.22752782003782404 0.019042789202864802 0.2779762718189056 0.11185601066506903 0.2510434168189225 0.037232894247375435
-0.1839148647141939 0.3809951809221654 -0.061067451550037455 -0.06921161255671382 -0.1332522756623419 -0.034900350471925155 0.04137780115867769 0.056553190394166064
0.11451201589692683 0.26215622060809385 0.01710930891522161 -0.19191927197834693 -0.19193737117661896 -0.1200553844083636 -0.2582049971970158 0.12631442988539066
-0.08723550628531919 -0.061698903770552496 -0.019855575010923394 -0.21044705708528288 -0.17347479223640372 0.10060396417935139 0.06246352869268687 -0.09663287761847436
0.23254342767251568 -0.19273637576732658 -0.060951984830523366 -0.04315755093602407 -0.4018835176658346 0.31564101406363054 0.0639898525516994 -0.15401120913928926
00000000: a0e2 06cf d0a7 ce3f 6df1 d975 d035 bcbf
00000010: 74a4 e585 dca1 adbf 29d7 830d 13cf c6bf
00000020: c463 26a4 c39c c13f 0d64 7908 0314 d5bf
00000030: ad93 2c93 6ebe d13f fce8 d82b bd9c b7bf
00000040: 79ee a0c8 df28 b13f 19e3 4b6c 0607 adbf
00000050: 61f8 24c9 bd08 c93f 5d30 59ae 8610 d4bf
00000060: bc28 840c fc56 a8bf cc4e 381d 37ef a7bf
00000070: 3cd9 9d50 e8f4 c73f 05a3 8386 1997 c8bf
00000080: 8d07 9d86 1b0b 9abf 2dc5 0f4c e6c2 bebf
00000090: 5295 bf9b 7fa4 903f fb6f 3ec5 cc74 b33f
000000a0: 72a3 4d09 2447 c4bf b14c bf11 b2aa ca3f
000000b0: c428 024e ec03 c13f 5633 74e9 32ee b23f
000000c0: f22c 795c 6271 bf3f 9e65 a855 b320 b2bf
000000d0: e0cd d620 00b8 5e3f 5e30 8690 6821 c1bf
000000e0: a02e f15b 8297 56bf 578a f3fe f91d a93f
000000f0: d5b7 1638 165e b6bf 5a70 e259 31fd a5bf
00000100: 76de cc5b dc34 bbbf 8ab5 b39d 9942 c2bf
00000110: e1c9 0d8b ac8d b8bf b309 524c 2c00 8abf
00000120: c407 ac9c bd54 c7bf 2384 491b 9d2a 82bf
00000130: 5af8 f8f0 c898 ce3f 9ee1 ccff a3a8 c13f
00000140: 7c04 b9a3 930b 92bf adb5 b39b 5c40 b6bf
00000150: a6db 2f2d d395 c0bf e0e0 6a25 2934 cd3f
00000160: 81d4 61de fad0 a7bf cc1f 0e24 4879 b6bf
00000170: 6540 cf2c d0c8 803f 6a17 e77d 4bd4 d13f
00000180: db6c a234 ae5d 9cbf 9cd1 bf92 a8cc 953f
00000190: c40f f0ad 5c8a a13f 8daf c43a 7c85 a5bf
000001a0: 93b7 04d7 ee8f c5bf a614 c85a 8b7a afbf
000001b0: 0209 0fdf f989 9fbf ad53 22b1 f042 ad3f
000001c0: 8c54 669a c964 c23f 0c2f c0ef 0e69 c53f
000001d0: fdd6 ca38 bb4b b23f 49a1 3e37 89da b93f
000001e0: 022b 5906 f95a b7bf ba9b ac57 34ec c83f
000001f0: 764d afc5 497b ac3f 8351 16c8 0176 abbf
00000200: 8afe 921e 6670 b23f 003f d712 15c6 52bf
00000210: 4a6c 1733 6c5b c53f 1f66 8a85 6340 d03f
00000220: c088 72f9 1aca d33f e1a3 6fa4 832e cebf
00000230: 5f85 e659 72fa c9bf 2a8a b28b 1912 a7bf
00000240: f972 82cb 2cf0 7abf 4449 b5fe f68e bb3f
00000250: 66ad 1c28 35f1 903f 61ae 5c5e 0215 d3bf
00000260: 987a 8e6a 63c0 99bf ee00 d36f 8fa6 b73f
00000270: 1488 3705 c39e a53f 8448 657b 9523 b53f
00000280: 8c11 28d4 44cf 66bf f01c 04e4 8b64 663f
00000290: 4d9f 736d c143 86bf f973 74af 4ea1 b23f
000002a0: fef9 2706 d927 a93f a9b8 a0db a373 993f
000002b0: d118 6dfc ee91 b5bf a18a e0ec 0cbc 9b3f
000002c0: 8cba 5a76 b2e5 88bf 5677 98a8 a673 c63f
000002d0: 12af a186 c4e0 c73f ba7b 9f08 87ba a43f
000002e0: 4d0a 8c2b 33f5 b1bf c1dc 2172 38d5 bfbf
000002f0: 5f11 4213 f117 a13f c33c cbaf 5421 953f
00000300: 7a6e d9e1 03ac b3bf 92b2 0ccd 9c2f 90bf
00000310: c9a5 6a92 13ec bfbf 0ddb 4eff a251 b93f
00000320: 1e87 a554 32ba abbf e652 2dec b20e c73f
00000330: e2a1 9594 9123 b03f 3933 3477 d239 b33f
00000340: d5af b2da eea9 c4bf 591c 54f1 edbd 913f
00000350: 62bb b16e a3b6 b43f 2d93 99a8 2a84 c4bf
00000360: 37ef a1aa 2968 a9bf c290 372d ff5c 733f
00000370: 8c1b c96b 6b73 cbbf b04b 5535 44f2 a23f
00000380: 8a62 eaac 3bf0 bf3f 66fa ec3b 4e88 c1bf
00000390: 5831 7b55 e157 a53f 7760 3f79 560e cabf
000003a0: 7e44 aa81 505e 77bf 8cfd 07da 143d cdbf
000003b0: 42b1 9181 e729 c53f dbdb 4e9c eb01 b23f
000003c0: 6e10 cbd8 004d 913f 18be 6789 f1d1 abbf
000003d0: 96fb 5332 aa4a c93f 0e66 6f74 e170 d43f
000003e0: 00a3 446e 4e88 d1bf d126 84b6 b89a c83f
000003f0: afa2 3a36 7070 cd3f 80cc 7f65 a41d 9f3f
00000400: 03c1 a302 c5e9 c7bf 363d 6f2b f5da c23f
00000410: 7171 2598 047a 84bf fc7a 8750 f16d a1bf
00000420: 6dfd dc74 fb94 c5bf a414 abf4 a81d a63f
00000430: ce42 e10c 7843 b93f f2eb bd9b 51e9 b9bf
00000440: 3043 cf54 78c2 b63f 98af 4866 c693 cbbf
00000450: a21c 8d25 fd71 c03f 7a5d 4667 df87 9bbf
00000460: df8d ef7d 8750 b6bf 7251 bf0b 2320 76bf
00000470: 82db b10f 83ac bb3f 56d6 aa24 d9e4 b83f
00000480: c9fb 8f87 4d65 a23f ea8d 4a1d fa37 9a3f
00000490: a7de cfba 1f29 853f e2f7 4b24 4b0d bc3f
000004a0: e237 fc31 babe 9c3f 2b68 002b c44f b83f
000004b0: e382 ec55 487e a6bf 691b 79ce 2fdf d8bf
000004c0: 45c6 810a d60b c13f 94d9 33d0 71f7 d33f
000004d0: 9520 6904 cca8 b03f 4ef1 316e a5ac a6bf
000004e0: 9e2f 2cf7 6ccf 84bf 2aae 68d0 501f 92bf
000004f0: 3090 b4b4 a70f 9cbf 7a6d c768 0773 c1bf
00000500: d0c2 ea8a 1d86 b5bf db43 0c17 a22e c1bf
00000510: 182e c46f 86c8 a23f 1c3b 62f7 e543 a1bf
00000520: 2427 a730 1bb1 b23f 8c49 6ce0 fa2e 713f
00000530: 9d0f 9744 722c c53f 15b6 d906 9ed2 a43f
00000540: 4274 16af 086a d63f 9940 21c8 b1ef d2bf
00000550: 8cef c90d 39f7 babf 250d 3725 de5e c33f
00000560: e65d f9c4 a2e0 d63f 11c3 a8ef 2ba3 a1bf
00000570: 06df 0b72 f726 6dbf e9bb 4fd6 b2ce 8ebf
00000580: 7b30 b467 22d9 c73f dccb 85e7 58e6 b1bf
00000590: 1b76 614b 83c2 b43f 6571 842a b7fb a9bf
000005a0: 913f 8b89 f574 c5bf f042 34bb ac37 a73f
000005b0: 4beb bcf1 6e92 b93f 524a 6b6e 1295 ca3f
000005c0: 7cb3 135f dde9 9abf a49c 3105 ee52 bbbf
000005d0: c30e 516a 04d7 a83f a05e ee29 cf6d a13f
000005e0: 78b9 b449 38cd 83bf e843 8e50 5b8d a4bf
000005f0: 5806 0ca3 225e c43f e7ad fc94 edb0 b63f
00000600: 4171 d6a0 bbf2 d13f 01ea a939 bf11 c03f
00000610: 62d5 9ea6 bbbb b23f fd29 6ae2 c216 cdbf
00000620: 12cb ccc3 4f78 b13f 7097 4814 c1a2 ad3f
00000630: d404 5150 8fa8 bb3f 10e4 840e e3f7 c03f
00000640: ea88 d9c9 7366 a7bf 02e7 4ad4 8ee2 c03f
00000650: 57c3 265b c6a5 b2bf cdce 5eae 1b12 d23f
00000660: 98e6 0c27 8edb c7bf c46e 3fa8 469d d0bf
00000670: 1619 1543 6c37 d0bf 62ae bd53 bcf6 c1bf
00000680: cec9 b865 53ad c7bf 517a cfaa bcb6 d03f
00000690: ceba cf4e 9271 b1bf 8ede c6ae fc56 c9bf
000006a0: c986 7463 a778 c23f 6d67 0fdf 2342 bbbf
000006b0: a6be 9aca b457 c7bf 72a9 afdc 4516 c33f
000006c0: 0a06 3dce 5c87 b73f 959c 219d 6998 a6bf
000006d0: 6d0e ffb0 a11f cd3f 3559 67f3 f37f 933f
000006e0: 5cad 21fd 5cca d13f 32e1 aa73 98a2 bc3f
000006f0: 6e41 4768 1811 d03f a37c 419e 3010 a33f
00000700: 970d 99b4 858a c7bf aba2 7f9c 3962 d83f
00000710: d0d3 83a6 3b44 afbf f83b 6f2c dab7 b1bf
00000720: cd2d 0b1b 690e c1bf bbad ca6f 75de a1bf
00000730: ea89 839d 782f a53f 606e 742e 8af4 ac3f
00000740: c0bd 46d3 a850 bd3f 341a 7de2 2ac7 d03f
00000750: b0fd fd48 1a85 913f a13f 4f8a cf90 c8bf
00000760: aeb9 0a5e 6791 c8bf ff1c be1d f3bb bebf
00000770: 41ff a740 6e86 d0bf 1071 af3c 122b c03f
00000780: 81a2 8bee 1055 b6bf 8a82 c9ab ff96 afbf
00000790: 62c1 4215 0555 94bf 0c41 dcdd edef cabf
000007a0: d0f9 aa07 6c34 c6bf 9a8e ff6f 2ec1 b93f
000007b0: dc0e db39 38fb af3f bef7 16a9 eebc b8bf
000007c0: bc68 60a8 fbc3 cd3f 3fca 55e7 95ab c8bf
000007d0: a55f f23a 1935 afbf a6fc b01b bf18 a6bf
000007e0: d346 4ba5 75b8 d9bf 107e 2b5e 7633 d43f
000007f0: e643 fc93 a361 b03f b53e 3ca9 a3b6 c3bf

layer2 f8 [10, 5]
-0.12935781987668718 -0.299404439961277 0.3693719046625555 0.21586400589403731 -0.023524625904022548 -0.02921361040827491 0.13741474297368358 0.5769829792269618
0.2857406472642438 -0.1849821925813222 0.26181574035102106 -0.034886900202033416 -0.04480911782861695 0.6084853075026353 -0.1297320156122901 -0.15719890972860692
-0.5788998288440529 -0.45837728090875013 0.16071076192608358 -0.2781106314857341 0.15924782154852318 -0.2973663641226535 -0.23241251545057498 0.19312691230204124
0.4491201736559264 0.2059706216543795 0.3554489746824478 0.5785838421574117 0.3108057795017551 -0.2870187235408915 -0.0507127244946929 0.18026867625986606
-0.0936425919820591 0.10267361897119878 -0.538526080521441 -0.23367164111880362 0.17595624969242524 -0.6693855592825443 -0.3392506537285182 -0.03349618896650851
-0.5037646130167536 -0.0047442880771030906 -0.20833276953166133 -0.11232413366506012 -0.09023379058485213 0.06865400120150608 -0.15636527828877872 0.05379733729481276
-0.18617904993594694 0.16596697192334847
00000000: e115 ed0a cc8e c0bf dd4b 7a3d 7129 d3bf
00000010: dd8f a50e caa3 d73f 8866 d986 6ea1 cb3f
00000020: 9136 a2eb d616 98bf 6fdd 3435 2cea 9dbf
00000030: 2fb5 8769 ce96 c13f 401c 4402 a576 e23f
00000040: b3d1 c823 9349 d23f e054 bd19 7fad c7bf
00000050: b4ae 98ce 96c1 d03f ac64 da1e b2dc a1bf
00000060: fee5 457f 38f1 a6bf 1440 fa2d b678 e33f
00000070: e943 2606 0f9b c0bf 1328 2008 181f c4bf
00000080: 5172 11ef 5886 e2bf 11e1 aea9 0d56 ddbf
00000090: 143c 4b95 2b92 c43f 36ac b988 90cc d1bf
000000a0: a24c c18c 3b62 c43f 1695 35ee 0c08 d3bf
000000b0: c949 857c b1bf cdbf fb48 28f6 61b8 c83f
000000c0: eadd 748a 62be dc3f e79e f8cd 3e5d ca3f
000000d0: 231a 6a0e adbf d63f 6aec 0143 c283 e23f
000000e0: 738a 97ec 3de4 d33f a9a8 bcc7 835e d2bf
000000f0: 323b 64aa 04f7 a9bf 4bc1 8342 0b13 c73f
00000100: 8c5b 13fe f5f8 b7bf f2ac a47b d148 ba3f
00000110: af3e fc0b 9b3b e1bf 02d0 4dcc f3e8 cdbf
00000120: e256 fa00 bc85 c63f f30f b143 9b6b e5bf
00000130: 5f47 ba5f 48b6 d5bf 6eb7 4d98 6926 a1bf
00000140: eb3f 39f7 d61e e0bf c4b3 2422 bf6e 73bf
00000150: 6b6b e9ef a5aa cabf 6999 a440 46c1 bcbf
00000160: 7759 8ecb 8f19 b7bf 4667 e601 4f93 b13f
00000170: 9e78 3d06 c703 c4bf 7411 9618 538b ab3f
00000180: 5d6e 5611 b7d4 c7bf 4e3f 50de 673e c53f
