HF_wo_Fire/AC/results/NovelGridworld-v0_c0_b0_e3.pt (torch_old, 9143 bytes, 7 tensors)

weight f4 [10, 83]
000000 c0 7e 4b 3b 0d 7a 54 bd 30 28 31 bc 56 72 8d bd
       0.003105089 -0.05187421 -0.010812804 -0.069065735
000010 98 cc 63 bc b9 7c 9d bd c8 11 3d 3d f0 5e 67 3c
       -0.013903759 -0.076898046 0.046159536 0.014121756
000020 8a 43 80 bd 80 3b 08 3d d8 4f 24 3d 74 db 5d 3d
       -0.06262882 0.03325987 0.040115207 0.054164365
000030 58 a1 1f 3c 60 4d 01 bc 7d 43 53 bd 84 9e 22 3d
       0.009743057 -0.007891983 -0.051578034 0.039701954
000040 24 a8 b9 bc 6c 49 9f bd 02 02 a3 3d a8 50 ae bd
       -0.022663184 -0.07777676 0.07959367 -0.08511478
000050 60 bd 03 bd e8 ce fd 3c 3e 71 05 bd bc 71 cf bc
       -0.032163024 0.03098245 -0.0325787 -0.025322787
000060 c4 c0 b6 bd 38 c8 82 3c f0 b7 a5 bc 88 b5 ce 3c
       -0.08923486 0.015964612 -0.02022931 0.025233045
000070 2a b2 b4 bd 40 f3 1a 3d 38 70 ce 3c 2c 81 1f 3d
       -0.088230446 0.037829638 0.025199994 0.038941547
000080 98 a4 c6 3c 71 84 a2 bd 6c da 55 3d 90 af 6c bd
       0.024248406 -0.079354174 0.052210256 -0.057784617
000090 a0 96 f4 3c 40 58 34 bd 4e a5 a5 bd b0 ac 63 3d
       0.02985698 -0.044029474 -0.0808817 0.05558461
0000a0 c8 fe 47 bc 08 91 dd 3d 90 2a 3d bc 5c b7 b3 bd
       -0.012206741 0.10818678 -0.011545792 -0.087752074
0000b0 68 b8 e3 bc 4a f2 bf 3d f8 6f e0 3d d4 90 a1 bc
       -0.027797893 0.09372385 0.10958856 -0.01972238
0000c0 20 9b 7a 3d b6 4d 9a 3d c0 70 96 bb 2b 6b 7d bd
       0.061183095 0.075343534 -0.0045910776 -0.06186978
0000d0 aa 55 41 bd a8 4d 0c 3d 96 94 b6 bd 75 02 b6 bd
       -0.047200836 0.034253746 -0.08915059 -0.088871874
0000e0 24 77 66 3d e6 54 b6 bd 20 19 21 3c a4 d4 23 3d
       0.056265965 -0.08902912 0.00983265 0.03999771
0000f0 b8 eb 99 3c 78 98 84 3c 38 96 7e bc e4 fd fa bc
       0.018789157 0.016185984 -0.015538745 -0.030638643
000100 18 0c 77 3d 48 38 96 3d 0c 7c 4e 3d 72 d1 87 bd
       0.060314268 0.073349535 0.05041127 -0.066317454
000110 68 0a 9d 3d e4 49 9c 3d 20 ab 67 3c f0 63 09 bd
       0.076680005 0.07631281 0.0141399205 -0.033542573
000120 90 79 8f 3d 48 d2 2b 3c f0 c9 fb 3c c8 43 41 3d
       0.07005608 0.010487147 0.03073594 0.04718378
000130 00 e8 81 3d 34 b5 6f 3d cc c0 3f 3d de d5 ce 3d
       0.063430786 0.05852242 0.046814725 0.10099386
000140 a0 9d 65 3b 14 bc b2 bd e0 4a e9 bb ff 2e a0 bd
       0.0035036579 -0.08727279 -0.0071195215 -0.07821464
000150 68 7d b4 3c 82 52 8a bd e0 b7 d2 3b a5 62 4d bd
       0.022032455 -0.06754018 0.006430611 -0.050142903
000160 4a 7d 99 3d d0 b2 ab bd e0 2d 92 3d b6 69 91 bd
       0.074946 -0.08383715 0.07137656 -0.07100241
000170 38 d3 98 bc 42 58 da 3d 90 94 31 3d b8 32 29 3d
       -0.018655404 0.10661365 0.04335457 0.041308135
000180 a0 56 b8 bb 6c 79 53 bd 58 4c 1f bd f0 b9 d4 3c
       -0.005625561 -0.05162947 -0.038891166 0.025967568
000190 40 3d d6 bb 0e 07 ca 3d 80 39 e9 3b b8 7d 93 3d
       -0.0065380633 0.09864627 0.0071174502 0.07201713
0001a0 38 5d 7d 3d 40 d5 3e bd 00 1a b1 3b c0 54 97 3b
       0.06185648 -0.04659009 0.005404711 0.0046182573
0001b0 d6 58 b4 3d 80 7a 1c 3b a8 63 e3 3c 28 9f 5e 3c
       0.088060066 0.0023876727 0.02775748 0.0135877505
0001c0 00 a7 71 3d 04 ce 3d 3d c4 7e c7 3d 18 0b d6 3d
       0.058997154 0.04633905 0.097409755 0.10451335
0001d0 3e 0f 95 3d 80 3d 79 ba 10 11 b5 3c 08 05 0b bd
       0.07278298 -0.00095077604 0.022102863 -0.033940345
0001e0 5a f0 3a bd de a4 89 3d 40 48 df 3d b4 c5 87 bd
       -0.045639373 0.06720899 0.109024525 -0.06629506
0001f0 a6 e3 82 3d 00 93 8e 3d a5 6d 7a bd a8 2e 4e bd
       0.06391077 0.06961632 -0.06113972 -0.050337464
000200 c6 e7 88 3d ec 1d ad 3d 9c 84 b3 3d 0c 78 19 3d
       0.06684832 0.08452973 0.087655276 0.037468
000210 00 b1 e0 3c bb bc 61 bd 74 74 be 3d 1c b8 53 3d
       0.02742815 -0.055111628 0.092995554 0.051689252
000220 70 c7 9e 3c c1 32 bf bd e8 2b 11 3d 7e f0 ab bd
       0.019382209 -0.093358524 0.035442263 -0.083954796
000230 64 23 de 3d c0 48 8b 3c 10 1c 56 bc 30 0f 8b bd
       0.10846594 0.017002463 -0.013068214 -0.06790006
000240 e7 f9 82 bd d7 f1 a1 bd 30 dd 32 bd e1 fd ad bd
       -0.06395321 -0.079074554 -0.043667972 -0.08495689
000250 80 c6 4a 3d c4 05 29 3d d0 4d 86 bd 88 cd 4b 3c
       0.04950571 0.041265264 -0.0655781 0.012439139
000260 f4 b9 bb 3d 78 92 88 bd 20 63 d7 3d 41 0b 56 bd
       0.09166327 -0.06668562 0.105169535 -0.052256826
000270 d0 a7 a8 3c 3c d9 6d 3d b8 59 42 bc b4 25 9a 3d
       0.020587832 0.0580685 -0.011862211 0.075267226
000280 88 3b 01 3d 50 05 ab bc b4 ee a4 3d 56 fc 7a bd
       0.031550914 -0.020876557 0.080533415 -0.061275803
000290 3e 11 a4 3d 1a c4 d1 3d 6c 8f 70 3d e8 8e c1 bc
       0.08011101 0.102424815 0.058730528 -0.023627713
0002a0 30 07 7c bd 5e f1 d7 3d f4 e6 88 bd 2a 16 97 bd
       -0.061530292 0.10544084 -0.06684676 -0.07377274
0002b0 65 c5 d3 bd 32 3b d9 3d ea 38 84 bd 40 e6 e6 ba
       -0.103403844 0.10606994 -0.06456168 -0.0017616227
0002c0 e2 b2 bd 3d c0 52 95 3d 2c 97 75 3d 84 0c c0 bc
       0.09262635 0.07291174 0.05995862 -0.023443468
0002d0 e0 5e 4f 3b 98 b6 fb 3c ae 7d b7 bd 78 bd 91 3d
       0.0031642243 0.030726716 -0.089595184 0.071162164
0002e0 f5 34 a6 bd f0 13 c2 bc e8 93 1b bc b0 d8 8b 3b
       -0.081155695 -0.023691148 -0.009495713 0.0042677745
0002f0 b0 57 de 3c 07 80 d4 bd 00 85 a0 3c 5c d3 88 bd
       0.027141422 -0.10375982 0.01959467 -0.066809386
000300 85 65 75 bd d0 e1 fe 3b 96 89 de bd 60 11 e0 bb
       -0.05991127 0.007778384 -0.10866086 -0.0068380088
000310 e6 4f 99 bd 70 f4 f3 bc f2 28 d3 3d be 96 b2 3d
       -0.074859425 -0.029779643 0.10310544 0.08720158
000320 38 66 04 3d 44 db b8 bc 1a 8d a7 3d 00 94 55 bc
       0.032324046 -0.022565491 0.0818121 -0.013035774
000330 82 c7 8c 3d 73 4a d4 bd d4 ee 88 bd a4 96 25 bd
       0.068739906 -0.103657626 -0.06686178 -0.040426865
000340 0e 27 a2 3d 80 17 9a bc 68 06 98 bc 94 3a 05 3d
       0.07917605 -0.018810034 -0.018557742 0.032526568
000350 c0 7c ef 3b 60 40 8b 3c b4 d1 1f 3d ba 3e d2 3d
       0.0073085725 0.01699847 0.039018348 0.102658704
000360 c8 b9 e4 3c 60 b6 56 3c 72 7b c5 3d 48 12 b7 3c
       0.027920619 0.013105005 0.09642686 0.022347584
000370 1a 5f a6 bd 30 fd c1 3c 3c af af bd 40 7d 82 bd
       -0.08123608 0.0236803 -0.08578345 -0.06371546
000380 aa 1b ae 3d 18 2f 0b 3d 92 24 b5 3d 20 b3 f8 3c
       0.0850137 0.03398046 0.08844866 0.030358851
000390 e4 da 68 3d 98 3a 86 3c bc fb 27 bd dc 8c 81 3d
       0.056849375 0.016385362 -0.041011557 0.06325695
0003a0 c0 6a 63 bb e0 54 3e 3d 1c e7 5d 3d a9 1d 64 bd
       -0.003470108 0.04646766 0.05417548 -0.05569235
0003b0 76 63 b5 bd d8 0f 58 bc 6e 86 df bd 68 09 ac bc
       -0.08856861 -0.013187371 -0.10914312 -0.021000579
0003c0 5c e0 7a bd 60 8a 17 3d c0 9f 58 bc 20 a2 3d 3b
       -0.061249122 0.0369972 -0.013221681 0.0028935745
0003d0 24 77 89 3d 24 c7 b1 3d 98 5f 49 bc 20 cd db bb
       0.067121774 0.08680561 -0.012290858 -0.0067078024
0003e0 40 09 b3 bb 20 b7 ce 3d 00 3d e9 3c 24 49 9f 3d
       -0.005463749 0.10093522 0.02847147 0.07777622
0003f0 c0 49 98 bb f6 64 aa 3d c8 8c 6d 3d 30 e7 58 bd
       -0.0046474636 0.08320038 0.057995588 -0.052954853

bias f4 [10]
000000 28 64 6b bd e4 89 0c 3d 8d 2f 9d bd d0 cf 56 bd
       -0.057468563 0.03431119 -0.07675085 -0.05244428
000010 b8 58 a5 3d 0e 76 d1 3d 88 e5 38 3d b0 a3 41 3d
       0.080735624 0.10227595 0.045140773 0.047275245
000020 aa 6a bc bd ac 79 e1 bc
       -0.09200032 -0.027523838

weight f4 [1, 10]
000000 db af 10 be c6 48 77 3e ca 5d 82 be c0 f4 53 bc
       -0.14129584 0.24148855 -0.2546218 -0.012936771
000010 24 48 1e be 7c 71 a0 3d e9 af 0f be c0 ba 8e 3c
       -0.15457207 0.078341454 -0.14031948 0.017423034
000020 59 8d 8d 3e 8a cd 19 3e
       0.27646902 0.15019813

weight f4 [10, 83]
000000 07 af f4 3d e4 b9 20 3f 6a 68 3a bf 05 40 27 c0
       0.11947446 0.62783647 -0.72815573 -2.6132824
000010 7d 14 48 bd 30 6c 9f 3e 03 9c 45 bf a7 06 f2 bf
       -0.048847664 0.31137228 -0.7719118 -1.890828
000020 60 64 36 be 20 9b bd 3e 12 6e 89 be b2 56 39 bf
       -0.17811728 0.37032413 -0.2684179 -0.7239791
000030 d5 88 c0 3d 2d 5d 84 3d 7d 07 99 be a7 0b 1c bf
       0.09401099 0.06463084 -0.29888526 -0.6095528
000040 c4 6b a4 bb 02 15 35 be 83 f5 52 be 61 d5 b7 be
       -0.0050177295 -0.17683795 -0.20601468 -0.35904983
000050 7e a0 3c 3d 5a 02 b0 bd 2f ae 47 3d 5c 62 80 be
       0.046051495 -0.085941985 0.0487501 -0.25075042
000060 b6 68 1a bd 4f 92 23 be 05 66 28 3d 78 95 53 be
       -0.037697516 -0.15973781 0.04111292 -0.20662487
000070 69 05 9e bd 13 64 13 be 75 63 81 3d c6 3d 6b be
       -0.07715876 -0.14393644 0.06317798 -0.22972783
000080 08 dd 80 bd d2 0d 64 be d1 ee 1a be dd 04 eb bd
       -0.06292158 -0.22270897 -0.15130164 -0.11475537
000090 63 60 8a bd 41 02 b0 bd 56 94 5b bd f7 8d f6 bd
       -0.067566656 -0.0859418 -0.05360826 -0.120387964
0000a0 1c 41 15 be ce 2e e0 3c e0 35 90 bd 7d dd 8c be
       -0.14575619 0.027366068 -0.07041526 -0.27512732
0000b0 cd e8 97 bd b1 35 10 be e2 64 b2 bd 0e 84 87 be
       -0.0741745 -0.14082982 -0.08710648 -0.26467937
0000c0 af d3 f0 bd be cc 81 be ce a5 01 be 92 97 ad be
       -0.117591254 -0.25351518 -0.12660906 -0.339047
0000d0 12 81 d5 bd 7e 5f e2 bc e0 50 4e be a3 45 40 bd
       -0.10425009 -0.027633425 -0.20148039 -0.04694141
0000e0 83 05 bb 3b 50 43 e6 bc d7 02 4b be 33 a4 86 be
       0.005707444 -0.028108269 -0.19825302 -0.2629715
0000f0 82 60 5b be aa 79 55 be 32 dd cd 3d f1 b1 da 3b
       -0.21423534 -0.20847192 0.10051955 0.0066740443
000100 da 89 a7 bd b9 7a 51 be 23 18 0e be ff e5 93 3d
       -0.0818059 -0.20456971 -0.13876395 0.07221603
000110 ea b8 92 bd 0f 87 df bd 09 8e 0f be 5f 31 83 be
       -0.07164176 -0.10914432 -0.14019026 -0.25623605
000120 e5 e0 16 bb b6 f9 8d 3e fa 32 84 bd 02 d4 b5 be
       -0.0023022231 0.27729577 -0.064550355 -0.35513312
000130 a1 f8 c5 bb 56 6d 16 3f 8f fe ca be 1b 1b bc bf
       -0.0060416018 0.58760583 -0.39647338 -1.4695772
000140 5c 74 e1 3e f9 ab 12 3e 00 f1 24 3c 12 f1 ac 3e
       0.44034088 0.14323415 0.0100672245 0.33777672
000150 fd 73 05 bf 92 06 51 be e3 e0 e2 3d 4b c2 79 3e
       -0.5213011 -0.20412663 0.1107805 0.24390523
000160 dd 8b c3 be 58 5d 2c be fc 75 2b 3e e1 af 3d 3d
       -0.38192645 -0.16832483 0.16744226 0.04631031
000170 81 0e 53 3d 26 b9 6c 3d 28 82 f8 3d 30 c1 6d 3e
       0.051527504 0.05779376 0.121342 0.23218226
000180 2c 00 de be 3e 99 bc be 1c 53 02 3e 2b 67 89 3e
       -0.43359506 -0.36835665 0.12727016 0.26836523
000190 04 9e e7 be 51 15 09 bf ad ba 8d 3d 8d bc 02 3e
       -0.45237744 -0.5354815 0.06920371 0.12767239
0001a0 b6 06 9b be ab 91 c6 be 54 70 6b be 47 f7 73 3e
       -0.30278558 -0.3878301 -0.22992069 0.23824798
0001b0 be ae c7 be 68 3f 4b be e0 ee 5e bb 48 c7 4f 3e
       -0.39000505 -0.19848406 -0.0034016892 0.20290864
0001c0 12 66 84 be 0e 5a 4e be 53 25 5b be c5 f3 86 3e
       -0.25859123 -0.2015154 -0.21400957 0.26357856
0001d0 23 33 e9 be f8 16 79 be a6 ce b1 bc fe 5a 11 3e
       -0.45546827 -0.24325168 -0.021704983 0.14194867
0001e0 15 9a 98 be 2d 98 15 be 41 bf f5 bb c6 0c 86 3e
       -0.29805055 -0.14608832 -0.007499606 0.2618162
0001f0 fd e3 3d be c4 b3 6d bc b5 a1 7a 3d 3b 8f fd 3d
       -0.18544002 -0.0145081915 0.061189372 0.12380835
000200 f9 1b 68 bc 24 90 5e bd c8 be ea bd c2 85 41 3e
       -0.014166825 -0.054336682 -0.1146217 0.18898681
000210 8d 30 cf 3b a1 8c d1 bd 22 90 9d be 52 5f a4 3e
       0.0063229264 -0.10231901 -0.30774027 0.32103974
000220 fd 8a 71 3d a1 4c a2 be 5d 18 63 bd e7 e9 a5 3e
       0.05897044 -0.31699088 -0.055443157 0.32405016
000230 85 3d 60 be 1f 16 23 be 0f f4 55 be 73 4e 8a 3d
       -0.21898468 -0.15926407 -0.20893882 0.06753244
000240 0b 19 1a 3c 19 b2 02 bd 74 08 a6 3d c9 32 6d 3e
       0.009405385 -0.03190813 0.08107081 0.23163904
000250 b0 8f 34 bd 94 c5 63 be d3 9c ef bc be 68 c1 3e
       -0.044082344 -0.22243339 -0.029249584 0.37775224
000260 5b 00 62 be e6 84 af be c2 56 bd bd e0 d0 97 3e
       -0.22070448 -0.3428108 -0.09245063 0.29651546
000270 2e aa 4b be b7 40 4a bd 90 3a 35 3e c3 b9 4d 3d
       -0.19889137 -0.049378123 0.17698121 0.050225984
000280 4e 2c 8e bd 1b bd f1 bd 2b ed bd 3e 5d 98 31 be
       -0.06942044 -0.11803647 0.37095007 -0.17343278
000290 81 31 b2 be 08 41 08 3d ea eb d4 be 86 d6 af 3e
       -0.34803393 0.033265144 -0.41586238 0.34343356
0002a0 01 0d e9 3e d2 8f eb 3e 0d 1f 7a be 46 4d ba 3d
       0.45517734 0.46008164 -0.24425907 0.0909677
0002b0 cb dd 72 3e 4b a2 02 3f 9e 55 c9 bd 60 60 8c 3e
       0.2371742 0.5102889 -0.09830783 0.27417278
0002c0 db 0e 69 3e 61 61 dd 3e 8d 86 d8 bd 1e 32 b1 3e
       0.22759573 0.43238357 -0.105725385 0.3460855
0002d0 49 a8 d5 3e 50 0c 62 3d 53 bd 2c 3d 56 3f fc 3e
       0.41729954 0.055187523 0.04217274 0.4926707
0002e0 77 04 5b 3e fe 8d bc 3d ea b9 ed bd d8 ec d3 3e
       0.21388422 0.0920677 -0.11607726 0.41391635
0002f0 52 0c f3 3e ba c4 32 3e a9 06 6e 3d 5f cc b1 3e
       0.47470337 0.17457858 0.05811182 0.34726235
000300 52 b6 9e 3e 8d b7 05 3e 2c 14 1a be 92 42 60 3e
       0.30998474 0.130583 -0.15046757 0.21900395
000310 c9 a3 b8 3e 9b 28 b6 3d 5b c9 ff bc 33 88 9d 3e
       0.36062458 0.08894464 -0.031223943 0.30767974
000320 60 bf 89 3e da 70 62 be 1c 3f 01 3b fa 80 d6 3e
       0.2690382 -0.22113362 0.0019721454 0.41895276
000330 91 0c dd 3e 02 dc 62 3c e8 14 5e bd 8f e5 99 3d
       0.4317365 0.013846399 -0.054219157 0.07514488
000340 da 36 23 3e 24 99 1f be 1f 4f 3e be 1e fd 16 3e
       0.15938893 -0.15585762 -0.1858487 0.14744994
000350 d5 98 c2 bb 55 e9 a2 bd d7 d6 a8 be d0 48 99 3e
       -0.005938629 -0.07954661 -0.3297641 0.29938364
000360 16 6e df 3d 2e af 1b bd 48 59 a0 be 61 fb b4 3d
       0.10909669 -0.03800886 -0.31318116 0.08837009
000370 63 29 ac 3e 1e 24 7c 3d 20 cb 58 be 79 0c 76 3e
       0.33625326 0.06155788 -0.21171236 0.24028195
000380 9e a7 a8 3e fd 47 df bd ec 85 1d 3d c1 87 04 3e
       0.32940382 -0.109024025 0.038457796 0.12942411
000390 da 98 7a 3d fe d3 3d be 02 98 19 be 49 3e bc 3e
       0.061180927 -0.185379 -0.14999393 0.3676627
0003a0 c5 b9 85 3d cb da ca 3c 0c fd bc bc e5 6b a3 3e
       0.06529573 0.024762532 -0.02306988 0.31918254
0003b0 de e9 23 3e 23 56 f4 bd 32 9c a4 be d9 57 8e 3e
       0.16007182 -0.11930492 -0.32150418 0.27801397
0003c0 3b 32 4c 3e 46 d9 81 3e ad 45 74 be 4a 27 70 3e
       0.19941036 0.2536108 -0.23854704 0.23452488
0003d0 9c 95 8b 3e 88 03 d7 3e 33 fc 00 3e 6a 51 63 3e
       0.2726258 0.41994882 0.12596206 0.22199026
0003e0 09 4a ba bd e3 c3 38 3f 42 5b e8 be a2 8f af bf
       -0.09096152 0.721739 -0.45382124 -1.3715708
0003f0 5e 4b f6 bf ba bb fc 3e 53 15 d6 be e1 fc 47 bf
       -1.924175 0.49361974 -0.41813144 -0.7812024

bias f4 [10]
000000 27 83 dd bd 30 52 01 3b 64 c4 ab 3d ec 09 82 bd
       -0.10816031 0.0019732825 0.08387068 -0.06349549
000010 af 61 e7 bd 33 f3 81 3e 3d aa 1b 3a ac dd fb 3d
       -0.112979285 0.2538086 0.0005938148 0.1229814
000020 2b dc 82 3e c7 7f 09 bd
       0.255586 -0.033569124

weight f4 [5, 10]
000000 ae a7 46 3f b3 b8 ad 3e bb d3 16 3e 6c 86 2c 3f
       0.7759961 0.33929977 0.14729206 0.6739261
000010 85 6d 92 3f 49 44 02 3e e0 8e b0 be c1 f7 d3 bd
       1.1439673 0.12721361 -0.34484005 -0.1034999
000020 7c 84 93 be ec 71 59 3e fd a0 77 bf c1 18 c9 bf
       -0.28812015 0.21234864 -0.96730024 -1.5710679
000030 94 60 db be 3c fd 25 c0 c3 4d a3 bf 76 8c a0 bf
       -0.4284712 -2.5935812 -1.2758106 -1.2542865
000040 7b 29 23 bf fa 97 71 bf 0f f7 66 bf b0 62 40 bf
       -0.6373517 -0.9437252 -0.9022073 -0.75150585
000050 fc f7 6a bf 24 82 4b 3e 60 26 b3 be 39 23 64 bf
       -0.91784644 0.19873863 -0.34990215 -0.89116246
000060 6e 44 ec bf b9 44 11 3f d0 19 01 bd f2 62 24 be
       -1.8458383 0.5674549 -0.031518757 -0.1605337
000070 3f 25 1d 3f 93 33 9a 3e ab dc 20 3e 98 d7 d7 be
       0.6138496 0.30117473 0.15709178 -0.42156672
000080 09 d8 f1 3e d2 27 c0 3e 0a b1 02 3d 31 fc d4 be
       0.47235134 0.3753038 0.03190712 -0.41598657
000090 64 44 2f bf 5f 8e 5b 3e a2 8e b8 3e ac 13 09 3f
       -0.6846373 0.21441029 0.3604632 0.5354564
0000a0 36 b2 60 be 0f e8 03 bd da 85 3a 3d b7 9f a6 bc
       -0.21942982 -0.03220373 0.045537807 -0.02033983
0000b0 c6 cc 07 3e 56 e2 13 3c 9b 80 1c 3f 1d de 03 bf
       0.13261709 0.009026131 0.61133736 -0.5151079
0000c0 5c cd 4d bf c6 52 2c bf
       -0.8039148 -0.673138

bias f4 [5]
000000 b1 cf e7 3c 59 18 00 bf 14 88 f7 3e d7 d4 55 be
       0.028297277 -0.5003715 0.48346007 -0.20881973
000010 06 54 65 3d
       0.055988334
