HF_wo_Fire/AC/results/NovelGridworld-v0_c0_b0_e0.pt (torch_old, 9143 bytes, 7 tensors)

weight f4 [10, 83]
0.003105089 -0.05187421 -0.010812804 -0.069065735 -0.013903759 -0.076898046 0.046159536 0.014121756
-0.06262882 0.03325987 0.040115207 0.054164365 0.009743057 -0.007891983 -0.051578034 0.039701954
-0.022663184 -0.07777676 0.07959367 -0.08511478 -0.032163024 0.03098245 -0.0325787 -0.025322787
-0.08923486 0.015964612 -0.02022931 0.025233045 -0.088230446 0.037829638 0.025199994 0.038941547
0.024248406 -0.079354174 0.052210256 -0.057784617 0.02985698 -0.044029474 -0.0808817 0.05558461
-0.012206741 0.10818678 -0.011545792 -0.087752074 -0.027797893 0.09372385 0.10958856 -0.01972238
0.061183095 0.075343534 -0.0045910776 -0.06186978 -0.047200836 0.034253746 -0.08915059 -0.088871874
0.056265965 -0.08902912 0.00983265 0.03999771 0.018789157 0.016185984 -0.015538745 -0.030638643
0.060314268 0.073349535 0.05041127 -0.066317454 0.076680005 0.07631281 0.0141399205 -0.033542573
0.07005608 0.010487147 0.03073594 0.04718378 0.063430786 0.05852242 0.046814725 0.10099386
0.0035036579 -0.08727279 -0.0071195215 -0.07821464 0.022032455 -0.06754018 0.006430611 -0.050142903
0.074946 -0.08383715 0.07137656 -0.07100241 -0.018655404 0.10661365 0.04335457 0.041308135
-0.005625561 -0.05162947 -0.038891166 0.025967568 -0.0065380633 0.09864627 0.0071174502 0.07201713
0.06185648 -0.04659009 0.005404711 0.0046182573 0.088060066 0.0023876727 0.02775748 0.0135877505
0.058997154 0.04633905 0.097409755 0.10451335 0.07278298 -0.00095077604 0.022102863 -0.033940345
-0.045639373 0.06720899 0.109024525 -0.06629506 0.06391077 0.06961632 -0.06113972 -0.050337464
0.06684832 0.08452973 0.087655276 0.037468 0.02742815 -0.055111628 0.092995554 0.051689252
0.019382209 -0.093358524 0.035442263 -0.083954796 0.10846594 0.017002463 -0.013068214 -0.06790006
-0.06395321 -0.079074554 -0.043667972 -0.08495689 0.04950571 0.041265264 -0.0655781 0.012439139
0.09166327 -0.06668562 0.105169535 -0.052256826 0.020587832 0.0580685 -0.011862211 0.075267226
0.031550914 -0.020876557 0.080533415 -0.061275803 0.08011101 0.102424815 0.058730528 -0.023627713
-0.061530292 0.10544084 -0.06684676 -0.07377274 -0.103403844 0.10606994 -0.06456168 -0.0017616227
0.09262635 0.07291174 0.05995862 -0.023443468 0.0031642243 0.030726716 -0.089595184 0.071162164
-0.081155695 -0.023691148 -0.009495713 0.0042677745 0.027141422 -0.10375982 0.01959467 -0.066809386
-0.05991127 0.007778384 -0.10866086 -0.0068380088 -0.074859425 -0.029779643 0.10310544 0.08720158
0.032324046 -0.022565491 0.0818121 -0.013035774 0.068739906 -0.103657626 -0.06686178 -0.040426865
0.07917605 -0.018810034 -0.018557742 0.032526568 0.0073085725 0.01699847 0.039018348 0.102658704
0.027920619 0.013105005 0.09642686 0.022347584 -0.08123608 0.0236803 -0.08578345 -0.06371546
0.0850137 0.03398046 0.08844866 0.030358851 0.056849375 0.016385362 -0.041011557 0.06325695
-0.003470108 0.04646766 0.05417548 -0.05569235 -0.08856861 -0.013187371 -0.10914312 -0.021000579
-0.061249122 0.0369972 -0.013221681 0.0028935745 0.067121774 0.08680561 -0.012290858 -0.0067078024
-0.005463749 0.10093522 0.02847147 0.07777622 -0.0046474636 0.08320038 0.057995588 -0.052954853
00000000: c07e 4b3b 0d7a 54bd 3028 31bc 5672 8dbd
00000010: 98cc 63bc b97c 9dbd c811 3d3d f05e 673c
00000020: 8a43 80bd 803b 083d d84f 243d 74db 5d3d
00000030: 58a1 1f3c 604d 01bc 7d43 53bd 849e 223d
00000040: 24a8 b9bc 6c49 9fbd 0202 a33d a850 aebd
00000050: 60bd 03bd e8ce fd3c 3e71 05bd bc71 cfbc
00000060: c4c0 b6bd 38c8 823c f0b7 a5bc 88b5 ce3c
00000070: 2ab2 b4bd 40f3 1a3d 3870 ce3c 2c81 1f3d
00000080: 98a4 c63c 7184 a2bd 6cda 553d 90af 6cbd
00000090: a096 f43c 4058 34bd 4ea5 a5bd b0ac 633d
000000a0: c8fe 47bc 0891 dd3d 902a 3dbc 5cb7 b3bd
000000b0: 68b8 e3bc 4af2 bf3d f86f e03d d490 a1bc
000000c0: 209b 7a3d b64d 9a3d c070 96bb 2b6b 7dbd
000000d0: aa55 41bd a84d 0c3d 9694 b6bd 7502 b6bd
000000e0: 2477 663d e654 b6bd 2019 213c a4d4 233d
000000f0: b8eb 993c 7898 843c 3896 7ebc e4fd fabc
00000100: 180c 773d 4838 963d 0c7c 4e3d 72d1 87bd
00000110: 680a 9d3d e449 9c3d 20ab 673c f063 09bd
00000120: 9079 8f3d 48d2 2b3c f0c9 fb3c c843 413d
00000130: 00e8 813d 34b5 6f3d ccc0 3f3d ded5 ce3d
00000140: a09d 653b 14bc b2bd e04a e9bb ff2e a0bd
00000150: 687d b43c 8252 8abd e0b7 d23b a562 4dbd
00000160: 4a7d 993d d0b2 abbd e02d 923d b669 91bd
00000170: 38d3 98bc 4258 da3d 9094 313d b832 293d
00000180: a056 b8bb 6c79 53bd 584c 1fbd f0b9 d43c
00000190: 403d d6bb 0e07 ca3d 8039 e93b b87d 933d
000001a0: 385d 7d3d 40d5 3ebd 001a b13b c054 973b
000001b0: d658 b43d 807a 1c3b a863 e33c 289f 5e3c
000001c0: 00a7 713d 04ce 3d3d c47e c73d 180b d63d
000001d0: 3e0f 953d 803d 79ba 1011 b53c 0805 0bbd
000001e0: 5af0 3abd dea4 893d 4048 df3d b4c5 87bd
000001f0: a6e3 823d 0093 8e3d a56d 7abd a82e 4ebd
00000200: c6e7 883d ec1d ad3d 9c84 b33d 0c78 193d
00000210: 00b1 e03c bbbc 61bd 7474 be3d 1cb8 533d
00000220: 70c7 9e3c c132 bfbd e82b 113d 7ef0 abbd
00000230: 6423 de3d c048 8b3c 101c 56bc 300f 8bbd
00000240: e7f9 82bd d7f1 a1bd 30dd 32bd e1fd adbd
00000250: 80c6 4a3d c405 293d d04d 86bd 88cd 4b3c
00000260: f4b9 bb3d 7892 88bd 2063 d73d 410b 56bd
00000270: d0a7 a83c 3cd9 6d3d b859 42bc b425 9a3d
00000280: 883b 013d 5005 abbc b4ee a43d 56fc 7abd
00000290: 3e11 a43d 1ac4 d13d 6c8f 703d e88e c1bc
000002a0: 3007 7cbd 5ef1 d73d f4e6 88bd 2a16 97bd
000002b0: 65c5 d3bd 323b d93d ea38 84bd 40e6 e6ba
000002c0: e2b2 bd3d c052 953d 2c97 753d 840c c0bc
000002d0: e05e 4f3b 98b6 fb3c ae7d b7bd 78bd 913d
000002e0: f534 a6bd f013 c2bc e893 1bbc b0d8 8b3b
000002f0: b057 de3c 0780 d4bd 0085 a03c 5cd3 88bd
00000300: 8565 75bd d0e1 fe3b 9689 debd 6011 e0bb
00000310: e64f 99bd 70f4 f3bc f228 d33d be96 b23d
00000320: 3866 043d 44db b8bc 1a8d a73d 0094 55bc
00000330: 82c7 8c3d 734a d4bd d4ee 88bd a496 25bd
00000340: 0e27 a23d 8017 9abc 6806 98bc 943a 053d
00000350: c07c ef3b 6040 8b3c b4d1 1f3d ba3e d23d
00000360: c8b9 e43c 60b6 563c 727b c53d 4812 b73c
00000370: 1a5f a6bd 30fd c13c 3caf afbd 407d 82bd
00000380: aa1b ae3d 182f 0b3d 9224 b53d 20b3 f83c
00000390: e4da 683d 983a 863c bcfb 27bd dc8c 813d
000003a0: c06a 63bb e054 3e3d 1ce7 5d3d a91d 64bd
000003b0: 7663 b5bd d80f 58bc 6e86 dfbd 6809 acbc
000003c0: 5ce0 7abd 608a 173d c09f 58bc 20a2 3d3b
000003d0: 2477 893d 24c7 b13d 985f 49bc 20cd dbbb
000003e0: 4009 b3bb 20b7 ce3d 003d e93c 2449 9f3d
000003f0: c049 98bb f664 aa3d c88c 6d3d 30e7 58bd

bias f4 [10]
-0.057468563 0.03431119 -0.07675085 -0.05244428 0.080735624 0.10227595 0.045140773 0.047275245
-0.09200032 -0.027523838
00000000: 2864 6bbd e489 0c3d 8d2f 9dbd d0cf 56bd
00000010: b858 a53d 0e76 d13d 88e5 383d b0a3 413d
00000020: aa6a bcbd ac79 e1bc

weight f4 [1, 10]
-0.14129584 0.24148855 -0.2546218 -0.012936771 -0.15457207 0.078341454 -0.14031948 0.017423034
0.27646902 0.15019813
00000000: dbaf 10be c648 773e ca5d 82be c0f4 53bc
00000010: 2448 1ebe 7c71 a03d e9af 0fbe c0ba 8e3c
00000020: 598d 8d3e 8acd 193e

weight f4 [10, 83]
0.08742468 -0.058606677 0.084198385 0.025917068 -0.09936799 -0.087098226 -0.042389564 -0.024525352
-0.091484874 0.061423212 -0.032649823 -0.0011714697 0.03393498 0.077328965 0.09249689 -0.09759872
-0.07813252 0.031419262 0.06729373 -0.030239984 0.07359257 -0.07040815 -0.03814377 0.0740487
-0.07887777 0.022800967 0.048512667 0.06841594 -0.075357005 -0.10582757 0.08909094 -0.0614117
-0.062454022 -0.036446474 -0.03703952 0.016875222 0.030153483 -0.07975951 0.08381705 -0.05779443
-0.043617144 0.07131961 -0.108013764 -0.03849443 0.04430017 -0.016265132 -0.07447204 -0.06498334
-0.018607475 -0.097712554 0.10801384 -0.09810573 0.04467924 0.09730698 0.019469693 0.021346807
0.10561551 0.014517978 -0.039628424 -0.089676514 -0.100025475 -0.016376376 0.096196115 0.008512631
-0.07921009 0.08532336 0.02496709 0.04305832 -0.09566377 -0.09034667 -0.027346916 -0.095220685
0.008969113 -0.090238675 0.078195035 0.028974012 -0.07416983 -0.043682 -0.088006765 -0.09324881
0.088504985 0.068151444 0.0100672245 0.013949617 -0.09115913 -0.012264244 0.0020375326 0.10402254
-0.05066874 -0.05444414 -0.019290142 0.19767714 0.08502643 -0.05214796 -0.086209655 0.11640587
-0.08309136 -0.034032933 -0.09392075 0.077797994 0.034471225 -0.060802795 -0.027122043 0.010027368
-0.11731829 0.058167994 -0.10553925 0.19618882 -0.23103017 0.078657776 0.042972684 0.1925415
-0.24090531 0.048431486 -0.061981775 0.12237706 -0.20106265 0.034646958 0.013568029 0.10243192
-0.04358072 -0.08109417 -0.070278935 0.196164 0.030364817 0.036530554 0.06486602 0.06479881
-0.10857048 -0.07619341 -0.046140395 0.10079365 -0.07130395 -0.10664812 0.034450874 0.17272022
0.047229107 -0.051671002 -0.046277046 -0.014110511 0.13777189 -0.043707103 -0.0706244 -0.025783736
0.1649998 -0.06332506 -0.005719207 0.026080241 0.09926296 -0.059510373 0.0687335 0.050142508
0.065582395 -0.008797683 -0.025203936 0.13718839 0.14763789 0.104388595 0.026523173 0.059769362
0.08278664 0.05290641 0.10067092 -0.0009761974 -0.043148965 0.033265144 0.06686736 0.08398937
0.08168876 -0.06009192 0.046847694 -0.08988402 -0.020981915 0.010575496 0.0073572523 0.07040289
0.06983559 0.06569213 -0.040741637 0.06436366 0.045564815 0.054396704 0.11185695 0.110408604
-0.065784246 0.016591862 -0.03240514 0.088599786 0.009062223 -0.036154762 0.08510326 0.048808
-0.007387705 -0.09072984 -0.1542992 0.07825155 -0.021014646 -0.0648424 -0.014285413 0.08467332
-0.10664049 -0.10938748 0.062302466 0.20948012 0.093314424 0.054344937 -0.014710239 0.016893776
0.039284974 0.011056781 -0.12248884 0.20185266 0.065633506 0.0985679 -0.114726186 0.111219674
0.08941163 0.08087693 -0.05886588 0.1763117 -0.07176195 0.075901315 0.08184812 -0.010310945
0.03698194 0.047238067 0.093960054 0.02372789 0.069981486 -0.08267705 -0.006059415 0.10329202
0.03877546 0.0018620118 0.07148023 0.008695062 -0.027654834 0.009845473 -0.01956797 -0.08132123
0.013024271 0.07210545 0.128363 0.068904355 0.060333952 -0.014250174 0.06411773 0.09344353
-0.09096152 0.025545618 -0.027021365 0.007832959 0.014970824 0.13477477 -0.018297665 -0.08623029
00000000: b60b b33d 8e0d 70bd 3470 ac3d 0850 d43c
00000010: 7281 cbbd 8e60 b2bd aea0 2dbd 64e9 c8bc
00000020: 6c5c bbbd e896 7b3d d2bb 05bd 008c 99ba
00000030: 68ff 0a3d a65e 9e3d 026f bd3d d6e1 c7bd
00000040: f103 a0bd 7cb1 003d 4cd1 893d d8b9 f7bc
00000050: b4b7 963d 2632 90bd a43c 1cbd d8a6 973d
00000060: ab8a a1bd 18c9 ba3c 38b5 463d a81d 8c3d
00000070: c654 9abd 20bc d8bd 5075 b63d d68a 7bbd
00000080: cacf 7fbd e648 15bd c0b6 17bd e83d 8a3c
00000090: 7004 f73c f458 a3bd 46a8 ab3d dab9 6cbd
000000a0: e4a7 32bd 0410 923d 5236 ddbd 56ac 1dbd
000000b0: 1874 353d 743e 85bc cc84 98bd fc15 85bd
000000c0: b46e 98bc 851d c8bd 5c36 dd3d a8eb c8bd
000000d0: 9401 373d e248 c73d e87e 9f3c 80df ae3c
000000e0: f24c d83d d0dc 6d3c 6a51 22bd 52a8 b7bd
000000f0: 28da ccbd c027 86bc 7802 c53d 9078 0b3c
00000100: e638 a2bd 04be ae3d c887 cc3c ec5d 303d
00000110: 5eeb c3bd ad07 b9bd a406 e0bc 1003 c3bd
00000120: 30f3 123c 0ecf b8bd b824 a03d e85a ed3c
00000130: 5ae6 97bd e6eb 32bd e43c b4bd 3bf9 bebd
00000140: 1a42 b53d fc92 8b3d 00f1 243c ef8c 643c
00000150: a3b1 babd f8ef 48bc 2088 053b c509 d53d
00000160: 068a 4fbd d200 5fbd 5c06 9ebc e06b 4a3e
00000170: 5622 ae3d 1999 55bd b08e b0bd 3366 ee3d
00000180: ce2b aabd 1e66 0bbd 8659 c0bd 8e54 9f3d
00000190: b331 0d3d 5a0c 79bd 0c2f debc d449 243c
000001a0: 9244 f0bd 9041 6e3d f624 d8bd b9e5 483e
000001b0: 2c93 6cbe 5417 a13d 2004 303d 9929 453e
000001c0: e2af 76be 1860 463d 9ae0 7dbd d3a0 fa3d
000001d0: 5ee3 4dbe f8e9 0d3d 704c 5e3c d4c7 d13d
000001e0: b281 32bd b314 a6bd 67ee 8fbd 37df 483e
000001f0: a3bf f83c 10a1 153d 7ad8 843d 3db5 843d
00000200: 335a debd 4a0b 9cbd b6fd 3cbd e76c ce3d
00000210: ce07 92bd 546a dabd 5c1c 0d3d 92dd 303e
00000220: 4f73 413d f9a4 53bd 008d 3dbd c62f 67bc
00000230: 1314 0d3e 3806 33bd 87a3 90bd 6a38 d3bc
00000240: b5f5 283e 92b0 81bd 3068 bbbb 3ba6 d53c
00000250: 614a cb3d 26c1 73bd 26c4 8c3d 3b62 4d3d
00000260: 1050 863d 2824 10bc 7c78 cebc 1d7b 0c3e
00000270: 632e 173e b0c9 d53d 2047 d93c b8d0 743d
00000280: 0b8c a93d 64b4 583d 8e2c ce3d 80e7 7fba
00000290: f8bc 30bd 0841 083d c1f1 883d 9e02 ac3d
000002a0: 704c a73d f222 76bd 5ee3 3f3d 1d15 b8bd
000002b0: 44e2 abbc d844 2d3c 1b15 f13b 642f 903d
000002c0: f605 8f3d 9889 863d b4e0 26bd 18d1 833d
000002d0: 2ca2 3a3d 14cf 5e3d 4215 e53d e81d e23d
000002e0: e4b9 86bd a8eb 873c 41bb 04bd ce73 b53d
000002f0: b879 143c 0417 14bd 9e4a ae3d e6ea 473d
00000300: 9014 f2bb 91d0 b9bd 9c00 1ebe 5942 a03d
00000310: e826 acbc 18cc 84bd 5d0d 6abc 3569 ad3d
00000320: 5466 dabd 8b06 e0bd df30 7f3d f581 563e
00000330: a21b bf3d cc98 5e3d 3703 71bc d164 8a3c
00000340: 48e9 203d 8027 353c 6edb fabd 77b2 4e3e
00000350: dc6a 863d f8dd c93d 90f5 eabd 24c7 e33d
00000360: 721d b73d cea2 a53d 591d 71bd 0e8b 343e
00000370: eef7 92bd 2672 9b3d fd9f a73d 3def 28bc
00000380: 607a 173d b47c 413d 216e c03d fe60 c23c
00000390: 7452 8f3d 9652 a9bd 0f8e c6bb c48a d33d
000003a0: 04d3 1e3d c00e f43a 3a64 923d bc75 0e3c
000003b0: 648c e2bc e84e 213c 024d a0bc bf8b a6bd
000003c0: c063 553c 06ac 933d 9771 033e ba1d 8d3d
000003d0: bc20 773d 9079 69bc 2850 833d 525f bf3d
000003e0: 094a babd 0b45 d13c e95b ddbc d055 003c
000003f0: 3048 753c 6602 0a3e fce4 95bc 8299 b0bd

bias f4 [10]
0.0772094 -0.008640353 0.12910075 0.09454545 0.042845495 0.14945939 0.006449891 0.13642392
0.14904289 -0.0223244
00000000: f61f 9e3d 4490 0dbc fd32 043e 0ba1 c13d
00000010: c27e 2f3d e20b 193e 9b59 d33b b6b2 0b3e
00000020: b39e 183e a9e1 b6bc

weight f4 [5, 10]
0.12408635 0.31735006 -0.06464809 0.16683173 0.4162134 0.21864991 -0.22338825 -0.16479078
-0.36089426 0.24835548 0.01973468 -0.4736006 0.24223816 0.1471357 -0.014919179 -0.40759733
0.14158747 -0.39793605 -0.27940723 -0.28944182 -0.057316363 0.0830271 -0.16532874 0.07157837
-0.4018462 0.30175042 -0.13005091 -0.251456 0.46114004 0.20002015 -0.036117136 -0.37863782
0.27409738 0.082902566 -0.20921186 -0.35152557 -0.24585228 0.12656969 0.23034157 0.28631282
-0.26766336 -0.12401507 0.15746102 -0.06809779 -0.16232878 -0.052175365 0.08778601 -0.31707683
-0.36331424 -0.012180753
00000000: fc20 fe3d b57b a23e 3866 84bd f0d5 2a3e
00000010: ec19 d53e c3e5 5f3e e4bf 64be eabe 28be
00000020: 22c7 b8be e650 7e3e a0aa a13c c77b f2be
00000030: 480d 783e beaa 163e 926f 74bc 99b0 d0be
00000040: 4efc 103e 46be cbbe 770e 8fbe b831 94be
00000050: 90c4 6abd 1d0a aa3d f04b 29be ae97 923d
00000060: c9be cdbe 087f 9a3e 112c 05be d7be 80be
00000070: 8c1a ec3e 15d2 4c3e 90ef 13bd d1dc c1be
00000080: 7e56 8c3e d2c8 a93d a23b 56be 29fb b3be
00000090: b3c0 7bbe 7c9b 013e a9de 6b3e 9897 923e
000000a0: 2c0b 89be 9dfb fdbd 763d 213e db76 8bbd
000000b0: 8439 26be d6b5 55bd 27c9 b33d e557 a2be
000000c0: 5304 babe c891 47bc

bias f4 [5]
0.09436881 0.14675228 0.24815783 -0.26484737 0.1120121
00000000: 6f44 c13d 3b46 163e 161d 7e3e 139a 87be
00000010: 9a66 e53d
