HF_wo_Fire/AC/results/NovelGridworld-v0_c0_b0_e2.pt (torch_old, 9143 bytes, 7 tensors)

weight f4 [10, 83]
00000000: c07e 4b3b 0d7a 54bd 3028 31bc 5672 8dbd
00000010: 98cc 63bc b97c 9dbd c811 3d3d f05e 673c
00000020: 8a43 80bd 803b 083d d84f 243d 74db 5d3d
00000030: 58a1 1f3c 604d 01bc 7d43 53bd 849e 223d
00000040: 24a8 b9bc 6c49 9fbd 0202 a33d a850 aebd
00000050: 60bd 03bd e8ce fd3c 3e71 05bd bc71 cfbc
00000060: c4c0 b6bd 38c8 823c f0b7 a5bc 88b5 ce3c
00000070: 2ab2 b4bd 40f3 1a3d 3870 ce3c 2c81 1f3d
00000080: 98a4 c63c 7184 a2bd 6cda 553d 90af 6cbd
00000090: a096 f43c 4058 34bd 4ea5 a5bd b0ac 633d
000000a0: c8fe 47bc 0891 dd3d 902a 3dbc 5cb7 b3bd
000000b0: 68b8 e3bc 4af2 bf3d f86f e03d d490 a1bc
000000c0: 209b 7a3d b64d 9a3d c070 96bb 2b6b 7dbd
000000d0: aa55 41bd a84d 0c3d 9694 b6bd 7502 b6bd
000000e0: 2477 663d e654 b6bd 2019 213c a4d4 233d
000000f0: b8eb 993c 7898 843c 3896 7ebc e4fd fabc
00000100: 180c 773d 4838 963d 0c7c 4e3d 72d1 87bd
00000110: 680a 9d3d e449 9c3d 20ab 673c f063 09bd
00000120: 9079 8f3d 48d2 2b3c f0c9 fb3c c843 413d
00000130: 00e8 813d 34b5 6f3d ccc0 3f3d ded5 ce3d
00000140: a09d 653b 14bc b2bd e04a e9bb ff2e a0bd
00000150: 687d b43c 8252 8abd e0b7 d23b a562 4dbd
00000160: 4a7d 993d d0b2 abbd e02d 923d b669 91bd
00000170: 38d3 98bc 4258 da3d 9094 313d b832 293d
00000180: a056 b8bb 6c79 53bd 584c 1fbd f0b9 d43c
00000190: 403d d6bb 0e07 ca3d 8039 e93b b87d 933d
000001a0: 385d 7d3d 40d5 3ebd 001a b13b c054 973b
000001b0: d658 b43d 807a 1c3b a863 e33c 289f 5e3c
000001c0: 00a7 713d 04ce 3d3d c47e c73d 180b d63d
000001d0: 3e0f 953d 803d 79ba 1011 b53c 0805 0bbd
000001e0: 5af0 3abd dea4 893d 4048 df3d b4c5 87bd
000001f0: a6e3 823d 0093 8e3d a56d 7abd a82e 4ebd
00000200: c6e7 883d ec1d ad3d 9c84 b33d 0c78 193d
00000210: 00b1 e03c bbbc 61bd 7474 be3d 1cb8 533d
00000220: 70c7 9e3c c132 bfbd e82b 113d 7ef0 abbd
00000230: 6423 de3d c048 8b3c 101c 56bc 300f 8bbd
00000240: e7f9 82bd d7f1 a1bd 30dd 32bd e1fd adbd
00000250: 80c6 4a3d c405 293d d04d 86bd 88cd 4b3c
00000260: f4b9 bb3d 7892 88bd 2063 d73d 410b 56bd
00000270: d0a7 a83c 3cd9 6d3d b859 42bc b425 9a3d
00000280: 883b 013d 5005 abbc b4ee a43d 56fc 7abd
00000290: 3e11 a43d 1ac4 d13d 6c8f 703d e88e c1bc
000002a0: 3007 7cbd 5ef1 d73d f4e6 88bd 2a16 97bd
000002b0: 65c5 d3bd 323b d93d ea38 84bd 40e6 e6ba
000002c0: e2b2 bd3d c052 953d 2c97 753d 840c c0bc
000002d0: e05e 4f3b 98b6 fb3c ae7d b7bd 78bd 913d
000002e0: f534 a6bd f013 c2bc e893 1bbc b0d8 8b3b
000002f0: b057 de3c 0780 d4bd 0085 a03c 5cd3 88bd
00000300: 8565 75bd d0e1 fe3b 9689 debd 6011 e0bb
00000310: e64f 99bd 70f4 f3bc f228 d33d be96 b23d
00000320: 3866 043d 44db b8bc 1a8d a73d 0094 55bc
00000330: 82c7 8c3d 734a d4bd d4ee 88bd a496 25bd
00000340: 0e27 a23d 8017 9abc 6806 98bc 943a 053d
00000350: c07c ef3b 6040 8b3c b4d1 1f3d ba3e d23d
00000360: c8b9 e43c 60b6 563c 727b c53d 4812 b73c
00000370: 1a5f a6bd 30fd c13c 3caf afbd 407d 82bd
00000380: aa1b ae3d 182f 0b3d 9224 b53d 20b3 f83c
00000390: e4da 683d 983a 863c bcfb 27bd dc8c 813d
000003a0: c06a 63bb e054 3e3d 1ce7 5d3d a91d 64bd
000003b0: 7663 b5bd d80f 58bc 6e86 dfbd 6809 acbc
000003c0: 5ce0 7abd 608a 173d c09f 58bc 20a2 3d3b
000003d0: 2477 893d 24c7 b13d 985f 49bc 20cd dbbb
000003e0: 4009 b3bb 20b7 ce3d 003d e93c 2449 9f3d
000003f0: c049 98bb f664 aa3d c88c 6d3d 30e7 58bd
0.003105089 -0.05187421 -0.010812804 -0.069065735 -0.013903759 -0.076898046 0.046159536 0.014121756
-0.06262882 0.03325987 0.040115207 0.054164365 0.009743057 -0.007891983 -0.051578034 0.039701954
-0.022663184 -0.07777676 0.07959367 -0.08511478 -0.032163024 0.03098245 -0.0325787 -0.025322787
-0.08923486 0.015964612 -0.02022931 0.025233045 -0.088230446 0.037829638 0.025199994 0.038941547
0.024248406 -0.079354174 0.052210256 -0.057784617 0.02985698 -0.044029474 -0.0808817 0.05558461
-0.012206741 0.10818678 -0.011545792 -0.087752074 -0.027797893 0.09372385 0.10958856 -0.01972238
0.061183095 0.075343534 -0.0045910776 -0.06186978 -0.047200836 0.034253746 -0.08915059 -0.088871874
0.056265965 -0.08902912 0.00983265 0.03999771 0.018789157 0.016185984 -0.015538745 -0.030638643
0.060314268 0.073349535 0.05041127 -0.066317454 0.076680005 0.07631281 0.0141399205 -0.033542573
0.07005608 0.010487147 0.03073594 0.04718378 0.063430786 0.05852242 0.046814725 0.10099386
0.0035036579 -0.08727279 -0.0071195215 -0.07821464 0.022032455 -0.06754018 0.006430611 -0.050142903
0.074946 -0.08383715 0.07137656 -0.07100241 -0.018655404 0.10661365 0.04335457 0.041308135
-0.005625561 -0.05162947 -0.038891166 0.025967568 -0.0065380633 0.09864627 0.0071174502 0.07201713
0.06185648 -0.04659009 0.005404711 0.0046182573 0.088060066 0.0023876727 0.02775748 0.0135877505
0.058997154 0.04633905 0.097409755 0.10451335 0.07278298 -0.00095077604 0.022102863 -0.033940345
-0.045639373 0.06720899 0.109024525 -0.06629506 0.06391077 0.06961632 -0.06113972 -0.050337464
0.06684832 0.08452973 0.087655276 0.037468 0.02742815 -0.055111628 0.092995554 0.051689252
0.019382209 -0.093358524 0.035442263 -0.083954796 0.10846594 0.017002463 -0.013068214 -0.06790006
-0.06395321 -0.079074554 -0.043667972 -0.08495689 0.04950571 0.041265264 -0.0655781 0.012439139
0.09166327 -0.06668562 0.105169535 -0.052256826 0.020587832 0.0580685 -0.011862211 0.075267226
0.031550914 -0.020876557 0.080533415 -0.061275803 0.08011101 0.102424815 0.058730528 -0.023627713
-0.061530292 0.10544084 -0.06684676 -0.07377274 -0.103403844 0.10606994 -0.06456168 -0.0017616227
0.09262635 0.07291174 0.05995862 -0.023443468 0.0031642243 0.030726716 -0.089595184 0.071162164
-0.081155695 -0.023691148 -0.009495713 0.0042677745 0.027141422 -0.10375982 0.01959467 -0.066809386
-0.05991127 0.007778384 -0.10866086 -0.0068380088 -0.074859425 -0.029779643 0.10310544 0.08720158
0.032324046 -0.022565491 0.0818121 -0.013035774 0.068739906 -0.103657626 -0.06686178 -0.040426865
0.07917605 -0.018810034 -0.018557742 0.032526568 0.0073085725 0.01699847 0.039018348 0.102658704
0.027920619 0.013105005 0.09642686 0.022347584 -0.08123608 0.0236803 -0.08578345 -0.06371546
0.0850137 0.03398046 0.08844866 0.030358851 0.056849375 0.016385362 -0.041011557 0.06325695
-0.003470108 0.04646766 0.05417548 -0.05569235 -0.08856861 -0.013187371 -0.10914312 -0.021000579
-0.061249122 0.0369972 -0.013221681 0.0028935745 0.067121774 0.08680561 -0.012290858 -0.0067078024
-0.005463749 0.10093522 0.02847147 0.07777622 -0.0046474636 0.08320038 0.057995588 -0.052954853

bias f4 [10]
00000000: 2864 6bbd e489 0c3d 8d2f 9dbd d0cf 56bd
00000010: b858 a53d 0e76 d13d 88e5 383d b0a3 413d
00000020: aa6a bcbd ac79 e1bc
-0.057468563 0.03431119 -0.07675085 -0.05244428 0.080735624 0.10227595 0.045140773 0.047275245
-0.09200032 -0.027523838

weight f4 [1, 10]
00000000: dbaf 10be c648 773e ca5d 82be c0f4 53bc
00000010: 2448 1ebe 7c71 a03d e9af 0fbe c0ba 8e3c
00000020: 598d 8d3e 8acd 193e
-0.14129584 0.24148855 -0.2546218 -0.012936771 -0.15457207 0.078341454 -0.14031948 0.017423034
0.27646902 0.15019813

weight f4 [10, 83]
00000000: a829 fe3d fbe6 0cbd 0669 5e3d f754 dcbd
00000010: 6e21 3cbd c935 dcbd d031 0fbe aaa8 15be
00000020: 3f34 1bbd 29cf b83b 6101 dcbd 78bd e4bd
00000030: 62e0 983d c97f a93c 3766 a93c 8886 37be
00000040: e52d 9abd 590f fa3c b5a9 483d f485 9abd
00000050: f70c b43d 7d5e 05be 6bb3 7bbd 7d98 243d
00000060: 5d6d 4cbd be9d b6bd 3573 6a3d f0b2 433c
00000070: 9eed c2bd 953c 143c 565d 1a3e 8330 27be
00000080: ad5a 99bd e281 923c 194a ecbb cccd 0ebd
00000090: 1ea5 bc3b 061b 29bd 0926 e83d f0cc 79bd
000000a0: 3e4d 52bd 599e 7a3d f67b 8abd 5f32 1b3d
000000b0: 126d 553d 4301 72bd e3ce c9bd b717 aabc
000000c0: cec1 42bc 5a35 1dbe 3d80 e53d 3d0b 62bc
000000d0: e7ec 783d a874 ce3d 9afa 053c e534 6d3d
000000e0: 2f47 d53d c489 4d3d 3257 f23c 8614 56bd
000000f0: 2939 05be 7f3f f4bc b99e c43d 259c 523d
00000100: 50bc ebbd b58b ac3d ce0b 3fbd ac04 043e
00000110: fdf3 b9bd 2436 92bc 9c21 01be 2f02 74bd
00000120: affb 9e3d 591a 85bd 3b22 3dbd a58e 18bd
00000130: 007e 06bd 40e1 6dbd 3b37 d2bd 303f 6dbe
00000140: b6a4 d63d b372 793d 00f1 243c 0209 ee3d
00000150: de91 acbd 50c4 20be 3efe bfbd 79b4 2d3e
00000160: e2ea 72bd 772a 3fbe fb74 87bd 48b5 7c3e
00000170: 4082 1b3d dc03 f7bd de79 e3bd c210 153e
00000180: bd52 22be 1d28 bcbd 6f0e 5ebd 68de 9e3d
00000190: db50 71bd 88e0 3abd 4ece 223d 7d90 1e3d
000001a0: 246d 42be 86d3 703d e167 d5bd 79ec 593e
000001b0: dbf8 89be 35f0 883d 2681 7b3d 2976 783e
000001c0: 4392 87be 9a3b 98bc e835 03be 42f0 1b3e
000001d0: 7845 24be 273c 19bd 3057 5dbc 68dd ee3d
000001e0: 629c aebc 3977 a5bd 615e a8bd 7001 373e
000001f0: 346e 613d 963e af3d 1256 133e 1815 a23d
00000200: de9f b8bd 2e7b 4bbc f9ac 7abc f448 1a3e
00000210: e15b 34be 1ed7 c2bd 7b89 d63d 4f01 393e
00000220: bed6 c83d 5e8c d5bc f23c 023d 0366 d4bc
00000230: 90c9 253e 9dce ed3c 87a5 233d 0511 3cbd
00000240: c541 3d3e cce7 0fbc dcbb 273d 1ce7 c13c
00000250: a245 ea3d 3341 b8bd eb42 fc3d 0753 a33d
00000260: fbfb 7d3d 7faf 9abd 4430 373a 672f 433e
00000270: eefc 3d3e 1bc3 d63b f2e6 20bd 3dc3 283e
00000280: ca04 d53d d6e7 a8bd c368 bdbb a576 463d
00000290: fa1c cd39 0841 083d 4ae5 0e3e c527 533d
000002a0: d8df c83d f8fa 41bd bda6 dc3d 9cfd 21be
000002b0: aea6 e63c 6cda dd3c 9945 0f3d 1af1 9b3d
000002c0: 1da4 e93d 9315 ca3d 8462 3bbc 3132 013e
000002d0: ca55 983d 0cf0 243d 4ccf 0e3e 7f14 5b3e
000002e0: 260f 8cbd c24b 44bd cc53 31bd d1db 4b3e
000002f0: ab84 7b3d bb7e 05bc 9d3a 883d 2147 343e
00000300: 4b85 8a3d d0ad 88bd 6690 4fbe acee 6c3e
00000310: 778f b73d 69d8 813c b0fa 3fbd 42cb 413e
00000320: 79e4 8d3c 9985 24bd 6c46 653d 9073 5a3e
00000330: 0cdd 4a3e eac8 d23d 35ff a23b fa95 843d
00000340: 0cf9 593d c1e3 da3b 8580 f0bd 88de 5a3e
00000350: 4636 7c3d 10bc ea3d 0463 12be c63c 5d3e
00000360: 8c27 0c3e acc0 623d ac3a a0bd a84d 553e
00000370: 75f0 e8bc 8a46 c23d 6c3c a03d 0255 763d
00000380: 7ed8 813c 33e7 533d b355 a53d d3e3 f13d
00000390: ec03 c73d 980d 07bd 15fd 6abd 8746 323e
000003a0: a22e 2b3e 7d48 9d3d b65b 1f3d d105 943d
000003b0: 710b 953d 4629 323d 5019 8dbc bb97 4dbd
000003c0: 4d55 573d fee4 003e dc7e 363e f498 603d
000003d0: ec89 913d f3a8 b83c d082 f23c d9fa dc3d
000003e0: 094a babd 1999 4e3e 921e 81bd a8bc 3abe
000003f0: f729 0ebe 9961 7e3e 6ed0 94bd a84a 81be
0.12410289 -0.034399968 0.054299377 -0.10758393 -0.04593032 -0.10752446 -0.13983846 -0.14615121
-0.037891623 0.00563993 -0.107424505 -0.11168951 0.074646726 0.020690816 0.020678623 -0.17922413
-0.07528285 0.030524896 0.04898997 -0.07545081 0.08791535 -0.13024326 -0.061450403 0.040184487
-0.049908984 -0.08916806 0.057238776 0.0119445175 -0.09517978 0.009047647 0.15074667 -0.163271
-0.07487998 0.017884199 -0.0072109816 -0.034864232 0.005756988 -0.041285537 0.1133538 -0.06098646
-0.051343195 0.06118617 -0.06761925 0.037889834 0.05210597 -0.059083235 -0.09853914 -0.020763261
-0.011887027 -0.15352383 0.112061 -0.013796625 0.060772803 0.10080844 0.008177424 0.057911772
0.10413968 0.05018021 0.029582594 -0.052265666 -0.13010086 -0.029815434 0.096005864 0.051418442
-0.11510527 0.084250845 -0.046642117 0.12892407 -0.0907974 -0.017848082 -0.12610477 -0.059572395
0.077628486 -0.06499166 -0.046175223 -0.03724541 -0.032835007 -0.058076143 -0.102644406 -0.23168635
0.10480635 0.0609004 0.0100672245 0.11622812 -0.084262595 -0.15699887 -0.09374665 0.16963376
-0.059306033 -0.18668543 -0.06614109 0.24678528 0.037966013 -0.12061283 -0.11107229 0.14557174
-0.15851875 -0.091873385 -0.054212984 0.077572644 -0.058915 -0.045624286 0.03974753 0.038712014
-0.18986946 0.058795474 -0.10420204 0.21281613 -0.26947674 0.06686441 0.061402462 0.24263825
-0.26478776 -0.018583108 -0.12813532 0.1522837 -0.16042125 -0.03741088 -0.013509557 0.11663324
-0.021314804 -0.080793805 -0.08221126 0.17871642 0.05503674 0.08556859 0.14388302 0.079141796
-0.09014867 -0.012419505 -0.015300029 0.15066892 -0.17613174 -0.095136866 0.10475441 0.18066905
0.09806584 -0.026067909 0.031796403 -0.02592755 0.16190171 0.029029185 0.03995278 -0.04591467
0.1848212 -0.008783292 0.04095064 0.023669772 0.11439063 -0.08996811 0.12317451 0.079748206
0.062007885 -0.075530045 0.0006988088 0.19061051 0.18553516 0.00655402 -0.039282747 0.16480727
0.10401304 -0.08247344 -0.005780311 0.048452992 0.00039122236 0.033265144 0.13954654 0.0515516
0.0980832 -0.047358483 0.1077399 -0.158194 0.028155651 0.02708169 0.034978483 0.07614346
0.11408255 0.09867396 -0.011437062 0.12616803 0.07438238 0.04026799 0.13946265 0.21394537
-0.06838827 -0.04792381 -0.043292806 0.19908072 0.06140582 -0.008147891 0.066518046 0.17605259
0.06763705 -0.06673777 -0.20269927 0.23137921 0.089629106 0.015850263 -0.046869934 0.18925193
0.017320858 -0.04016647 0.055975363 0.21333146 0.19810885 0.102922276 0.0049742707 0.06473918
0.053216025 0.0066799824 -0.11743263 0.21373951 0.061575197 0.11461651 -0.14295584 0.21605214
0.13686961 0.055359527 -0.07823691 0.20830405 -0.028434971 0.094861105 0.078240246 0.060139664
0.015850302 0.05173416 0.080729865 0.11811032 0.09717545 -0.03297195 -0.057370264 0.17409717
0.16717008 0.07679842 0.03890582 0.07227672 0.07277573 0.043496393 -0.017223984 -0.05019353
0.052571584 0.12587354 0.1782183 0.054833367 0.07106385 0.022541499 0.029603392 0.10790033
-0.09096152 0.2017559 -0.06304659 -0.18236029 -0.13883196 0.24841918 -0.07266317 -0.2525227

bias f4 [10]
00000000: 566e 7e3d dc75 4aba 8201 273e 6d60 983d
00000010: 5e46 8c3c 5331 123e ff48 a63d c085 453e
00000020: 8d42 223e 0279 ee3c
0.062116943 -0.0007723251 0.16309169 0.07440267 0.017123397 0.14276628 0.08119392 0.19289303
0.158457 0.029110435

weight f4 [5, 10]
00000000: 5fd9 133e 9476 b43e 0e71 90bc c0c7 8c3e
00000010: ed99 0f3f 5eeb 5d3e 32c3 a2be b6d0 e4bd
00000020: bc97 e4be 91d5 9a3e ca30 59bd 1bc0 12bf
00000030: c2ea 093e 0387 db3c c7c0 08be c523 f9be
00000040: d837 233d e119 01bf 6e28 a1be aa34 a9be
00000050: 3910 28be 734f 8b3d 86fa 7ebe b405 16bd
00000060: 4dce 14bf aaaf ab3e f496 c2bd 2c83 97be
00000070: 5080 0b3f 64d1 e93d 375f 1abc c6e0 b8be
00000080: 6d95 be3e d868 033e 6fbd 2cbe 4fb8 b0be
00000090: f8fc 8fbe cb6a 313e 35a7 813e 1e47 bd3e
000000a0: 4c56 5ebe c28b c1bd cca2 1d3e ab58 c4bd
000000b0: 1833 23be e76b e4bc 6876 7c3e a0ef 9fbe
000000c0: e0c4 aabe 2a16 b5bd
0.14438389 0.35246718 -0.017632034 0.27496147 0.5609425 0.21671817 -0.31789547 -0.11172621
-0.44647014 0.30241063 -0.053025045 -0.5732438 0.13468459 0.026797777 -0.13354789 -0.48660102
0.03984818 -0.50430113 -0.31476158 -0.33047992 -0.16412438 0.06802263 -0.24900255 -0.036626533
-0.5812729 0.3353246 -0.09501448 -0.29592264 0.54492664 0.11416891 -0.009422115 -0.3610899
0.37223378 0.12832963 -0.16869138 -0.34515616 -0.28122687 0.17325895 0.2532288 0.3696832
-0.21712607 -0.09450485 0.15394133 -0.095872246 -0.1593746 -0.027883483 0.24654543 -0.31237507
-0.3335333 -0.08842118

bias f4 [5]
00000000: 59ea b83d 4c97 493d e8c3 723e daf3 56be
00000010: ffb5 283e
0.09029073 0.049216554 0.23707545 -0.2099146 0.16475676
