HF_wo_Fire/AC/results/NovelGridworld-v0_c0_b0_e1.pt (torch_old, 9143 bytes, 7 tensors)

weight f4 [10, 83]
0	0x3b4b7ec0	0.003105089
1	0xbd547a0d	-0.05187421
2	0xbc312830	-0.010812804
3	0xbd8d7256	-0.069065735
4	0xbc63cc98	-0.013903759
5	0xbd9d7cb9	-0.076898046
6	0x3d3d11c8	0.046159536
7	0x3c675ef0	0.014121756
8	0xbd80438a	-0.06262882
9	0x3d083b80	0.03325987
10	0x3d244fd8	0.040115207
11	0x3d5ddb74	0.054164365
12	0x3c1fa158	0.009743057
13	0xbc014d60	-0.007891983
14	0xbd53437d	-0.051578034
15	0x3d229e84	0.039701954
16	0xbcb9a824	-0.022663184
17	0xbd9f496c	-0.07777676
18	0x3da30202	0.07959367
19	0xbdae50a8	-0.08511478
20	0xbd03bd60	-0.032163024
21	0x3cfdcee8	0.03098245
22	0xbd05713e	-0.0325787
23	0xbccf71bc	-0.025322787
24	0xbdb6c0c4	-0.08923486
25	0x3c82c838	0.015964612
26	0xbca5b7f0	-0.02022931
27	0x3cceb588	0.025233045
28	0xbdb4b22a	-0.088230446
29	0x3d1af340	0.037829638
30	0x3cce7038	0.025199994
31	0x3d1f812c	0.038941547
32	0x3cc6a498	0.024248406
33	0xbda28471	-0.079354174
34	0x3d55da6c	0.052210256
35	0xbd6caf90	-0.057784617
36	0x3cf496a0	0.02985698
37	0xbd345840	-0.044029474
38	0xbda5a54e	-0.0808817
39	0x3d63acb0	0.05558461
40	0xbc47fec8	-0.012206741
41	0x3ddd9108	0.10818678
42	0xbc3d2a90	-0.011545792
43	0xbdb3b75c	-0.087752074
44	0xbce3b868	-0.027797893
45	0x3dbff24a	0.09372385
46	0x3de06ff8	0.10958856
47	0xbca190d4	-0.01972238
48	0x3d7a9b20	0.061183095
49	0x3d9a4db6	0.075343534
50	0xbb9670c0	-0.0045910776
51	0xbd7d6b2b	-0.06186978
52	0xbd4155aa	-0.047200836
53	0x3d0c4da8	0.034253746
54	0xbdb69496	-0.08915059
55	0xbdb60275	-0.088871874
56	0x3d667724	0.056265965
57	0xbdb654e6	-0.08902912
58	0x3c211920	0.00983265
59	0x3d23d4a4	0.03999771
60	0x3c99ebb8	0.018789157
61	0x3c849878	0.016185984
62	0xbc7e9638	-0.015538745
63	0xbcfafde4	-0.030638643
64	0x3d770c18	0.060314268
65	0x3d963848	0.073349535
66	0x3d4e7c0c	0.05041127
67	0xbd87d172	-0.066317454
68	0x3d9d0a68	0.076680005
69	0x3d9c49e4	0.07631281
70	0x3c67ab20	0.0141399205
71	0xbd0963f0	-0.033542573
72	0x3d8f7990	0.07005608
73	0x3c2bd248	0.010487147
74	0x3cfbc9f0	0.03073594
75	0x3d4143c8	0.04718378
76	0x3d81e800	0.063430786
77	0x3d6fb534	0.05852242
78	0x3d3fc0cc	0.046814725
79	0x3dced5de	0.10099386
80	0x3b659da0	0.0035036579
81	0xbdb2bc14	-0.08727279
82	0xbbe94ae0	-0.0071195215
83	0xbda02eff	-0.07821464
84	0x3cb47d68	0.022032455
85	0xbd8a5282	-0.06754018
86	0x3bd2b7e0	0.006430611
87	0xbd4d62a5	-0.050142903
88	0x3d997d4a	0.074946
89	0xbdabb2d0	-0.08383715
90	0x3d922de0	0.07137656
91	0xbd9169b6	-0.07100241
92	0xbc98d338	-0.018655404
93	0x3dda5842	0.10661365
94	0x3d319490	0.04335457
95	0x3d2932b8	0.041308135
96	0xbbb856a0	-0.005625561
97	0xbd53796c	-0.05162947
98	0xbd1f4c58	-0.038891166
99	0x3cd4b9f0	0.025967568
100	0xbbd63d40	-0.0065380633
101	0x3dca070e	0.09864627
102	0x3be93980	0.0071174502
103	0x3d937db8	0.07201713
104	0x3d7d5d38	0.06185648
105	0xbd3ed540	-0.04659009
106	0x3bb11a00	0.005404711
107	0x3b9754c0	0.0046182573
108	0x3db458d6	0.088060066
109	0x3b1c7a80	0.0023876727
110	0x3ce363a8	0.02775748
111	0x3c5e9f28	0.0135877505
112	0x3d71a700	0.058997154
113	0x3d3dce04	0.04633905
114	0x3dc77ec4	0.097409755
115	0x3dd60b18	0.10451335
116	0x3d950f3e	0.07278298
117	0xba793d80	-0.00095077604
118	0x3cb51110	0.022102863
119	0xbd0b0508	-0.033940345
120	0xbd3af05a	-0.045639373
121	0x3d89a4de	0.06720899
122	0x3ddf4840	0.109024525
123	0xbd87c5b4	-0.06629506
124	0x3d82e3a6	0.06391077
125	0x3d8e9300	0.06961632
126	0xbd7a6da5	-0.06113972
127	0xbd4e2ea8	-0.050337464
128	0x3d88e7c6	0.06684832
129	0x3dad1dec	0.08452973
130	0x3db3849c	0.087655276
131	0x3d19780c	0.037468
132	0x3ce0b100	0.02742815
133	0xbd61bcbb	-0.055111628
134	0x3dbe7474	0.092995554
135	0x3d53b81c	0.051689252
136	0x3c9ec770	0.019382209
137	0xbdbf32c1	-0.093358524
138	0x3d112be8	0.035442263
139	0xbdabf07e	-0.083954796
140	0x3dde2364	0.10846594
141	0x3c8b48c0	0.017002463
142	0xbc561c10	-0.013068214
143	0xbd8b0f30	-0.06790006
144	0xbd82f9e7	-0.06395321
145	0xbda1f1d7	-0.079074554
146	0xbd32dd30	-0.043667972
147	0xbdadfde1	-0.08495689
148	0x3d4ac680	0.04950571
149	0x3d2905c4	0.041265264
150	0xbd864dd0	-0.0655781
151	0x3c4bcd88	0.012439139
152	0x3dbbb9f4	0.09166327
153	0xbd889278	-0.06668562
154	0x3dd76320	0.105169535
155	0xbd560b41	-0.052256826
156	0x3ca8a7d0	0.020587832
157	0x3d6dd93c	0.0580685
158	0xbc4259b8	-0.011862211
159	0x3d9a25b4	0.075267226
160	0x3d013b88	0.031550914
161	0xbcab0550	-0.020876557
162	0x3da4eeb4	0.080533415
163	0xbd7afc56	-0.061275803
164	0x3da4113e	0.08011101
165	0x3dd1c41a	0.102424815
166	0x3d708f6c	0.058730528
167	0xbcc18ee8	-0.023627713
168	0xbd7c0730	-0.061530292
169	0x3dd7f15e	0.10544084
170	0xbd88e6f4	-0.06684676
171	0xbd97162a	-0.07377274
172	0xbdd3c565	-0.103403844
173	0x3dd93b32	0.10606994
174	0xbd8438ea	-0.06456168
175	0xbae6e640	-0.0017616227
176	0x3dbdb2e2	0.09262635
177	0x3d9552c0	0.07291174
178	0x3d75972c	0.05995862
179	0xbcc00c84	-0.023443468
180	0x3b4f5ee0	0.0031642243
181	0x3cfbb698	0.030726716
182	0xbdb77dae	-0.089595184
183	0x3d91bd78	0.071162164
184	0xbda634f5	-0.081155695
185	0xbcc213f0	-0.023691148
186	0xbc1b93e8	-0.009495713
187	0x3b8bd8b0	0.0042677745
188	0x3cde57b0	0.027141422
189	0xbdd48007	-0.10375982
190	0x3ca08500	0.01959467
191	0xbd88d35c	-0.066809386
192	0xbd756585	-0.05991127
193	0x3bfee1d0	0.007778384
194	0xbdde8996	-0.10866086
195	0xbbe01160	-0.0068380088
196	0xbd994fe6	-0.074859425
197	0xbcf3f470	-0.029779643
198	0x3dd328f2	0.10310544
199	0x3db296be	0.08720158
200	0x3d046638	0.032324046
201	0xbcb8db44	-0.022565491
202	0x3da78d1a	0.0818121
203	0xbc559400	-0.013035774
204	0x3d8cc782	0.068739906
205	0xbdd44a73	-0.103657626
206	0xbd88eed4	-0.06686178
207	0xbd2596a4	-0.040426865
208	0x3da2270e	0.07917605
209	0xbc9a1780	-0.018810034
210	0xbc980668	-0.018557742
211	0x3d053a94	0.032526568
212	0x3bef7cc0	0.0073085725
213	0x3c8b4060	0.01699847
214	0x3d1fd1b4	0.039018348
215	0x3dd23eba	0.102658704
216	0x3ce4b9c8	0.027920619
217	0x3c56b660	0.013105005
218	0x3dc57b72	0.09642686
219	0x3cb71248	0.022347584
220	0xbda65f1a	-0.08123608
221	0x3cc1fd30	0.0236803
222	0xbdafaf3c	-0.08578345
223	0xbd827d40	-0.06371546
224	0x3dae1baa	0.0850137
225	0x3d0b2f18	0.03398046
226	0x3db52492	0.08844866
227	0x3cf8b320	0.030358851
228	0x3d68dae4	0.056849375
229	0x3c863a98	0.016385362
230	0xbd27fbbc	-0.041011557
231	0x3d818cdc	0.06325695
232	0xbb636ac0	-0.003470108
233	0x3d3e54e0	0.04646766
234	0x3d5de71c	0.05417548
235	0xbd641da9	-0.05569235
236	0xbdb56376	-0.08856861
237	0xbc580fd8	-0.013187371
238	0xbddf866e	-0.10914312
239	0xbcac0968	-0.021000579
240	0xbd7ae05c	-0.061249122
241	0x3d178a60	0.0369972
242	0xbc589fc0	-0.013221681
243	0x3b3da220	0.0028935745
244	0x3d897724	0.067121774
245	0x3db1c724	0.08680561
246	0xbc495f98	-0.012290858
247	0xbbdbcd20	-0.0067078024
248	0xbbb30940	-0.005463749
249	0x3dceb720	0.10093522
250	0x3ce93d00	0.02847147
251	0x3d9f4924	0.07777622
252	0xbb9849c0	-0.0046474636
253	0x3daa64f6	0.08320038
254	0x3d6d8cc8	0.057995588
255	0xbd58e730	-0.052954853

bias f4 [10]
0	0xbd6b6428	-0.057468563
1	0x3d0c89e4	0.03431119
2	0xbd9d2f8d	-0.07675085
3	0xbd56cfd0	-0.05244428
4	0x3da558b8	0.080735624
5	0x3dd1760e	0.10227595
6	0x3d38e588	0.045140773
7	0x3d41a3b0	0.047275245
8	0xbdbc6aaa	-0.09200032
9	0xbce179ac	-0.027523838

weight f4 [1, 10]
0	0xbe10afdb	-0.14129584
1	0x3e7748c6	0.24148855
2	0xbe825dca	-0.2546218
3	0xbc53f4c0	-0.012936771
4	0xbe1e4824	-0.15457207
5	0x3da0717c	0.078341454
6	0xbe0fafe9	-0.14031948
7	0x3c8ebac0	0.017423034
8	0x3e8d8d59	0.27646902
9	0x3e19cd8a	0.15019813

weight f4 [10, 83]
0	0x3d8c20ac	0.06842169
1	0xbd1ff4b8	-0.03905174
2	0x3db01293	0.08597293
3	0x3cd45008	0.025917068
4	0xbdd99a92	-0.10625185
5	0xbdd64767	-0.10462838
6	0xbd371a23	-0.04470266
7	0xbcc8e964	-0.024525352
8	0xbde0502c	-0.109527916
9	0x3d6baf23	0.05754007
10	0xbce4e3da	-0.02794068
11	0xba998c00	-0.0011714697
12	0x3ccab35c	0.024743728
13	0x3d8c14c3	0.068398975
14	0x3db5a004	0.08868411
15	0xbdc7e1d6	-0.09759872
16	0xbdb70135	-0.08935777
17	0x3cfb07b1	0.030643316
18	0x3d7489e8	0.05970183
19	0xbcf7b9d8	-0.030239984
20	0x3d7a97e7	0.06118002
21	0xbd994a47	-0.074848704
22	0xbd4f8ae3	-0.050669562
23	0x3d97a6d8	0.0740487
24	0xbdcee217	-0.10101717
25	0x3bf744d6	0.0075460477
26	0x3da10a1f	0.078632586
27	0x3d8c1da8	0.06841594
28	0xbdea0c9b	-0.114281856
29	0xbdd0e31b	-0.10199567
30	0x3e0e0908	0.13870633
31	0xbd7b8ad6	-0.0614117
32	0xbdbe4585	-0.092906035
33	0xbcfdcbcb	-0.030980965
34	0x3b608bfe	0.003426313
35	0x3c8a3de8	0.016875222
36	0xba1b3f7c	-0.00059222407
37	0xbd937050	-0.07199156
38	0x3dd6c2d3	0.104863785
39	0xbd6cb9da	-0.05779443
40	0xbd330bfc	-0.0437126
41	0x3d63ff86	0.055663608
42	0xbdf739e7	-0.12071591
43	0xbd1dac56	-0.03849443
44	0x3d248ce6	0.040173434
45	0xbd05f50e	-0.032704405
46	0xbddb26cb	-0.107007585
47	0xbd8515fc	-0.06498334
48	0xbcea9bb3	-0.028638696
49	0xbdb8da36	-0.090259954
50	0x3e01d9f2	0.12680796
51	0xbdc8eba8	-0.09810573
52	0x3d0d6b6a	0.034526266
53	0x3dc0d87a	0.0941629
54	0x3d22f604	0.0397854
55	0x3caedf80	0.021346807
56	0x3dc8c012	0.098022595
57	0xbab4ab02	-0.0013783874
58	0xbc8233e5	-0.015893886
59	0xbdb7a852	-0.089676514
60	0xbdca327d	-0.09872911
61	0xbd0f589b	-0.03499661
62	0x3db6f30b	0.089330755
63	0x3c0b7890	0.008512631
64	0xbd4be879	-0.04978225
65	0x3d356138	0.04428217
66	0x3c358098	0.011078022
67	0x3d305dec	0.04305832
68	0xbda34e5b	-0.079739295
69	0xbdc34cf4	-0.09536162
70	0xbd3599d7	-0.044336166
71	0xbdc30310	-0.095220685
72	0x3c845c31	0.016157242
73	0xbdeeacc0	-0.11654043
74	0x3d64975a	0.055808403
75	0x3ced5ae8	0.028974012
76	0xbdb8cda9	-0.090236016
77	0xbd791fac	-0.06082122
78	0xbdb2bb78	-0.08727163
79	0xbdbef93b	-0.09324881
80	0x3db35593	0.08756556
81	0x3d666411	0.056247775
82	0x3c24f100	0.0100672245
83	0x3d1968f5	0.03745361
84	0xbdb4a738	-0.08820957
85	0xbddafd3c	-0.10692832
86	0x3b058820	0.0020375326
87	0x3de5bf58	0.112181365
88	0xbd4d32a0	-0.050097108
89	0xbe0b1a35	-0.13584216
90	0xbc9e065c	-0.019290142
91	0x3e4e33ac	0.20136899
92	0x3d93cd28	0.07216865
93	0xbdfe518a	-0.12417896
94	0xbdb08eb0	-0.086209655
95	0x3dff54db	0.12467357
96	0xbdfa516e	-0.12222563
97	0xbdcd9c89	-0.10039622
98	0xbdc05986	-0.09392075
99	0x3d9be50b	0.07612046
100	0xbc196c63	-0.00936422
101	0xbddb7278	-0.107151926
102	0xbcde2f0c	-0.027122043
103	0x3a24c14b	0.00062849064
104	0xbe03ea8f	-0.12882446
105	0x3cf5a309	0.029984968
106	0xbdd824f6	-0.10553925
107	0x3e3c0f48	0.18365204
108	0xbe611dee	-0.21984074
109	0x3d3df7f5	0.04637905
110	0x3d300420	0.042972684
111	0x3e408807	0.1880189
112	0xbe865901	-0.2623978
113	0x3c2dcb36	0.010607531
114	0xbd7de09a	-0.061981775
115	0x3ddb455a	0.10706587
116	0xbe4a749c	-0.19771045
117	0x3c55687b	0.013025398
118	0x3c5e4c70	0.013568029
119	0x3da76640	0.081737995
120	0xbd3febb4	-0.046855643
121	0xbd965f0b	-0.07342347
122	0xbd8fee67	-0.070278935
123	0x3e24e814	0.16104156
124	0x3d211a47	0.0393317
125	0x3da47505	0.08030132
126	0x3d84d87a	0.06486602
127	0x3d57aa26	0.0526525
128	0xbda30279	-0.07959456
129	0xbd5e8f49	-0.054335866
130	0xbd3cfdb6	-0.046140395
131	0x3db260b0	0.08709848
132	0xbd85dc24	-0.06536129
133	0xbd500a76	-0.050791226
134	0x3d0d1c5c	0.034450874
135	0x3e2351f1	0.15949227
136	0x3d97da66	0.07414703
137	0xbcdb61a8	-0.026779965
138	0xbd3d8d00	-0.046277046
139	0xbd0b88fb	-0.03406618
140	0x3e21ec6a	0.15812841
141	0x3c244025	0.010025059
142	0xbd90a387	-0.0706244
143	0xbd8f9484	-0.07010749
144	0x3e30adc7	0.17253791
145	0xbb4e5811	-0.0031485597
146	0xbbbb6830	-0.005719207
147	0x3ca5fd4d	0.020262385
148	0x3d89b7ab	0.06724485
149	0xbdb7bba6	-0.08971338
150	0x3d8cc426	0.0687335
151	0x3d7dacf0	0.061932504
152	0x3cc1c41e	0.023653086
153	0xbd10e9aa	-0.03537909
154	0xbcce787c	-0.025203936
155	0x3e0e3d1d	0.138905
156	0x3e159230	0.14606547
157	0x3d6bd069	0.057571802
158	0x3cd94720	0.026523173
159	0x3d9f1b67	0.077688985
160	0x3da61bcd	0.08110771
161	0xbc76bb74	-0.015059341
162	0x3dce2c8e	0.10067092
163	0x3cc9dd29	0.02464159
164	0xbd450c36	-0.04810735
165	0x3d084108	0.033265144
166	0x3e0ab541	0.13545705
167	0x3d9fcbb6	0.07802527
168	0x3d2c3246	0.042040132
169	0xbd7622f2	-0.06009192
170	0x3dd92ab3	0.10603847
171	0xbdd1b40c	-0.10239419
172	0xbd131b25	-0.03591456
173	0x3c2d44d8	0.010575496
174	0x3d04cf9c	0.032424554
175	0x3def974e	0.11698781
176	0x3dba98b5	0.09111158
177	0x3d868998	0.06569213
178	0xbd044f2e	-0.032302074
179	0x3e0d4140	0.13794422
180	0x3da7aee5	0.08187655
181	0x3d5ecf14	0.054396704
182	0x3e006179	0.12537183
183	0x3e2e826c	0.1704194
184	0xbcac9e55	-0.021071592
185	0x3c87eba8	0.016591862
186	0xbcf56c13	-0.02995876
187	0x3e197e27	0.1498953
188	0x3d93883e	0.072037205
189	0xbd141704	-0.036154762
190	0x3dad5aa6	0.084645554
191	0x3dc5fafe	0.096670136
192	0x3da4d6e3	0.08048799
193	0xbdb9d091	-0.09072984
194	0xbe1cff13	-0.15331678
195	0x3de3f58d	0.111308195
196	0x3d735aca	0.059412755
197	0xbd84cc18	-0.0648424
198	0xbbd99ea8	-0.0066412278
199	0x3e001dfb	0.12511437
200	0xbd3caf09	-0.046065364
201	0xbde0068b	-0.10938748
202	0x3da352a9	0.079747505
203	0x3e73f225	0.2382284
204	0x3e002789	0.12515081
205	0x3d5e98cc	0.054344937
206	0x3c8bb4ec	0.017054044
207	0x3d696607	0.056982066
208	0x3ce3a4d4	0.027788557
209	0x3c352780	0.011056781
210	0xbde3931d	-0.11112044
211	0x3e6166df	0.22011898
212	0x3d3ffb70	0.04687065
213	0x3dc9ddf8	0.0985679
214	0xbde29470	-0.110634685
215	0x3e237211	0.15961482
216	0x3d8cea4d	0.06880627
217	0x3da5a2ce	0.08087693
218	0xbd77d95b	-0.06051002
219	0x3e49b18f	0.1969664
220	0xbcf7c836	-0.030246835
221	0x3d9b7226	0.075901315
222	0x3dba2a3e	0.09090088
223	0x3c94edff	0.018179892
224	0x3d294fa6	0.041335724
225	0x3d417cb4	0.047238067
226	0x3de950b7	0.11392348
227	0x3d91f5f3	0.07126989
228	0x3dac3dbc	0.084102124
229	0xbda95296	-0.08267705
230	0xbd0715b9	-0.0329797
231	0x3e4d6a1a	0.20060006
232	0x3e08afb2	0.13348272
233	0x3af40ec0	0.0018620118
234	0x3d87971a	0.06620617
235	0x3db9ac56	0.090660736
236	0xbc96fe37	-0.018431766
237	0x3c214ee8	0.009845473
238	0x3b131777	0.0022444406
239	0xbce3cbef	-0.027807204
240	0x3c9d7ba6	0.019224
241	0x3d93ac06	0.07210545
242	0x3e3b7ed8	0.18310106
243	0x3da85617	0.08219545
244	0x3d49e500	0.049290657
245	0xbc697990	-0.014250174
246	0x3cb1c553	0.021700537
247	0x3e0b985a	0.13632336
248	0xbdba4a09	-0.09096152
249	0x3dd6a390	0.10480416
250	0xbd1efe34	-0.038816646
251	0xbdd65b54	-0.10466638
252	0x3c754830	0.014970824
253	0x3e41f5ba	0.18941393
254	0xbcf3e353	-0.029771483
255	0xbe268210	-0.16260552

bias f4 [10]
0	0x3d74ba68	0.059748083
1	0xbce3c563	-0.027804082
2	0x3e28a6b5	0.16469844
3	0x3dd1f7c1	0.102523334
4	0x3d07fcea	0.033200182
5	0x3df3b85e	0.119003996
6	0xbcb060a8	-0.021530464
7	0x3e4b45bd	0.19850822
8	0x3e319d17	0.17345081
9	0x3d252d9a	0.040326692

weight f4 [5, 10]
0	0x3dd8774c	0.10569629
1	0x3ea257e2	0.31707674
2	0xbd20d7b7	-0.03926822
3	0x3e48ca10	0.1960833
4	0x3eefc2bc	0.46828258
5	0x3e4bd723	0.19906287
6	0xbe602cf2	-0.21892145
7	0xbe1b598c	-0.15170878
8	0xbec91974	-0.39277232
9	0x3e8bde98	0.27318263
10	0x3cf3878b	0.029727718
11	0xbf009066	-0.50220335
12	0x3e61ea27	0.22061978
13	0x3deebd10	0.116571546
14	0xbd550efe	-0.05201625
15	0xbedfbf49	-0.43700626
16	0x3df1ec40	0.11812639
17	0xbed6d763	-0.41961202
18	0xbe9503be	-0.29104418
19	0xbe922a5b	-0.2854794
20	0xbdf1a9a4	-0.117999345
21	0x3d94e5ba	0.07270379
22	0xbe658929	-0.22415604
23	0x3c4e73c8	0.012600847
24	0xbefa2fb1	-0.4886451
25	0x3ea15e32	0.31517178
26	0xbe06134a	-0.13093296
27	0xbe8e0b45	-0.27742973
28	0x3f011247	0.50418514
29	0x3e165762	0.14681771
30	0xbc145ced	-0.009055358
31	0xbea8e629	-0.32988098
32	0x3eb3d7cb	0.35125574
33	0x3e0d8aba	0.13822451
34	0xbe1cbe4d	-0.15306969
35	0xbe9b103c	-0.30285823
36	0xbe7ae8b3	-0.2450283
37	0x3e3bafca	0.18328777
38	0x3e89e241	0.2693043
39	0x3eb86027	0.36010858
40	0xbe829c26	-0.25509757
41	0xbe1a20e2	-0.15051606
42	0x3ddc1dd6	0.10747878
43	0xbdc41cff	-0.09575843
44	0xbe3e6e17	-0.18596683
45	0xbdac4055	-0.08410708
46	0x3d918012	0.071045056
47	0xbebb357c	-0.36564243
48	0xbed74392	-0.4204374
49	0xbdee0416	-0.11621873

bias f4 [5]
0	0x3db555d3	0.0885426
1	0x3df90532	0.12159194
2	0x3e767ad3	0.24070291
3	0xbe507cfb	-0.20360176
4	0x3d8c5744	0.06852582
